experiments/phase3_sat/phase3_sat_lead1_seed0.pt (torch, 63413 bytes, 9 tensors)

encoder.0.weight f4 [8, 1, 3, 3]
00000000: e71f 773b 1845 363e 1a76 8abe fa16 81be
00000010: 2941 12be d00f b53d f1c5 bebb 5d35 823e
00000020: 1b69 b0bc 97a2 dc3d bb7b b5bd 95c6 34bd
00000030: d7e3 9bbe f527 67be c663 08be 5bd1 c93c
00000040: bec9 033e 458a 4d3e 5142 43be 66d2 ecbd
00000050: 4e04 283e 026f 9a3e 9b64 62bd 45e3 913e
00000060: 0942 68bd 2489 623d f5ec b23e 25bf 8dbe
00000070: a7e3 8abe fa93 debd 7a9c 0abe ad07 3a3e
00000080: 9283 6cbe 5782 f7bd 8425 82be fbc2 8bbe
00000090: b604 27be daa8 a43e 7519 3a3e af86 423e
000000a0: a163 3f3d 49ca 17be 1483 a13d dce9 92be
000000b0: 4d6c 5bbe 76fb 00be a135 803e 2bff 693e
000000c0: dcbd c4bd 2993 483d 101e 843e 11ff c33e
000000d0: 48bf 473e 9aa7 b73d 5003 8e3e 70d6 1ebe
000000e0: 5ff3 ea3d 0340 3ebe 4aee 45be 3bad e1bd
000000f0: 69cf 683e a565 473e 46e2 cebd 03e8 3a3e
00000100: f753 903e 9a79 063d d169 963d ded1 1a3e
00000110: e938 843e 77ee a93e e77f 6ebe abf4 ccbd
0.0037708224 0.17799795 -0.2704323 -0.25212842 -0.14282669 0.088409066 -0.0058219363 0.25431338
-0.021534493 0.10773199 -0.0886149 -0.044134695 -0.30447266 -0.22573836 -0.1331931 0.024635961
0.12869927 0.20072277 -0.19068266 -0.11563568 0.16407892 0.30162817 -0.055271726 0.28493705
-0.0567036 0.05530657 0.3494641 -0.27684894 -0.2712681 -0.10868068 -0.13536254 0.1816699
-0.23097065 -0.12085407 -0.25419247 -0.27297196 -0.16310391 0.32160074 0.18173774 0.1899669
0.046725873 -0.1482326 0.07886329 -0.28694046 -0.21428032 -0.12595925 0.25040916 0.22851245
-0.09606525 0.048968468 0.25804186 0.38280538 0.19506562 0.08967514 0.27736902 -0.15511489
0.114722006 -0.18579106 -0.19329181 -0.11019369 0.2273537 0.19472368 -0.10101752 0.18252568
0.2818906 0.032830812 0.07344402 0.1511912 0.2582467 0.33189747 -0.23290978 -0.10007604

encoder.0.bias f4 [8]
00000000: e934 373e be57 b23e af0a aa3e a110 cf3e
00000010: c6e7 b73d a9fa 84be 576c 2a3e 1424 30be
0.17891277 0.34832567 0.33211276 0.40442374 0.08979754 -0.2597249 0.16642891 -0.17201263

encoder.2.weight f4 [8, 8, 3, 3]
00000000: 6d18 9abd 4b15 d03d 7330 303e ecfe 58bd
00000010: e48e b73d 308e d03d 1c20 de3d 9f99 f83b
00000020: 2941 0f3e 4e16 adbc 100d 013e 76e4 243e
00000030: 140f 403e 5127 353e 2c13 993c 38f2 f03c
00000040: 4241 423e ac0e 083e 0f99 93bd 5427 9abc
00000050: aa1f 343e 7d8a d73d 3ce5 ba3b 2e05 093d
00000060: 8c44 7bbd 3cc4 913d c93d a03a 808e 963c
00000070: adfe da3d db59 db3d c59a 8c3d e1df 453e
00000080: 517f 2e3d 57c1 3c3e c8ef 463e 2338 ee3b
00000090: 74c2 163e bc41 033e 80e9 6a3c 2860 a23d
000000a0: 8e1e e53c 34b6 aebc 1949 f6bd 2570 2ebd
000000b0: 9872 b5bd e8f5 86bd 6de7 24bd d312 14bd
000000c0: ed6c 96bd b9ca e1bd 55d1 bc3c 04c7 7d3c
000000d0: 1262 90bd 2cea 843d 767e 8a3e 7ac8 353d
000000e0: a8c4 2fbd 205c 473e 1efc 413e 2742 c73d
000000f0: 4b04 803e ff44 683e cb4c c23d 1994 743d
00000100: 1bd7 74bd 9d01 73bd 53a9 c23d a74a 14bd
00000110: a075 9cbd 9dad 65bd e7d9 16be e6e2 e0bd
00000120: 2951 52bc 111c cd3d 9661 893d 730e eebd
00000130: e350 7f3d 2f5c 10be aca4 a1bd bc4a acbd
00000140: 88e6 7dbd 8516 30bc b738 e6bd 0ebd 06be
00000150: beef 22bd 9de6 56bd 3253 00be 7354 c53a
00000160: ec49 33be c527 8cbd 1ad9 0c3e 0dcf 85bc
00000170: 0154 083e 5055 a03d 3dba 97bd e625 d33d
00000180: f559 913c 4414 c2bc 82e8 f23d 6e58 07be
00000190: a94a ddbc 44b1 62bd 9feb 333d 4a45 0cbb
000001a0: b949 ac3c df76 4f3c a992 8cbd 9e08 8dbd
000001b0: cc96 35be e99b 97bc 3dc6 8d3d 026e 453c
000001c0: 6e51 01be 622d 373c 4a9b 97bd 962b aebc
000001d0: 443b 3fbd 661f 983d 0d63 04bd c2cd 083d
000001e0: 083a 333d 7ba1 f13d 0916 5cbd 4285 34bd
000001f0: 6458 f0bc ebdf e73d 67f8 eebd 945e e83d
00000200: e4d3 083e 73b9 c9bd 239c d8bd c956 64bd
00000210: ee5a 49bd 99a8 1dbe d831 793b 51a2 1b3d
00000220: e68e 85bd 4704 d9bc 0187 003e f5ba 67bd
00000230: 6724 0b3d 5def 183e 84c5 b13d da3d 3f3d
00000240: 00c8 9ebd 5deb d23c 7889 2cbd 9bb1 75bb
00000250: ef7b 243d 7965 ec3d ba8a 123e 7a8b 2e3e
00000260: 2d98 073e 29da 033e e6d5 033e 5afc 823c
00000270: dc78 263e d4ae 7b3d c88c f43d 7616 333e
00000280: ad91 583e 440a 773e 3770 88bc d09f f03c
00000290: b33a cc3d c5a7 c9bd 3629 e23d 6e30 8fbd
000002a0: eabb c13c 7920 393c 479d afbc 36dd 363e
000002b0: 4492 843e 4653 de3d f874 de3d 9926 f33d
000002c0: 9055 2f3d b72c 603e f697 fe3d 52f0 c73d
000002d0: 0b71 d63d 1af1 643e 6182 c23d e0e1 6e3e
000002e0: 8d01 173e a297 0ebd c0c1 20bd c5ca 96bc
000002f0: 5b29 0e3e 3a5b 633d 6d0d 26bd 8d83 2dbd
00000300: df9e d9bd cd36 093d 4bc2 3ebd ed85 d3bd
00000310: 5394 b13d c20d 49bd e09d 443e 2275 303c
00000320: 2494 e4bd 1600 413e 861b 053e 94e3 5a3e
00000330: 6b7b 5d3e ebde bd3e d035 493c a3f4 aa3d
00000340: 40ac 993c 8d3e 3e3c f5ce 51bd 23ed 603d
00000350: 8ca3 523d 0646 5d3c 46c3 26bd dbff 9abd
00000360: 0eb8 d33d 3fd0 05bd 2551 4c3d 6e77 12bd
00000370: 4e35 b2bd 1a4b 13bd 85ae ffbd d598 cb3b
00000380: 9fa5 17bb 5a15 8dbd d0c3 613c 47ef ce3c
00000390: 84e9 263c e4e9 a8bd b86e 2fbe fa0a 81bd
000003a0: 73eb d8bc fb3d babd 6c4e a63d 597a e33d
000003b0: 4bd1 0fbd a84b 1d3d 5231 a73d 1c3b 203d
000003c0: 73ef 2c3d 8979 313d 27ef 8ebd c7ae f3bc
000003d0: 4211 393d 2249 a33d 263d 003d d7a7 5bbc
000003e0: 7870 bc3c fc5c a9bd 8980 0ebe 9df5 13be
000003f0: 2ed4 953c 885d 31bc 0104 b8bd 1b99 5cbc
-0.0752419 0.10160311 0.17205982 -0.052977487 0.08962801 0.1018337 0.10845968 0.0075866724
0.139897 -0.0211288 0.12602639 0.16102776 0.18755752 0.1769078 0.0186859 0.029412374
0.18970206 0.13286847 -0.07206928 -0.018817581 0.17590204 0.105244614 0.0057035964 0.033452205
-0.06134467 0.07117507 0.0012225445 0.018378496 0.10693107 0.10710498 0.068654574 0.19323684
0.042601887 0.18433128 0.19427407 0.0072698756 0.14722615 0.12818044 0.014337897 0.079284966
0.027968671 -0.021327116 -0.12025661 -0.042587418 -0.08859748 -0.06589872 -0.040259767 -0.036150765
-0.07344995 -0.110249944 0.023049036 0.015489344 -0.070499554 0.06489977 0.27049607 0.044380642
-0.042912155 0.19468737 0.18943831 0.097294144 0.25003275 0.2268257 0.09487303 0.05971155
-0.059775453 -0.05932771 0.09504952 -0.036204007 -0.07639623 -0.056073774 -0.1473156 -0.109807774
-0.012836733 0.10015119 0.06708066 -0.1162385 0.062333 -0.14097665 -0.07892737 -0.08412692
-0.06198743 -0.010747557 -0.11241286 -0.13158056 -0.039779417 -0.052466024 -0.12531736 0.0015055075
-0.17508668 -0.06843523 0.13754693 -0.016334081 0.13313295 0.07828772 -0.07408569 0.10309963
0.01774309 -0.023691304 0.118607536 -0.13217327 -0.02701314 -0.055344835 0.043925878 -0.0021403604
0.021031247 0.012662618 -0.06863911 -0.06886409 -0.17733306 -0.018506961 0.069225766 0.012050154
-0.12628719 0.011180254 -0.07402666 -0.021261018 -0.04668738 0.07427864 -0.032321025 0.03339935
0.043756515 0.11798378 -0.05373195 -0.044072397 -0.029339023 0.11322006 -0.11668473 0.11346164
0.1336208 -0.09849825 -0.10576656 -0.055746827 -0.049158983 -0.15396346 0.0038024094 0.037996594
-0.06521396 -0.026491297 0.125515 -0.05657478 0.033970263 0.1493506 0.08680251 0.046689846
-0.07752991 0.025746996 -0.042123288 -0.0037489894 0.040157255 0.11542792 0.14310732 0.17045394
0.13241644 0.1287619 0.12874565 0.015989471 0.16257042 0.061446026 0.119409144 0.17489037
0.21149321 0.2412501 -0.01665507 0.02937308 0.099721335 -0.098464526 0.110430166 -0.06991659
0.023649175 0.011299246 -0.0214373 0.17857823 0.25892842 0.10855727 0.10862154 0.11872596
0.042806208 0.21892057 0.12431328 0.09762634 0.1047078 0.22357598 0.09497524 0.23328352
0.14746685 -0.034812577 -0.039247274 -0.018407235 0.13882963 0.055506922 -0.040540148 -0.042361785
-0.106260054 0.033499528 -0.04657201 -0.10328279 0.08670869 -0.049085386 0.1920085 0.010770114
-0.11161068 0.18847689 0.1299878 0.21375877 0.21629111 0.37084135 0.012280896 0.08347442
0.018758893 0.011611593 -0.05122276 0.05491365 0.0514255 0.013505464 -0.04071357 -0.07568332
0.1033784 -0.032669302 0.049882073 -0.03575843 -0.08701573 -0.035960294 -0.12484459 0.0062132874
-0.002313949 -0.06888838 0.0137795955 0.02526058 0.01018751 -0.08247736 -0.1713208 -0.06300922
-0.026479458 -0.09093853 0.081204265 0.1110732 -0.035111707 0.03840223 0.08163704 0.03911887
0.042220544 0.043328796 -0.069792084 -0.029746426 0.045182474 0.07972933 0.031308316 -0.013406715
0.023002848 -0.082696885 -0.1391622 -0.14449163 0.018289652 -0.010825522 -0.08985139 -0.013464238

encoder.2.bias f4 [8]
00000000: 4c3a c33d 7d0f 053e 0ed5 debb 21b0 843d
00000010: b08a 273b 6d50 94bb 2568 143e a6f4 4dbd
0.095326036 0.1299419 -0.0068003004 0.064789064 0.0025564842 -0.004526189 0.14492853 -0.050282143

cell.conv.weight f4 [64, 24, 3, 3]
00000000: 36f0 ea3d 0ab5 383e 9f37 d33d a54c 283e
00000010: 5ee2 d13d 663d 323e 9978 353d 2bad d43d
00000020: 8f2d c53d 2614 383d 63ed 2e3d e6b4 9e3d
00000030: 026e 383c 5550 e33b b903 913d a31c 1e3c
00000040: e3ce a03d 482a 95bc 1075 b13d 3370 de3d
00000050: 3077 093e 9f24 133e 940d dc3d 6c49 e13c
00000060: 7605 df3d 3a9f ae3d aeb2 d23d 5302 a6bc
00000070: 9b0b 733d 3a30 a93d 621d 6e3c 5b2a 6dbd
00000080: 6a32 843d 923b 0abd ff7c 183d b994 263d
00000090: 74e6 2e3d 1606 cf3d 121f 6e3c 69da b33d
000000a0: bc1f 083d d163 883d 2ba4 a43d 64d7 0e3e
000000b0: fc4b 333d 27e4 fd3d 793e 003e a20f 753d
000000c0: 1891 833c f159 e73d 82c1 0b3e 83ae a43d
000000d0: 520a 263e 2b97 f73d 4be9 0e3e f67f 1e3e
000000e0: cd8b 0a3e 11e4 133c b695 9f3b 918b 6bbc
000000f0: 34bd a03c 96e6 0f3d 1308 c63d 0294 5c3c
00000100: c025 ec3d ee76 153d 531a 7a3d 05f6 153e
00000110: 3be9 863d c031 9d3d 921a 053d c803 063e
00000120: fa1e 063a 1612 4bbd 1951 c43c 7226 52bd
00000130: 3a14 a6bd 6b93 b0ba 16a3 743d fbdb f6bc
00000140: 0774 de3c 8b3b 683d 2348 473d f55a 07bd
00000150: 0be7 7fbb 3818 37bc fefc 44bd 3e7c 7bba
00000160: 55f9 643d cca0 753d 65c8 eb3b 3fbe b63c
00000170: bc85 bfbc dc5b 653d 58e7 7fbc af50 1dbd
00000180: 4b01 5a3c 6e14 3f3d 581e 65bd e18b 843d
00000190: 081c 063d 4ff7 2ebd b18a edbb 444a 9b3d
000001a0: e2cc 26bd ec92 95bc e64e 023d d2d5 52bd
000001b0: c51d f03c 8b29 c83c 00cc e73c bd9f 56bd
000001c0: 368f 5a3d 8a62 67bd 6b87 7d3d 7a33 9cbd
000001d0: 8522 9abd ff28 f83c d711 073c 9105 53ba
000001e0: 31ed 3dbd 92d1 18bc b442 8fbc 6235 b6bd
000001f0: 5275 8dbb e4af 0e3b d7c0 103b d9c9 a83c
00000200: d35f 843d 13c7 7c3c e71b 1fbd 794b 18bd
00000210: 8c63 36bd c035 60bd 0192 a7bc 61a5 69bc
00000220: d336 dc3c 2c04 0bbd eb8c 423d 70ed 75bd
00000230: d574 21bc 95fd 663d aedc 723d 23a2 43bd
00000240: 877e 453c d007 953b efe0 11bd 6722 ebbc
00000250: 6c1e f83b baf5 64bd 6cd3 263c 75e1 be3c
00000260: d18e 02bd 5daf 853d 74f9 a8ba 94cb 0e3d
00000270: 77a0 883d acb4 00bd f75d 0b3d 3a08 6abc
00000280: b48d 56bc 13c1 47bc d513 3d3c ff15 53bc
00000290: f230 123d 2376 4e3c c3d7 533d eb99 d93b
000002a0: b00a 8e3c e288 44bc 8b90 05bd 2ffc f93c
000002b0: 13be f33b 49ca d8bc 875e d1bc f126 103c
000002c0: d612 76bc a0c8 3f3d 6a41 153b e9c8 cf3c
000002d0: 0a99 ec3c 3172 b9bc 350b be3c 9222 433d
000002e0: 27bb 07bc 5046 6f3b f794 3e3b 94fb 2b3d
000002f0: 51cc 0fbd bcd3 c0bc 98ff 3b3d ff36 2cbd
00000300: ac21 523c f074 27bc 9dcf 813d 6904 4ebd
00000310: bbce 833d d2d9 bb3d 6fec b53c e9c0 c03b
00000320: 947f 9f3d 9e83 90bc 9eb6 3f3c e52f 67bc
00000330: 6189 8aba 6e62 ed3c 1d9c cb3c 6dd6 40bc
00000340: fd55 94bd e0fc 05bb 71b2 9cbb 0bad 1bbb
00000350: 20f1 2c3d de87 883d 80fc 38bd 2111 17bc
00000360: 42b7 2cbd fe59 7abd 6c7e 6dbd 177f 8b3d
00000370: 255b 9f3d d0d1 4c3d 2a9f 283d 6429 f4bc
00000380: ff3b fe3b 483b d33d f6ed 923a 8e6a cd3d
00000390: a475 683d b144 ad3d 0602 223c 52b2 903d
000003a0: d9b9 c1bc 79b3 0b3d 80ad 813c fcc6 d23c
000003b0: 4e81 6e3d 1300 863d 6127 983d d864 613d
000003c0: 5fd5 443d c665 a636 d97b 21bd 4066 783c
000003d0: 8e7c 003d 45d7 a83a 8215 943d b6a0 763d
000003e0: cab8 443d 61e2 603d 19c7 c93d d50c 843d
000003f0: 738b 61bd b34e 33bd 647e 073d 6a6e 5d3c
0.11471598 0.18037811 0.10313343 0.16435488 0.10248254 0.17406234 0.044304464 0.10384592
0.0962783 0.04494109 0.04270686 0.077493474 0.011256697 0.0069370666 0.07080788 0.009650382
0.078519605 -0.018208638 0.08664906 0.10861244 0.13424373 0.14369439 0.10744777 0.02750083
0.108897135 0.08526464 0.10287987 -0.02026478 0.05933724 0.082611516 0.014533373 -0.05790172
0.06454928 -0.033748217 0.03722858 0.040669177 0.042700246 0.10108583 0.014533775 0.08781893
0.03323339 0.066596635 0.08039125 0.13949353 0.043773636 0.12397032 0.12523831 0.05982936
0.016060397 0.11296452 0.13648036 0.08041098 0.16214874 0.1208938 0.13956182 0.154785
0.13529892 0.009026543 0.004870142 -0.014376537 0.01962147 0.035132013 0.09669509 0.013463022
0.11530638 0.036490373 0.06106026 0.1464463 0.06587454 0.07675505 0.032496043 0.1308738
0.000511631 -0.049577795 0.023964452 -0.051306196 -0.08109327 -0.0013471668 0.059725843 -0.030134192
0.027154936 0.05669741 0.04865278 -0.033045728 -0.0039047624 -0.011175208 -0.048092835 -0.00095934037
0.055901844 0.0599678 0.0071955197 0.022307513 -0.0233792 0.055995807 -0.0156191215 -0.038407024
0.013305972 0.046650343 -0.05593714 0.06471992 0.032741576 -0.04271632 -0.0072491993 0.075825244
-0.040722735 -0.018258534 0.031813525 -0.051473446 0.02931107 0.024433872 0.028295517 -0.052398432
0.053359233 -0.05649046 0.061896723 -0.07627006 -0.07526115 0.030292986 0.008243999 -0.00080498407
-0.04636878 -0.009327309 -0.017487861 -0.08896901 -0.004316964 0.002177232 0.0022087598 0.020604061
0.064635895 0.015428322 -0.03884497 -0.03718135 -0.04452853 -0.05473876 -0.020455362 -0.014260621
0.026881611 -0.033939525 0.04749767 -0.06004089 -0.009854515 0.05639418 0.059292488 -0.047762047
0.012054092 0.0045480505 -0.035614904 -0.028702928 0.007571986 -0.055898406 0.010182243 0.023300866
-0.03187448 0.065275885 -0.0012891726 0.034862116 0.06671231 -0.031422302 0.03402516 -0.014284188
-0.013095308 -0.012192029 0.011540373 -0.012883662 0.03569121 0.012601408 0.05171944 0.006640663
0.01733908 -0.011995526 -0.03260855 0.030515758 0.00743843 -0.026463645 -0.02555777 0.008798347
-0.015019139 0.04682219 0.0022774586 0.025364356 0.028881568 -0.022637459 0.023198703 0.04764039
-0.008284367 0.0036510415 0.002908049 0.04198797 -0.03510696 -0.023538463 0.04589805 -0.042044636
0.012825411 -0.010220751 0.06338427 -0.050297175 0.06435915 0.09172405 0.022207467 0.0058823717
0.077880055 -0.017640885 0.011701254 -0.01411054 -0.0010569507 0.028977599 0.024854714 -0.011769873
-0.072429635 -0.0020444915 -0.004782014 -0.0023754265 0.042222142 0.066665396 -0.045162678 -0.009220392
-0.042166956 -0.06112098 -0.057981893 0.0681135 0.07781056 0.05000478 0.041167416 -0.029804893
0.007758617 0.103140414 0.0011209834 0.10030089 0.056752816 0.084603675 0.009888178 0.07065262
-0.02364819 0.034106705 0.015829802 0.025729649 0.058228783 0.06542983 0.07429386 0.055027813
0.04805505 4.9590335e-06 -0.03942475 0.015161097 0.031368785 0.0012881538 0.07230665 0.06021186
0.04802779 0.05490339 0.09852428 0.0644776 -0.05506463 -0.043776225 0.03307952 0.013515094

cell.conv.bias f4 [64]
00000000: 0cf9 b53d 3463 08bc 22c2 e13b 2b5b 9f3d
00000010: e188 b9bc 38ef 8f3a d6b5 8c3d bb4b ad3b
00000020: 7d1a bd3d 95b5 a93d 8978 923c ff25 873d
00000030: 2109 77bc c0a5 d73d f707 5a3c b8a2 5e3d
00000040: 9640 043c 553b b13d 1021 533d d7d3 04bc
00000050: 4f3e 1cbd 4bc8 ab3a 6e1f 1a3d 663d 453c
00000060: 81f7 ac3c 170f c73b 993f bb3c eb69 b83d
00000070: 6881 af3c 8259 f139 6d2c 953c 83e8 bb3d
00000080: 432e 963d 3424 f43b dbf0 a93d 77cb 3c3d
00000090: 9074 973d da12 e53a b6f3 a63b ba4d af3d
000000a0: d659 883d dd71 3e3d f34a c93d d4c5 2f3d
000000b0: 1ed3 413b 32d4 b53d 40ec 5b3d 398b 943d
000000c0: 9d01 0fbb a259 9b3d 5990 163c ac19 5d3d
000000d0: 2f7f a9bd ee42 80bc ed32 81bd eb4f b6bc
000000e0: 3905 94bd 350c 16bd 299a 973d c9b6 8e3c
000000f0: 9327 203d e5f8 3e3d e45a 7c3d fd86 4bbd
0.088853925 -0.008324433 0.0068895975 0.07781061 -0.022648277 0.0010981327 0.0687062 0.005288569
0.09233568 0.08286587 0.017879741 0.06599044 -0.01507786 0.10529661 0.013307563 0.0543544
0.008072039 0.08653895 0.051545203 -0.008107147 -0.03814536 0.0013105957 0.03762763 0.012038564
0.021114113 0.006074797 0.022857474 0.09004577 0.02142401 0.0004603379 0.01820966 0.091752075
0.073330425 0.007450605 0.08297893 0.046092477 0.073952794 0.0017476932 0.0050949706 0.08559747
0.0665776 0.046495307 0.098287486 0.042913273 0.0029575299 0.08878364 0.053692102 0.07253117
-0.002182103 0.075854555 0.009189689 0.05397956 -0.082762115 -0.015656915 -0.063085414 -0.022254905
-0.07227559 -0.036632735 0.074024506 0.017421143 0.03910024 0.046624083 0.061610118 -0.04968928

winter_proj.weight f4 [16, 8, 1, 1]
00000000: 39a9 9d3e 68da d0be e882 9fbd abdf d2be
00000010: ff02 ab3e ed35 2b3e 23db eabe 70a4 313e
00000020: c4f5 e33d b90d 6abd 3745 e1be 6343 edbd
00000030: 7e8b 42be 4577 7e3e 496b ad3e 1796 4cbe
00000040: 77e0 6abe 0066 d7bc e998 a7be a403 d13e
00000050: 4261 84be 29f0 38be 619c e03d c072 2b3e
00000060: 7821 ccbe aae1 e43e 10a3 38be e875 1cbd
00000070: 38ec b53d 36e5 6b3e c6ba 0c3e c668 4a3d
00000080: 0dd9 0ebd 2456 61be 45e3 d03e 4608 7e3e
00000090: 4b02 35be 5b8b 31be 0910 fbbe 494c e53d
000000a0: 7cda 77be fd9c aa3e 8fc9 edbd 3368 17be
000000b0: 741c 2bbe 16e9 8bbe 0dbd 9c3e 36cf 6bbd
000000c0: af0f 0ebe 8832 883e 4710 bf3e 9116 e5be
000000d0: b718 debc 0395 bd3e 6658 66be 3859 00be
000000e0: f8cb 7b3a 0d2c c6be ae46 8f3e c4e5 80be
000000f0: 2e62 e83e 9ce2 1d3e e066 d3be ce6c ca3e
00000100: 5101 db3d 9b9e b9be 8231 e8bd ef8b 9bbe
00000110: f6fb 833e 0cab 333e 6468 b7be eefb 4e3c
00000120: 18bc c03d f782 c3be e1f6 013f 5e6e f1be
00000130: 736b 9b3d bf7a 143e 1491 82be 93fa 013e
00000140: cb70 ebbe 8095 a4bd 9742 c1be cd20 ce3e
00000150: 3366 6dbe 6760 9fbe 65b2 0dbc ebdc cebe
00000160: 0a7d 053e 94e8 8dbe 6fbd 7dbd 624d 86be
00000170: c109 d83e 18e9 78be 8195 94be 2a9e fc3e
00000180: 65d8 ce3e e04f 613c 394e a83e 0303 4fbe
00000190: a05c 19be 93b6 25be 5550 e3be ed2e cf3e
000001a0: 81a2 33be 9611 60be 3461 e3be eea1 513d
000001b0: d062 9b3d 1487 58bc 26d5 993e 1efb 67be
000001c0: 4db7 3dbe d896 953e 1419 89bd 904d d3bc
000001d0: f9df 673e bb12 413e 5013 ba3e 324a a03c
000001e0: 0e10 d83e 4521 0bbe e43f 7e3e 9bea 4ebe
000001f0: cf23 983c 0531 933d f870 f8be 7724 ef3e
0.3079317 -0.4079163 -0.0778864 -0.4118627 0.33400723 0.1671979 -0.45870313 0.17347884
0.111308604 -0.057141993 -0.4399812 -0.115851186 -0.18998525 0.24850185 0.33870915 -0.1997913
-0.22937189 -0.026293755 -0.3273385 0.4082309 -0.25855452 -0.18060364 0.10967327 0.16742992
-0.39869285 0.44703418 -0.18030953 -0.03819838 0.08882946 0.23036656 0.13743123 0.049416326
-0.034874965 -0.22005516 0.40798393 0.24807844 -0.17676656 -0.17338316 -0.4903567 0.11196191
-0.24204439 0.33322898 -0.1161071 -0.14785843 -0.16710073 -0.27326268 0.30612984 -0.05757066
-0.1387317 0.26601052 0.37317106 -0.4474378 -0.027111394 0.3702775 -0.22494659 -0.12534034
0.0009605284 -0.38705483 0.27983612 -0.25175297 0.45387405 0.15418476 -0.41289425 0.39536136
0.106936105 -0.3625382 -0.11337568 -0.30380198 0.25778168 0.17545718 -0.3582183 0.012633307
0.09410876 -0.38185856 0.5076733 -0.47154516 0.07588854 0.14499949 -0.2550131 0.12693243
-0.45984492 -0.08036327 -0.37746117 0.402594 -0.23183517 -0.31128237 -0.00864849 -0.40402922
0.1303598 -0.27716506 -0.061948236 -0.26230913 0.42194942 -0.24307668 -0.29020312 0.4933942
0.4039947 0.013751954 0.3287218 -0.20215993 -0.1497674 -0.16182928 -0.44397226 0.4046549
-0.17542459 -0.21881709 -0.44410098 0.05117982 0.07587206 -0.013215799 0.30045432 -0.22654387
-0.18526955 0.29216647 -0.066942364 -0.02579382 0.22644033 0.18854801 0.3634286 0.01956663
0.4219975 -0.1358691 0.2482906 -0.20206682 0.018571762 0.07187084 -0.48523688 0.46707508

winter_proj.bias f4 [16]
00000000: 2a1c 82be 8827 5fbe 6854 fcbc 7eb3 7b3e
00000010: dca9 45be 1202 09bc 3f0e 3a3e f1cd a7be
00000020: 6869 bb3e d56e 683e 16bd 0c3e 937e 45bc
00000030: c91c 423e 0181 a6bd c40b 413d 8f40 7c3e
-0.25412112 -0.21792424 -0.030801967 0.2458019 -0.19303077 -0.00836231 0.18169497 -0.32774308
0.36603856 0.22698529 0.13744006 -0.012054103 0.18956293 -0.08130074 0.04713036 0.24634002

head.weight f4 [1, 16, 1, 1]
00000000: af0a 92be b288 9d3d 5fe1 8e3e 2729 bf3d
00000010: 898d 83be 6d37 393e 3623 f4bd a021 9fbe
00000020: fed5 65bd 2702 9fbd 6718 b23e 142a dcbd
00000030: b5df 95be eba1 bb3e 162e 193e 7342 19be
-0.28523776 0.07692088 0.2790632 0.09334021 -0.2569392 0.1808755 -0.119207785 -0.3108034
-0.056112282 -0.077640824 0.34784243 -0.10750213 -0.29272237 0.3664697 0.14958987 -0.14966755
