experiments/phase3_sat/phase3_sat_lead3_seed1.pt (torch, 63413 bytes, 9 tensors)

encoder.0.weight f4 [8, 1, 3, 3]
0.16017264 -0.1823942 -0.056648094 0.15201142 -0.33628756 0.20360737 -0.13534345 0.1413957
0.06524278 0.008750706 0.11537007 0.0073186746 0.19568981 -0.09122166 -0.030579444 0.02129209
0.09338856 0.0070678378 0.33360562 0.118055604 -0.10992405 -0.16584006 -0.041520733 -0.114779525
-0.11442645 0.02857464 0.2337643 0.20546015 -0.29748368 0.24589047 0.12698743 0.36072183
0.26590806 -0.2712539 -0.285491 -0.12361262 0.3048421 -0.007816269 0.17307863 -0.14508124
0.3761055 -0.11791392 0.2578468 0.043509893 -0.1438255 0.19584376 -0.16196589 0.1146005
-0.07482386 -0.021113977 -0.2939518 -0.12638134 0.21020329 -0.040456373 0.3664838 0.32158226
0.028894449 -0.18196765 0.26045787 0.14698794 -0.17902239 0.25907233 0.23123938 0.30268636
-0.18337388 -0.028586613 -0.0025883582 0.04851655 -0.22548537 -0.2326229 0.18664996 -0.041713633
00000000: 4c04 243e 8cc5 3abe d507 68bd e2a8 1b3e
00000010: e22d acbe 737e 503e 7997 0abe 09ca 103e
00000020: 029e 853d 1f5f 0f3c 2547 ec3d 7ed1 ef3b
00000030: e962 483e 6cd2 babd be81 fabc c06c ae3c
00000040: 8042 bf3d 5299 e73b 5bce aa3e 23c7 f13d
00000050: dc1f e1bd fad1 29be a511 2abd 8711 ebbd
00000060: 6a58 eabd 5d15 ea3c e95f 6f3e 2564 523e
00000070: c84f 98be b6ca 7b3e fe08 023e 88b0 b83e
00000080: 1a25 883e cbe1 8abe e02b 92be 9d28 fdbd
00000090: 4414 9c3e cf0f 00bc 863b 313e 2d90 14be
000000a0: e690 c03e da7c f1bd 7f04 843e 6e37 323d
000000b0: fe46 13be 448b 483e 63da 25be abb3 ea3d
000000c0: 403d 99bd 38f7 acbc da80 96be 1c6a 01be
000000d0: 883f 573e 95b5 25bd c4a3 bb3e 6ea6 a43e
000000e0: 0db4 ec3c ba55 3abe bc5a 853e 0284 163e
000000f0: a551 37be 21a5 843e 04ca 6c3e b5f9 9a3e
00000100: 5dc6 3bbe 792e eabc 72a1 29bb 4ab9 463d
00000110: a3e5 66be b334 6ebe 2b21 3f3e eadb 2abd

encoder.0.bias f4 [8]
0.17637978 0.021666987 0.13910379 0.1242281 0.12703072 0.2086355 -0.27229506 0.21389489
00000000: e79c 343e f77e b13c 3971 0e3e 4d6b fe3d
00000010: 5714 023e 8ba4 553e 426a 8bbe 4307 5b3e

encoder.2.weight f4 [8, 8, 3, 3]
-0.06228207 -0.07140004 0.042675626 -0.023736335 0.09085923 -0.019624524 -0.077732824 0.13603511
0.020088468 0.1122877 0.08314668 -0.04897319 0.06476547 0.06183333 -0.046319664 -0.0007578376
0.077664934 0.04152415 -0.023966212 -0.015154 0.13230574 -0.0029267762 0.106530644 0.09525427
-0.022272596 -0.0384351 0.16594075 0.03871714 0.10321429 0.04818057 0.10683878 0.15422319
0.17382354 -0.0853438 0.0023014408 0.09952519 0.13504082 0.119012095 -0.053007826 -0.02968197
-0.0337573 0.039277215 0.15702072 -0.045158327 0.09606722 -0.09959781 -0.13056286 -0.050577044
0.040493447 0.10166081 -0.06858006 0.08305945 0.13998312 0.082633436 0.13393158 0.13028954
0.108965814 0.08493558 -0.030145582 -0.050783604 -0.0011508085 0.036783163 -0.014262545 0.016477013
0.02484275 -0.04881767 0.026764248 0.061346572 0.09820237 0.12070739 -0.017219644 0.098183356
-0.014191441 0.018298008 -0.10580194 -0.07869244 -0.052312627 -0.052521653 0.09329526 -0.043226354
-0.09031384 0.06678425 0.08586212 0.112811774 -0.033245564 0.0558715 -0.0067246184 0.009397662
-0.062367752 -0.023024704 -0.02342334 0.06162197 0.0281974 0.030506715 0.13567 0.11652937
0.08934729 0.026191022 -0.050456025 0.08182469 -0.06383035 -0.05828777 -0.072980106 0.046195507
-0.05568541 0.115495555 -0.0916206 -0.09226322 0.021137526 -0.03943193 0.07610831 -0.020372765
-0.021099916 0.03885522 0.10832556 -0.048189733 0.08904014 0.02085301 0.061670188 -0.1239698
-0.070274234 -0.15412685 0.04372935 -0.09360846 0.022940436 -0.044062093 0.033620905 0.037058003
0.057366543 0.09859799 0.07090454 0.0746337 -0.068971135 0.13350995 0.14763477 0.041221097
0.030646322 -0.13528502 -0.1328043 0.06275522 -0.13125084 0.048113514 -0.14972514 -0.12190353
0.084930055 -0.07479772 -0.020473674 0.10654117 0.072648324 0.1290545 -0.037553173 -0.10511739
0.13959292 -0.014991613 -0.026297752 0.054152634 -0.073896766 0.10208223 0.10897839 -0.08064318
-0.06351628 0.012872737 0.06982608 0.008845797 -0.06230923 -0.0027507753 -0.11413399 -0.08465743
-0.089885846 0.11047559 0.12726367 -0.06275991 -0.026298365 0.021722352 0.03709413 -0.054479346
0.07276972 0.11380006 0.0004597323 0.008070713 0.11175912 0.13153629 -0.036167923 0.12881887
0.06490776 -0.050960485 0.08780527 -0.058804113 0.13787726 -0.11237717 0.027569367 -0.006382595
-0.03687846 0.05054058 -0.08715337 -0.09989847 -0.14383584 -0.01069427 -0.021075217 0.044892963
-0.0015490436 0.074724846 0.14035287 0.058223475 -0.006241577 -0.018070957 -0.07299185 0.056327686
-0.033242647 -0.024275202 -0.05989539 -0.11670233 0.04357972 0.0013082561 -0.025939044 -0.049134873
-0.007426325 0.029959183 -0.045482542 -0.03847971 -0.006410129 -0.0064409263 0.042541783 -0.025581751
0.013368551 -0.027487537 -0.07790213 0.13731262 0.041023407 0.14063233 0.023189537 -0.0006211801
-0.07389749 -0.011229235 0.10981907 -0.090225294 -0.025953054 0.08540318 0.0878621 0.06292834
-0.014886735 0.0220088 0.016671645 -0.03460625 0.050709873 -0.041863866 -0.019274583 0.06679046
-0.05442336 0.026114007 0.10558635 0.09294284 0.11387014 -0.0490691 0.036604207 -0.011811219
00000000: 7c1b 7fbd 2f3a 92bd a3cc 2e3d b472 c2bc
00000010: 6714 ba3d 9cc3 a0bc 6332 9fbd ca4c 0b3e
00000020: 9290 a43c 18f7 e53d ce48 aa3d 1d98 48bd
00000030: c2a3 843d f244 7d3d b0b9 3dbd 9fa9 46ba
00000040: cb0e 9f3d 3a15 2a3d ca54 c4bc 7c48 78bc
00000050: 287b 073e 28cf 3fbb bd2c da3d ac14 c33d
00000060: 0575 b6bc 206e 1dbd 5fec 293e dd95 1e3d
00000070: 0462 d33d fd58 453d 4ace da3d afec 1d3e
00000080: ccfe 313e bbc8 aebd c5d3 163b ddd3 cb3d
00000090: 2448 0a3e 9dbc f33d bc1e 59bd 9a27 f3bc
000000a0: 1845 0abd 25e1 203d 0aca 203e f0f7 38bd
000000b0: e4be c43d f0f9 cbbd 45b2 05be e029 4fbd
000000c0: 75dc 253d 8b33 d03d b473 8cbd 131b aa3d
000000d0: bc57 0f3e b83b a93d 5c25 093e 9f6a 053e
000000e0: 7829 df3d b5f2 ad3d def3 f6bc 7802 50bd
000000f0: bad6 96ba f1a9 163d 73ad 69bc cdfa 863c
00000100: 0683 cb3c 0af5 47bd b240 db3c 8b46 7b3d
00000110: 531e c93d 7035 f73d 3610 8dbc 5b14 c93d
00000120: 3883 68bc b4e5 953c b0ae d8bd 8129 a1bd
00000130: c445 56bd f220 57bd 9611 bf3d 1e0e 31bd
00000140: 76f6 b8bd 2ec6 883d 7bd8 af3d dc09 e73d
00000150: 802c 08bd 84d9 643d 305a dcbb a7f8 193c
00000160: 5475 7fbd 4e9e bcbc 4ee2 bfbc 5267 7c3d
00000170: 3cfe e63c 38e9 f93c 14ed 0a3e f3a6 ee3d
00000180: b6fb b63d 8e8e d63c faaa 4ebd b493 a73d
00000190: 7db9 82bd 28bf 6ebd 9876 95bd 8037 3d3d
000001a0: 6216 64bd ef88 ec3d 95a3 bbbd 80f4 bcbd
000001b0: 9b28 ad3c 6083 21bd acde 9b3d c9e4 a6bc
000001c0: bbd9 acbc a726 1f3d cbd9 dd3d 9962 45bd
000001d0: ad5a b63d eed3 aa3c e199 7c3d e1e3 fdbd
000001e0: f0eb 8fbd 6ed3 1dbe 8c1d 333d cbb5 bfbd
000001f0: 95ed bb3c 747a 34bd 13b6 093d 22ca 173d
00000200: 2ef9 6a3d beed c93d 6636 913d 8ed9 983d
00000210: bd40 8dbd d5b6 083e 922d 173e 74d7 283d
00000220: ff0d fb3c 2888 0abe dafd 07be cf85 803d
00000230: 9f66 06be ad12 453d 8c51 19be 8fa8 f9bd
00000240: cfef ad3d 8c2f 99bd 68b8 a7bc 4232 da3d
00000250: a5c8 943d dd26 043e 5bd1 19bd c947 d7bd
00000260: 72f1 0e3e 629f 75bc 626e d7bc 27cf 5d3d
00000270: 3057 97bd 7d10 d13d 1030 df3d 4028 a5bd
00000280: d314 82bd 2ce8 523c fa00 8f3d f6ed 103c
00000290: f737 7fbd 5a46 34bb 15bf e9bd e060 adbd
000002a0: 1216 b8bd 0741 e23d 6851 023e 4588 80bd
000002b0: ab6f d7bc 13f3 b13c 04f0 173d bc25 5fbd
000002c0: 4a08 953d 0110 e93d 3a08 f139 063b 043c
000002d0: f7e1 e43d 73b1 063e d124 14bd 18e9 033e
000002e0: 5cee 843d f1bb 50bd 40d3 b33d 95dc 70bd
000002f0: b22f 0d3e 0026 e6bd 27d9 e13c 1625 d1bb
00000300: de0d 17bd a403 4f3d 777d b2bd 9297 ccbd
00000310: b449 13be 0537 2fbc efa5 acbc afe1 373d
00000320: 4709 cbba 5709 993d aab8 0f3e bd7b 6e3d
00000330: 2586 ccbb 8b09 94bc c07c 95bd dcb7 663d
00000340: 7129 08bd cadc c6bc de54 75bd a201 efbd
00000350: a680 323d ca79 ab3a 1e7e d4bc a641 49bd
00000360: 8858 f3bb f66c f53c e74b 3abd e79c 1dbd
00000370: 0f0c d2bb 680e d3bb 4b40 2e3d d290 d1bc
00000380: c407 5b3c 8b2d e1bc 278b 9fbd ae9b 0c3e
00000390: 2908 283d ec01 103e fcf7 bd3c b1d6 22ba
000003a0: 9157 97bd d3fa 37bc d2e8 e03d 0ac8 b8bd
000003b0: 809b d4bc dde7 ae3d 0bf1 b33d 93e0 803d
000003c0: 7ee7 73bc cd4b b43c f992 883c 48bf 0dbd
000003d0: 28b5 4f3d 7279 2bbd bbe5 9dbc 70c9 883d
000003e0: 07eb 5ebd 0bed d53c a83d d83d d158 be3d
000003f0: bf34 e93d aefc 48bd 4bee 153d d883 41bc

encoder.2.bias f4 [8]
-0.024864046 0.11468771 -0.00537459 0.062018923 -0.103750214 0.15517353 0.10765165 -0.098516636
00000000: afaf cbbc 64e1 ea3d 541d b0bb 8e07 7e3d
00000010: fe7a d4bd cfe5 1e3e 7878 dc3d 17c3 c9bd

cell.conv.weight f4 [64, 24, 3, 3]
0.070449494 0.0036171614 0.08671324 -0.013270653 -0.033953633 -0.019590503 0.07358943 0.034246933
-0.0278664 0.040738095 0.019527905 0.049118668 -0.0026420124 -0.025942676 0.07908343 0.005799916
0.08193765 0.083392054 -0.0070971353 0.0009574146 0.03746342 -0.020045957 0.0522475 -0.001259441
0.013691471 -0.014862197 0.06102843 -0.011538949 -0.026883978 0.01277811 0.0015065774 -0.035180937
0.057941824 0.017640065 0.0853584 0.082126364 0.0030800742 -0.010200259 0.006532503 0.090144955
0.016828664 -0.0010805348 0.09162145 0.09741932 0.06930706 -0.015472561 0.025149416 0.02216209
0.0953354 -0.0009658237 0.0010619259 0.04353303 0.025031326 0.06707609 0.074954726 0.03401816
0.12753493 0.12027282 0.082064494 0.025106195 0.13142303 0.12556912 0.09797682 0.013139903
0.037905537 0.007150566 0.10402112 0.09707718 0.019336132 -0.0029317362 0.07884252 0.06844957
0.04307896 -0.039319895 0.035362225 -0.034401614 -0.068827994 -0.045859747 0.020123998 0.021232003
-0.060179766 0.03578748 0.046660442 0.038824722 0.03959617 -0.009794593 0.0427242 0.05911878
0.040514518 -0.04600138 -0.030143192 0.04422431 0.03679502 0.04129346 -0.031244205 -0.025865735
-0.042193007 -0.029325917 0.04787399 -0.07652263 -0.04500452 -0.017791457 -0.06023413 -0.0073535144
-0.039672498 0.022903671 -0.05787046 -0.009493938 -0.03925203 0.054764334 0.07834329 0.0006639733
0.02560079 -0.019541841 -0.013078858 -0.008904002 -0.0077215414 0.053513616 0.01775131 0.029583702
-0.009793604 -0.013006666 -0.03227188 -0.0043936158 0.09352608 0.061896667 -0.081734024 -0.022013206
-0.0041954173 0.015070586 0.047329035 -0.0011939106 0.021519927 -0.048712682 -0.025992023 -0.07989835
-0.017696202 0.03401873 0.03285068 0.04904865 -0.05139907 -0.01205503 0.010566666 0.04978564
-0.060718052 -0.027415283 0.016555432 -0.04278532 0.022807045 -0.004405765 -0.025477659 0.027928194
0.039467257 0.083376564 0.041704856 0.0105550485 0.086693935 0.076267466 -0.0125085525 0.06407707
0.03951633 0.0018690702 0.023574425 0.031046772 -0.0061350726 0.011097676 0.060595892 0.08681687
0.024501042 -0.045476437 0.062119957 -0.007785938 0.0785236 -0.04741135 -0.0137483645 0.05234755
0.036974672 -0.036707204 -0.0578669 0.0031237896 0.01206965 -0.07433976 -0.077145085 -0.01068121
-0.024823042 0.031783916 -0.0709542 -0.015475533 -0.059229698 0.039639708 -0.0017842371 0.051209707
-0.009781717 -0.020629583 -0.012885612 -0.01383625 0.07514361 0.020922076 0.021129845 0.10516882
0.038977336 0.10059326 0.04113712 0.00013306345 0.08503976 0.113550626 -0.0030533397 0.020372175
0.01804125 0.005176085 0.015829518 -0.0064129443 -0.05128205 0.03359784 -0.024943896 -0.045412853
-0.05584352 -0.076217234 -0.0062473672 0.038686875 0.043299537 -0.056865465 0.038985625 0.04983197
-0.0027211362 0.035270534 0.04418464 0.057601437 0.041388527 0.03384844 -0.018117942 -0.03520235
-0.029502353 0.058086086 -0.0026828113 0.01976458 -0.047792025 0.013056336 -0.004578091 -0.029572267
0.065060586 -0.046095412 0.00264214 0.005835183 -0.04780861 0.056736216 -0.009131996 0.044281207
0.05066971 0.068485364 0.027757984 0.05956853 0.058223482 0.012168941 -0.02010315 -0.022653777
00000000: d347 903d e60d 6d3b b696 b13d 276d 59bc
00000010: f712 0bbd 437c a0bc 0eb6 963d 8346 0c3d
00000020: 1448 e4bc fddc 263d fcf8 9f3c a830 493d
00000030: 9d25 2dbb bc85 d4bc 7ef6 a13d 390d be3b
00000040: edce a73d 74c9 aa3d 168f e8bb 02fb 7a3a
00000050: 3e73 193d 6b37 a4bc 7901 563d d413 a5ba
00000060: 3152 603c 9380 73bc f2f8 793d dc0d 3dbc
00000070: ca3b dcbc 475b 513c 5978 c53a e319 10bd
00000080: 6854 6d3d e681 903c 63d0 ae3d de31 a83d
00000090: 12db 493b fd1e 27bc 9b0e d63b eb9d b83d
000000a0: 44dc 893c bba0 8dba 07a4 bb3d c883 c73d
000000b0: dcf0 8d3d a080 7dbc 2606 ce3c 458d b53c
000000c0: 353f c33d 552f 7dba 5230 8b3a b14f 323d
000000d0: 7f0e cd3c 305f 893d dd81 993d a056 0b3d
000000e0: 8498 023e 9951 f63d 6e11 a83d 82ab cd3c
000000f0: c293 063e 3195 003e 12a8 c83d bf48 573c
00000100: d642 1b3d 4c4f ea3b 0609 d53d 67d0 c63d
00000110: cf66 9e3c 5f22 40bb 3078 a13d 4a2f 8c3d
00000120: 9073 303d e60d 21bd fbd7 103d b5e8 0cbd
00000130: b1f5 8cbd 6ed7 3bbd 15db a43c bdee ad3c
00000140: 0f7f 76bd e595 123d 051f 3f3d ac06 1f3d
00000150: 982f 223d 8079 20bc 92ff 2e3d 8926 723d
00000160: 8df2 253d f16b 3cbd dbee f6bc 8d24 353d
00000170: 60b6 163d 5523 293d d9f3 ffbc 61e4 d3bc
00000180: 93d2 2cbd e83c f0bc 8417 443d e6b7 9cbd
00000190: a956 38bd 64bf 91bc 10b8 76bd c0f5 f0bb
000001a0: a17f 22bd 7ba0 bb3c 9309 6dbd 768c 1bbc
000001b0: bdc6 20bd 9150 603d 7272 a03d 7e0e 2e3a
000001c0: bfb8 d13c 3616 a0bc b548 56bc 17e2 11bc
000001d0: fc04 fdbb 1831 5b3d 326b 913c 8559 f23c
000001e0: 5a75 20bc e919 55bc 852f 04bd 52f8 8fbb
000001f0: 9a8a bf3d 5c87 7d3d 2b64 a7bd 0a55 b4bc
00000200: b679 89bb 9fea 763c 17dc 413d fe7c 9cba
00000210: 8f4a b03c f386 47bd 39ed d4bc bfa1 a3bd
00000220: a0f7 90bc 3957 0b3d 6f8e 063d 3de7 483d
00000230: d587 52bd 7682 45bc cf1f 2d3c 07ec 4b3d
00000240: 7eb3 78bd 0496 e0bc 429f 873c a93f 2fbd
00000250: d7d5 ba3c 3c5e 90bb 86b6 d0bc abc9 e43c
00000260: 6ba8 213d 55c1 aa3d b6d2 2a3d 15ef 2c3c
00000270: 978c b13d 1e32 9c3d acf0 4cbc d73a 833d
00000280: e0db 213d 97fb f43a 271f c13c cd55 fe3c
00000290: b808 c9bb 07d3 353c 6633 783d 0bcd b13d
000002a0: 69b6 c83c 8045 3abd 7f71 7e3d 2f21 ffbb
000002b0: fbd0 a03d 6732 42bd d240 61bc 626a 563d
000002c0: c172 173d 4b5a 16bd d805 6dbd 7eb8 4c3b
000002d0: c8bf 453c 723f 98bd 3efe 9dbd 3e00 2fbc
000002e0: b159 cbbc da2f 023d 7050 91bd 178d 7dbc
000002f0: d79a 72bd 3f5d 223d 10dd e9ba 45c1 513d
00000300: 7f43 20bc 5fff a8bc 2d1e 53bc 70b1 62bc
00000310: e5e4 993d c664 ab3c 7f18 ad3c c062 d73d
00000320: b3a6 1f3d d703 ce3d 667f 283d f386 0b39
00000330: 5329 ae3d 3b8d e83d 8a1a 48bb 8ce3 a63c
00000340: 3ecb 933c 269c a93b e8ac 813c ad23 d2bb
00000350: 200d 52bd e49d 093d 2457 ccbc d402 3abd
00000360: 2dbc 64bd c817 9cbd b7b6 ccbb 2176 1e3d
00000370: db5a 313d c3eb 68bd 64af 1f3d 9c1c 4c3d
00000380: 1755 32bb d677 103d f4fa 343d 7cef 6b3d
00000390: 0487 293d a9a4 0a3d 146c 94bc 5730 10bd
000003a0: ebae f1bc adeb 6d3d 1bd2 2fbb 54e9 a13c
000003b0: 92c1 43bd 3eea 553c d003 96bb 8a41 f2bc
000003c0: 7c3e 853d 8bce 3cbd c127 2d3b 1035 bf3b
000003d0: f6d2 43bd 3c64 683d 5e9e 15bc 3660 353d
000003e0: 0b8b 4f3d 0e42 8c3d b664 e33c 22fe 733d
000003f0: bf7b 6e3d 3d60 473c 5caf a4bc 6a94 b9bc

cell.conv.bias f4 [64]
-0.01017989 0.026004435 0.07544835 0.042773463 0.06651748 0.04690388 0.01980163 -0.021198696
-0.027927898 0.034642138 0.07135565 0.11449 0.02826506 0.06421012 0.08196786 0.066661276
0.054433174 0.113632835 0.056897525 0.14038248 0.011565497 -0.015171422 -0.010303162 0.012739519
-0.02117856 0.02035369 0.07146052 0.12023214 -0.03189863 0.039107926 0.08171974 -0.0030717556
0.059263643 0.0989653 0.04056465 0.04348056 0.034336977 0.04146062 0.068665124 -0.020163111
-0.0013380864 0.10253347 0.038871404 0.015067495 0.08081914 0.07578879 -0.0017999021 0.054859422
0.015945556 0.044990994 0.029898403 0.020457344 0.031839907 -0.028745212 -0.055560924 0.011987545
-0.060077682 0.011713521 0.06960143 0.050501537 -0.0019036753 -0.016672261 -0.011626737 -0.005485097
00000000: 8ec9 26bc 4107 d53c aa84 9a3d 3a33 2f3d
00000010: 513a 883d 481e 403d 0737 a23c e3a8 adbc
00000020: 0cc9 e4bc eae4 0d3d e922 923d bc79 ea3d
00000030: 218c e73c 9880 833d c4de a73d b585 883d
00000040: 52f5 5e3d 55b8 e83d 610d 693d 6dc0 0f3e
00000050: 367d 3d3c 8e91 78bc 98ce 28bc 6ab9 503c
00000060: a97e adbc c8bc a63c e559 923d 453c f63d
00000070: 23a8 02bd a22f 203d ae5c a73d 824f 49bb
00000080: 6fbe 723d 52ae ca3d 1e27 263d ac18 323d
00000090: eea4 0c3d 9cd2 293d 4da0 8c3d 1c2d a5bc
000000a0: bb62 afba 11fd d13d 9f37 1f3d a8dd 763c
000000b0: 8184 a53d 2737 9b3d b1ea ebba 46b4 603d
000000c0: 41a0 823c 7a48 383d 7fed f43c 2996 a73c
000000d0: 906a 023d 147b ebbc da93 63bd 6867 443c
000000e0: 0414 76bd 11ea 3f3c 328b 8e3d b3da 4e3d
000000f0: be84 f9ba 4494 88bc 127e 3ebc 54bc b3bb

winter_proj.weight f4 [16, 8, 1, 1]
-0.03541904 0.15832941 -0.31220853 -0.2581806 -0.25005943 -0.19749422 0.09439303 -0.4026327
0.11024479 0.2264641 0.3237805 -0.27675357 0.42783052 -0.3417608 -0.19469364 -0.142471
0.095489554 0.2689525 0.16320492 0.40184584 0.002637309 -0.21013738 0.2725114 0.4163227
0.23251827 -0.19812867 -0.02460132 0.36956954 0.29768318 -0.21861728 -0.050624393 0.18308783
-0.23581576 0.027499717 0.39774343 0.39645448 0.003272524 -0.37226313 -0.085883655 0.24569665
-0.05539842 -0.24289684 0.39293367 0.17606518 0.03230036 -0.24416967 -0.026535856 -0.2578858
-0.31013858 -0.4139029 0.13435337 0.20065075 -0.06700064 -0.10670183 -0.27689222 -0.2523748
0.024797833 -0.030943684 0.39826185 -0.27906713 0.5132023 0.09562364 -0.32555267 -0.17449039
-0.3748332 -0.22723415 -0.37378967 -0.31132805 -0.10445966 -0.061619278 0.35684642 -0.18911849
0.20190239 0.3538773 -0.17539081 0.124198526 0.17472148 -0.26577613 -0.24455571 0.10967853
-0.3413617 -0.13652734 0.14714622 -0.30552328 -0.30111808 0.29279912 0.41749802 -0.27570555
-0.23477136 -0.09925183 -0.22035824 0.05858789 0.1449339 0.18669777 -0.09297722 0.052015048
0.28384656 0.03365784 -0.27775258 0.124504305 0.4332104 -0.11182292 0.067689136 -0.21507744
0.10334137 -0.22143523 -0.31462523 0.0025937983 -0.22453177 -0.39130595 0.03204013 -0.3330993
0.032639228 0.36705604 -0.18970616 0.018884698 0.42420062 -0.17998102 -0.22994712 0.25268513
0.19155954 0.30592126 -0.018276347 0.03926271 0.48824495 0.17693454 0.09795124 0.118881896
00000000: 8e13 11bd 1b21 223e ccd9 9fbe 3f30 84be
00000010: ca07 80be ed3b 4abe 2251 c13d e025 cebe
00000020: 05c8 e13d 34e6 673e 8fc6 a53e a5b2 8dbe
00000030: 9a0c db3e 46fb aebe c55d 47be ebe3 11be
00000040: 0790 c33d 24b4 893e 311f 273e bdbe cd3e
00000050: b4d6 2c3b 412e 57be 9d86 8b3e 4028 d53e
00000060: 4519 6e3e 3ee2 4abe b588 c9bc 3838 bd3e
00000070: ee69 983e 35dd 5fbe 865b 4fbd 607b 3b3e
00000080: b079 71be 1647 e13c 07a5 cb3e 15fc ca3e
00000090: d877 563b 4699 bebe c5e3 afbd e797 7b3e
000000a0: 74e9 62bd f3b9 78be 9a2e c93e 6e4a 343e
000000b0: 624d 043d 9d07 7abe b961 d9bc 9c09 84be
000000c0: 7cca 9ebe 15eb d3be ee93 093e 6477 4d3e
000000d0: a237 89bd 7d86 dabd d1c4 8dbe 4537 81be
000000e0: d324 cb3c 9c7d fdbc fae8 cb3e e3e1 8ebe
000000f0: 3a61 033f 54d6 c33d d7ae a6be 9cad 32be
00000100: 23ea bfbe 12b0 68be 5c61 bfbe 6466 9fbe
00000110: f2ee d5bd 7f64 7cbd 93b4 b63e 47a8 41be
00000120: 80bf 4e3e 682f b53e a699 33be cc5b fe3d
00000130: 30ea 323e cf13 88be d06c 7abe 239f e03d
00000140: f6c6 aebe d3cd 0bbe 80ad 163e 8c6d 9cbe
00000150: 262c 9abe c4e9 953e 4dc2 d53e 4729 8dbe
00000160: e767 70be 8b44 cbbd 97a5 61be dbf9 6f3d
00000170: 8d69 143e b32d 3f3e d76a bebd bb0d 553d
00000180: 5654 913e cedc 093d 9635 8ebe 1dfc fe3d
00000190: c1cd dd3e 6a03 e5bd 9aa0 8a3d 433d 5cbe
000001a0: a4a4 d33d ebbf 62be 8f16 a1be b7fc 293b
000001b0: a8eb 65be 4159 c8be 833c 033d fe8b aabe
000001c0: b6b0 053d c5ee bb3e 5542 42be 15b4 9a3c
000001d0: d330 d93e f24c 38be 4277 6bbe f25f 813e
000001e0: 2f28 443e b6a1 9c3e 47b8 95bc efd1 203d
000001f0: 3efb f93e 542e 353e a99a c83d 5a78 f33d

winter_proj.bias f4 [16]
0.27009457 0.19019136 -0.30580977 0.107090615 -0.25302547 -0.20590357 -0.092975594 -0.08217374
0.18724604 -0.008351646 0.3545028 -0.22020523 0.31648615 -0.35046944 -0.10955413 -0.2725845
00000000: d649 8a3e 86c1 423e 1993 9cbe 5352 db3d
00000010: 8e8c 81be 63d8 52be fd69 bebd b54a a8bd
00000020: 6dbd 3f3e 58d5 08bc 6481 b53e 7b7d 61be
00000030: 790a a23e bb70 b3be ea5d e0bd 3290 8bbe

head.weight f4 [1, 16, 1, 1]
-0.2889494 0.23530188 0.23986791 0.308443 0.21808074 0.17071909 -0.16030055 0.22716454
-0.37572253 0.28977957 -0.23072477 -0.23919709 0.28244415 0.07016991 0.30391595 0.22575907
00000000: 2df1 93be faf2 703e ef9f 753e 3eec 9d3e
00000010: 8f50 5f3e fcd0 2e3e d425 24be d29d 683e
00000020: b45e c0be fd5d 943e 1d43 6cbe 15f0 74be
00000030: 859c 903e 3eb5 8f3d df9a 9b3e 632d 673e
