experiments/phase3_sat/phase3_sat_lead1_seed0.pt (torch, 63413 bytes, 9 tensors)

encoder.0.weight f4 [8, 1, 3, 3]
0	0x3b8914d1	0.0041833897
1	0x3e391d1b	0.18077509
2	0xbe87f3ac	-0.26553094
3	0xbe81ca0e	-0.25349468
4	0xbe138d4c	-0.14409369
5	0x3dc03a30	0.093860984
6	0xbbd8e188	-0.0066186823
7	0x3e804649	0.25053623
8	0xbca406b4	-0.020022728
9	0x3ddd1aed	0.10796151
10	0xbdb425b0	-0.08796251
11	0xbd1d24bd	-0.038365114
12	0xbe9aadaa	-0.3021062
13	0xbe692c2c	-0.22770756
14	0xbe06e03c	-0.13171476
15	0x3cd6e298	0.026231095
16	0x3dff2655	0.12458483
17	0x3e4a8805	0.1977845
18	0xbe5f4692	-0.21804264
19	0xbe102ace	-0.14078829
20	0x3e1a4593	0.15065603
21	0x3e8c2d08	0.27378106
22	0xbdb2fba8	-0.08739406
23	0x3e8dbc6e	0.27682823
24	0xbde1030a	-0.10986908
25	0x3cfb950d	0.030710721
26	0x3eb17ef5	0.34667173
27	0xbeb0ad47	-0.345072
28	0xbebaa824	-0.36456406
29	0xbe148bbe	-0.14506432
30	0xbe5f098c	-0.21780986
31	0x3dc868a9	0.09785587
32	0xbea89839	-0.32928637
33	0xbe37d03e	-0.17950532
34	0xbebdeb49	-0.3709357
35	0xbeb3ca46	-0.3511526
36	0xbe2c47f1	-0.16824318
37	0x3ea68996	0.32526845
38	0x3e3f5d6a	0.18687978
39	0x3e40b699	0.18819655
40	0x3d3cbcb5	0.046078403
41	0xbe1885a3	-0.14894728
42	0x3daab5af	0.08335435
43	0xbe93ce70	-0.28868437
44	0xbe5bbdff	-0.21459197
45	0xbe0429b5	-0.12906535
46	0x3e7b33b3	0.2453144
47	0x3e5efa0a	0.2177507
48	0xbdd12be7	-0.10213452
49	0x3d4c3bac	0.049861595
50	0x3e809587	0.2511408
51	0x3ebfdce4	0.37473214
52	0x3e48d555	0.1961263
53	0x3daeb86e	0.08531271
54	0x3e8c7b6c	0.27437913
55	0xbe2871a2	-0.16449597
56	0x3dee69d2	0.116412774
57	0xbe38fb87	-0.180647
58	0xbe4bf0ae	-0.19916031
59	0xbded364d	-0.11582623
60	0x3e7128c4	0.23550707
61	0x3e43a3be	0.19105431
62	0xbde24ebe	-0.11050175
63	0x3e363af9	0.17795934
64	0x3e919a1e	0.28437895
65	0x3cab1efe	0.020888802
66	0x3d824ac7	0.06361919
67	0x3e1bdf7a	0.15221968
68	0x3e8041d9	0.25050238
69	0x3ea487cd	0.32134858
70	0xbe7261ff	-0.23670195
71	0xbdd70300	-0.10498619

encoder.0.bias f4 [8]
0	0x3e44eb36	0.19230351
1	0x3eb9c7e1	0.36285308
2	0x3ea07df5	0.31346098
3	0x3ec0c044	0.37646687
4	0x3dced984	0.101000816
5	0xbe91b47d	-0.28458014
6	0x3e3ce329	0.1844603
7	0xbe48102e	-0.19537422

encoder.2.weight f4 [8, 8, 3, 3]
0	0xbd917a62	-0.07103421
1	0x3da226ef	0.07917582
2	0x3e3ca3bc	0.18421835
3	0xbd725306	-0.05916121
4	0x3dad4b36	0.08461611
5	0x3de9ac76	0.114098474
6	0x3df9a55f	0.12189745
7	0xbc61293c	-0.013742741
8	0x3e124679	0.14284696
9	0xbbefb69c	-0.00731547
10	0x3e16f864	0.14743191
11	0x3e3b6b08	0.18302548
12	0x3e556b4b	0.2084171
13	0x3e53ff97	0.20702969
14	0x3d4d92e3	0.05018891
15	0x3d2edfb8	0.042693824
16	0x3e5f78d9	0.21823443
17	0x3e1e7b7b	0.15476792
18	0xbd9ee99b	-0.077594005
19	0xbc785b7d	-0.015158531
20	0x3e409428	0.18806517
21	0x3dcd97a4	0.10038689
22	0x3c1934a2	0.009350928
23	0x3d27905e	0.040909164
24	0xbd82e3b6	-0.06391089
25	0x3d98583f	0.074387066
26	0x3c25647e	0.01009476
27	0x3d17a954	0.03702672
28	0x3deb8c81	0.11501408
29	0x3dd2c75b	0.1029193
30	0x3dae6882	0.08516027
31	0x3e52f09b	0.20599596
32	0x3d4ff741	0.05077291
33	0x3e3d8bb2	0.18510321
34	0x3e56ebd1	0.20988394
35	0x3ca002f0	0.01953265
36	0x3e35d7a6	0.17758045
37	0x3e152ef3	0.14568691
38	0x3b81e7c6	0.003964397
39	0x3db01b89	0.08599002
40	0x3cde98fe	0.027172562
41	0xbc81d88f	-0.015850333
42	0xbe015096	-0.12628397
43	0xbd62b4c2	-0.055348165
44	0xbd4f8822	-0.050666936
45	0xbd9974a2	-0.07492949
46	0xbd4496ea	-0.047995485
47	0xbd14d00a	-0.036331214
48	0xbdaf438c	-0.085578054
49	0xbdf3b9a7	-0.11900645
50	0x3ccfcddf	0.025366722
51	0x3b391fb1	0.002824765
52	0xbdadbec2	-0.0848365
53	0x3d81b5b2	0.06333484
54	0x3e942251	0.2893243
55	0x3d114f7a	0.035476185
56	0xbd73db14	-0.0595351
57	0x3e5f3eda	0.2180132
58	0x3e4e4d75	0.20146735
59	0x3dc409ad	0.09572158
60	0x3e85f683	0.26164636
61	0x3e786e9e	0.24260947
62	0x3db556e2	0.08854462
63	0x3d5c6be1	0.05381382
64	0xbd7f4e94	-0.062330797
65	0xbd79e247	-0.06100681
66	0x3db1b224	0.08676556
67	0xbd4025e2	-0.046911128
68	0xbda07039	-0.07833905
69	0xbd689b58	-0.056788772
70	0xbe251fab	-0.16125362
71	0xbdec876b	-0.115492664
72	0xbc89eb38	-0.016835794
73	0x3de26c75	0.11055843
74	0x3d8ae1d7	0.06781357
75	0xbde7a4ed	-0.11310754
76	0x3d845cc6	0.06463008
77	0xbe1afb25	-0.15134867
78	0xbdb32fda	-0.08749361
79	0xbd9981f5	-0.074954905
80	0xbd7566a7	-0.05991235
81	0xbca2483f	-0.01980984
82	0xbdf87a1f	-0.12132668
83	0xbe15d790	-0.14633012
84	0xbd4b875b	-0.049689632
85	0xbd90c2c6	-0.070684
86	0xbe189e02	-0.14904025
87	0xbb42fc9c	-0.0029752618
88	0xbe43f2d5	-0.19135602
89	0xbdafa3f1	-0.08576191
90	0x3e0b13ad	0.13581724
91	0xbca15b8f	-0.019696979
92	0x3e019915	0.12656052
93	0x3d9cf948	0.07664734
94	0xbd9d9fa1	-0.076964624
95	0x3dc946f0	0.098279834
96	0x3c7937f9	0.015211099
97	0xbcdba2c1	-0.026811006
98	0x3de80807	0.11329656
99	0xbe099084	-0.13434035
100	0xbcf3b4e2	-0.029749338
101	0xbd5ba66b	-0.053625505
102	0x3d2c5591	0.04207379
103	0xbafbb5b9	-0.0019203938
104	0x3caa85a6	0.020815682
105	0x3c822367	0.015886022
106	0xbd90f24b	-0.07077464
107	0xbd947e6b	-0.07250675
108	0xbe4861a1	-0.19568492
109	0xbd259472	-0.04042477
110	0x3d836ce3	0.06417253
111	0xbb9bc425	-0.004753607
112	0xbe10223d	-0.14075561
113	0x3bc1bff6	0.005912776
114	0xbd9c5c3c	-0.0763478
115	0xbc98ab98	-0.01863651
116	0xbd8142df	-0.06311583
117	0x3d94e9be	0.07271145
118	0xbd076bfa	-0.03306196
119	0x3cff9eb0	0.031203598
120	0x3d2cd043	0.0421908
121	0x3df184a0	0.11792874
122	0xbd688df6	-0.05677601
123	0xbd3b349c	-0.04570447
124	0xbceb1cde	-0.028700288
125	0x3de3223d	0.11090515
126	0xbe0e60e8	-0.13904154
127	0x3de622fc	0.112371415
128	0x3e101775	0.14071448
129	0xbdffc77a	-0.12489219
130	0xbdfe70d8	-0.12423867
131	0xbd854f3f	-0.065092556
132	0xbd8b7831	-0.06810034
133	0xbe352711	-0.17690684
134	0xbb8c923f	-0.004289895
135	0x3d0e8ea1	0.03480399
136	0xbd8d85e1	-0.06910301
137	0xbcf45490	-0.029825479
138	0x3df96564	0.12177542
139	0xbd6d3ff0	-0.057922304
140	0x3cff04ca	0.031130213
141	0x3e129edb	0.14318411
142	0x3db0c038	0.08630413
143	0x3d3bc9ba	0.04584668
144	0xbd4db71f	-0.050223466
145	0xbc68eeae	-0.014217062
146	0xbd2f51d6	-0.042802654
147	0xbd30b1c0	-0.043138266
148	0x3d53092d	0.051522423
149	0x3e078d3a	0.13237467
150	0x3e24d196	0.16095576
151	0x3e037b64	0.12840039
152	0x3e102cfb	0.14079659
153	0x3df40cdb	0.119165145
154	0x3dfefaaf	0.12450158
155	0x3bf7d254	0.007562915
156	0x3e326cae	0.1742427
157	0x3d89e26c	0.0673264
158	0x3e13a342	0.14417747
159	0x3e367fd4	0.178222
160	0x3e6d51cd	0.23175736
161	0x3e77e5a5	0.24208696
162	0xbcc89479	-0.02448486
163	0x3cd3aa9c	0.025838189
164	0x3dd30b6c	0.10304913
165	0xbddb355d	-0.107035376
166	0x3ddcf378	0.107886255
167	0xbd98ff76	-0.074706
168	0x3c843711	0.016139539
169	0x3c0f3bed	0.008742315
170	0xbca4c757	-0.020114584
171	0x3e3e6e90	0.18596864
172	0x3e8423e9	0.25808647
173	0x3dcbdae7	0.09953862
174	0x3e01b103	0.12665181
175	0x3df3f93a	0.119127706
176	0x3d21509a	0.03938351
177	0x3e6997f8	0.22811878
178	0x3e0bbacb	0.13645475
179	0x3dd846ab	0.10560354
180	0x3e0d5419	0.13801612
181	0x3e763c2f	0.24046396
182	0x3d6dd3d2	0.058063336
183	0x3e83e4f7	0.25760624
184	0x3e374a3c	0.17899412
185	0xbd8bb674	-0.068219095
186	0xbd6d5102	-0.057938583
187	0xbd823ab3	-0.06358852
188	0x3e34ae5e	0.17644641
189	0x3d470923	0.048592698
190	0xbd4a694b	-0.04941682
191	0xbd575e80	-0.052580357
192	0xbdf273b8	-0.11838478
193	0x3ce26e58	0.027640507
194	0xbd4bcf3e	-0.04975819
195	0xbdefe997	-0.117144756
196	0x3d928b68	0.07155496
197	0xbd4c12be	-0.04982256
198	0x3e44d774	0.19222814
199	0xbd62bbb4	-0.05535479
200	0xbe4c69e3	-0.19962268
201	0x3e6748ae	0.22586319
202	0x3df56a0a	0.11983116
203	0x3e5136d9	0.20431079
204	0x3e46e35c	0.19422668
205	0x3ecdb493	0.4017683
206	0xbd3fdff3	-0.046844434
207	0x3d984a58	0.07436055
208	0x3c9ad46a	0.018900115
209	0xbb0482ee	-0.0020219642
210	0xbd9051b1	-0.070468314
211	0x3d3a3f12	0.045470305
212	0x3d472f53	0.048629116
213	0x3b9a40b2	0.0047074193
214	0xbd82c677	-0.063855104
215	0xbdaec0fd	-0.08532903
216	0x3dca0e31	0.09865988
217	0xbc60bbd9	-0.013716661
218	0x3d3fd8a9	0.046837483
219	0xbcce9844	-0.02521909
220	0xbdb4fb99	-0.08837051
221	0xbd41d834	-0.047325328
222	0xbe0de2d7	-0.13856064
223	0x3ccb6fc6	0.024833571
224	0x3a2e1b8f	0.000664168
225	0xbd9a1e83	-0.07525351
226	0x3aa234e3	0.0012375381
227	0x3c131e54	0.008979399
228	0xbb85e7cc	-0.00408647
229	0xbdd5c4d6	-0.10437934
230	0xbe4c4fc4	-0.19952303
231	0xbd8c7b2d	-0.068594314
232	0xbd439711	-0.04775149
233	0xbddbb4b2	-0.10727824
234	0x3da51422	0.08060481
235	0x3ddc9d86	0.10772233
236	0xbd2f7c5d	-0.04284321
237	0x3d1bb7c7	0.03801706
238	0x3da07573	0.07834902
239	0x3d0c6ec3	0.034285318
240	0x3d26c0b5	0.040711123
241	0x3d251633	0.040304374
242	0xbd9beeae	-0.07613884
243	0xbd19264b	-0.037390035
244	0x3d2e5674	0.042562917
245	0x3da6da52	0.0814711
246	0x3cd58a8e	0.026067045
247	0xbc37e15c	-0.011223163
248	0x3ca08bb8	0.019597873
249	0xbda1734d	-0.0788332
250	0xbe12a399	-0.1432022
251	0xbe1dea78	-0.15421474
252	0xbb913094	-0.00443084
253	0xbd06c17b	-0.03289936
254	0xbdb6934f	-0.08914816
255	0xbcefb163	-0.02925939

encoder.2.bias f4 [8]
0	0x3dd71bd4	0.10503355
1	0x3dfd0fba	0.12356515
2	0xbc0dd1d3	-0.008655983
3	0x3d6c54ea	0.057698168
4	0x3b8afd39	0.0042416123
5	0xbc2f9008	-0.010715492
6	0x3e1548cc	0.14578551
7	0xbd488018	-0.048950285

cell.conv.weight f4 [64, 24, 3, 3]
0	0x3e27bab8	0.16379821
1	0x3e667e70	0.2250917
2	0x3e168dbf	0.1470251
3	0x3e59eb93	0.2128127
4	0x3e17ca6c	0.14823312
5	0x3e5f0528	0.2177931
6	0x3dbdb7ae	0.0926355
7	0x3e1b8747	0.15188323
8	0x3e11f33f	0.14252947
9	0x3d32ea07	0.043680217
10	0x3d3034a7	0.043018963
11	0x3da1087b	0.07862946
12	0x3c215af2	0.009848343
13	0x3bbdf3fc	0.0057969075
14	0x3d92661c	0.07148382
15	0x3c09a0a0	0.008400112
16	0x3d9df8ab	0.07713445
17	0xbc972795	-0.018451491
18	0x3e085ee2	0.13317445
19	0x3e1a10c7	0.15045463
20	0x3e33ac98	0.17546308
21	0x3e433b46	0.1906558
22	0x3e1dccd5	0.15410168
23	0x3d920044	0.07128957
24	0x3e201e1d	0.15636487
25	0x3e09780c	0.134247
26	0x3e1774d9	0.14790668
27	0xbca76505	-0.020433912
28	0x3d792fb6	0.060836516
29	0x3dae87b1	0.08521975
30	0x3c6b44a8	0.014359631
31	0xbd6c9fba	-0.057769515
32	0x3d892371	0.06696213
33	0xbd0e4b09	-0.034739528
34	0x3d184064	0.037170783
35	0x3d2bb1ca	0.0419176
36	0x3d88e467	0.06684189
37	0x3dfd420e	0.123661146
38	0x3d1a5087	0.037674453
39	0x3de50d6e	0.11184202
40	0x3d68483a	0.056709506
41	0x3db953c0	0.09049177
42	0x3dd41da1	0.10357214
43	0x3e25cecc	0.16192168
44	0x3d88c9ba	0.06679101
45	0x3e273bc4	0.16331393
46	0x3e271e05	0.16320045
47	0x3de5a5b8	0.11213249
48	0x3d766e80	0.060163975
49	0x3e246230	0.1605308
50	0x3e3dfdb6	0.18553814
51	0x3df8eb72	0.12154283
52	0x3e525347	0.2053958
53	0x3e24d9e7	0.16098748
54	0x3e1162c9	0.1419784
55	0x3e27b28d	0.16376705
56	0x3e176358	0.1478399
57	0x3c91f6ba	0.017817844
58	0x3c756fbd	0.014980254
59	0x389787ee	7.22556e-05
60	0x3cb3c1ed	0.021943057
61	0x3d1f0348	0.03882149
62	0x3ddaf89a	0.10691948
63	0x3d161e15	0.036649782
64	0x3e0c946a	0.1372849
65	0x3d6b43d2	0.057437725
66	0x3da775cc	0.08176765
67	0x3e2b4fa8	0.16729605
68	0x3db0fd0e	0.08642016
69	0x3dc9fbbb	0.09862467
70	0x3d5e1f68	0.05422917
71	0x3e1b951f	0.15193604
72	0xbb5b033c	-0.0033418676
73	0xbd6ebcc2	-0.058285482
74	0x3c775f0d	0.0150983455
75	0xbd6f9bf0	-0.058498323
76	0xbdd3faee	-0.103505954
77	0xbc938944	-0.01800979
78	0x3d6876e3	0.056754004
79	0xbceabe2d	-0.028655136
80	0x3cabbba4	0.020963497
81	0x3d656062	0.05600012
82	0x3d41e276	0.04733511
83	0xbd175885	-0.036949653
84	0xbb5d495d	-0.0033765652
85	0xbc6550fb	-0.013996358
86	0xbd54a78b	-0.051917594
87	0xbb176522	-0.0023101051
88	0x3d533aef	0.051569875
89	0x3d5d13b5	0.053973872
90	0x3b994b81	0.00467819
91	0x3c92169c	0.017833047
92	0xbce88dca	-0.028387923
93	0x3d530250	0.051515877
94	0xbcb0660c	-0.021533035
95	0xbd32e234	-0.043672755
96	0x3bed7235	0.0072462806
97	0x3d21b987	0.039483573
98	0xbd81a097	-0.06329458
99	0x3d86905b	0.06570502
100	0x3d018fce	0.031631283
101	0xbd38a81f	-0.045082208
102	0xbbb0bc5e	-0.005393549
103	0x3d99a99c	0.075030535
104	0xbd2df406	-0.042469047
105	0xbc93bd51	-0.018034609
106	0x3cf0557a	0.029337633
107	0xbd5efb5c	-0.054438934
108	0x3cefd869	0.029277997
109	0x3cc4204b	0.02394118
110	0x3ce0f985	0.02746273
111	0xbd5c7a74	-0.053827718
112	0x3d4609cd	0.04834919
113	0xbd72fdba	-0.059324004
114	0x3d7f1dc8	0.06228426
115	0xbd9a89f6	-0.07545845
116	0xbd961420	-0.07328057
117	0x3c85e0f1	0.016342612
118	0xbbebf885	-0.0072012567
119	0xbc873a6f	-0.016507355
120	0xbd8a1eda	-0.06744166
121	0xbccdacc4	-0.025106795
122	0xbcf785d0	-0.030215174
123	0xbde5bab3	-0.11217251
124	0xbce0563f	-0.027384875
125	0xbc99a21b	-0.018754056
126	0x3bc43522	0.0059877792
127	0x3cb1f0f8	0.021721348
128	0x3d8cf8a3	0.06883361
129	0x3c9e1593	0.019297397
130	0xbd1783f3	-0.03699107
131	0xbd04c050	-0.032409966
132	0xbd1e17b3	-0.03859682
133	0xbd453c62	-0.04815329
134	0xbc6138ad	-0.013746423
135	0xbc3be589	-0.0114683
136	0x3cdf646f	0.02726957
137	0xbd010b9b	-0.03150521
138	0x3d475dc0	0.04867339
139	0xbd7e272b	-0.062049072
140	0xbbf85d93	-0.0075795143
141	0x3d7a31e7	0.061082747
142	0x3d835e73	0.06414499
143	0xbd2e4051	-0.042541806
144	0x3c4e15a5	0.012578403
145	0x3bd44da8	0.006478984
146	0xbd01fa89	-0.03173307
147	0xbcec30b6	-0.028831821
148	0x3c3145c9	0.010819861
149	0xbd561cd4	-0.052273586
150	0x3c4d144d	0.012517047
151	0x3ce0dfe3	0.027450508
152	0xbcd807eb	-0.026370963
153	0x3d8f7b98	0.070059955
154	0x3b9ee3ec	0.0048489477
155	0x3d2cbd9e	0.04217302
156	0x3d9402b1	0.07227076
157	0xbcc61c79	-0.024183499
158	0x3d2ac6c4	0.041693464
159	0xbc044a16	-0.008074304
160	0xbbab003b	-0.0052185333
161	0xbb71794a	-0.0036845976
162	0x3c7c9d2e	0.015418334
163	0xbbb9e5fc	-0.005673168
164	0x3d33ac84	0.043865696
165	0x3c978718	0.018497035
166	0x3d8101ca	0.06299169
167	0x3c8f7b70	0.017514914
168	0x3cbea2c4	0.023270972
169	0xbc39a7f3	-0.011331546
170	0xbcde0b94	-0.02710513
171	0x3d08e93f	0.033425566
172	0x3c2eac20	0.010661155
173	0xbcb1a2a8	-0.021684006
174	0xbcb7999e	-0.022412118
175	0x3c4f7606	0.012662416
176	0xbc420cf0	-0.011843905
177	0x3d58793f	0.052850004
178	0x3c0736f1	0.008252845
179	0x3d01a115	0.03164776
180	0x3d07c47e	0.033146374
181	0xbc9e010d	-0.01928761
182	0x3ce23a9b	0.027615836
183	0x3d4f275b	0.05057464
184	0xbbf62358	-0.0075115375
185	0x3bea0c0c	0.0071425494
186	0x3be7c91f	0.007073536
187	0x3d54b104	0.051926628
188	0xbce570c0	-0.028007865
189	0xbcab0719	-0.020877408
190	0x3d48b0c6	0.04899671
191	0xbd1c3096	-0.038132273
192	0x3c6f613d	0.014610586
193	0xbad203c3	-0.001602285
194	0x3d90fc41	0.070793636
195	0xbd49262f	-0.04910868
196	0x3d7d72fa	0.06187723
197	0x3dc03301	0.09384728
198	0x3cb05eac	0.021529518
199	0x3bd9a9e0	0.006642565
200	0x3da014fb	0.07816502
201	0xbcac7248	-0.021050587
202	0x3c65a68c	0.014016759
203	0xbc61fbcc	-0.013792943
204	0xbb7073bf	-0.0036690084
205	0x3cd6d333	0.026223755
206	0x3cb4c68d	0.022067333
207	0xbc14610e	-0.009056343
208	0xbd895172	-0.067049876
209	0x3b8d779a	0.004317236
210	0xbb028ea6	-0.001992145
211	0x3b81deb6	0.003963317
212	0x3d47fd56	0.048825584
213	0x3d8ee8af	0.069779746
214	0xbd1e5241	-0.038652662
215	0xba9f8123	-0.0012169223
216	0xbd7f2659	-0.06229243
217	0xbdaaee7a	-0.08346267
218	0xbd9fd7f1	-0.078048594
219	0x3d42caa7	0.047556546
220	0x3d80670c	0.06269655
221	0x3d075c4c	0.033047006
222	0x3ca30512	0.019899879
223	0xbd24f4c2	-0.04027248
224	0xbb1b4086	-0.0023689582
225	0x3dca80dc	0.09887859
226	0xbb545489	-0.003239902
227	0x3dc4f268	0.09616548
228	0x3d57d0fc	0.052689537
229	0x3da3597a	0.07976051
230	0x3bbeaaee	0.0058187163
231	0x3d87ec57	0.06636875
232	0xbcef6feb	-0.029228171
233	0x3ceeb4fe	0.029139038
234	0x3abd2edb	0.001443352
235	0x3c39dc05	0.011343961
236	0x3d31c78b	0.04340319
237	0x3d51be12	0.051206656
238	0x3d875e36	0.06609766
239	0x3d360f87	0.0444484
240	0x3d06d7f9	0.03292081
241	0xbbbac81b	-0.005700124
242	0xbd31916d	-0.04335158
243	0x3c19820a	0.009369383
244	0x3cd54b41	0.02603686
245	0xbb8d1bb8	-0.004306283
246	0x3d890712	0.06690802
247	0x3d5eaa08	0.054361373
248	0x3d2ced76	0.042218648
249	0x3d48b076	0.04899641
250	0x3dbc5e0d	0.09197626
251	0x3d6d0a55	0.05787118
252	0xbd857343	-0.06516125
253	0xbd6300c3	-0.05542065
254	0x3cb534e3	0.022119945
255	0x3a9b0b1b	0.0011828871

cell.conv.bias f4 [64]
0	0x3dcf00b7	0.10107558
1	0xbc4d8592	-0.012544053
2	0x3bf15e18	0.007365953
3	0x3da99af3	0.08281507
4	0xbca375bc	-0.019953601
5	0x3c00bf07	0.0078580445
6	0x3d677b3a	0.056514002
7	0x3b9b7bb3	0.0047449707
8	0x3db5de19	0.088802524
9	0x3dbad78d	0.09123144
10	0x3cdbcd9f	0.026831446
11	0x3d87eb3c	0.06636664
12	0xbc7c5c4d	-0.015402866
13	0x3deeb663	0.11655881
14	0x3c1ab31b	0.009442116
15	0x3d6e04b0	0.05810994
16	0xbb9ea553	-0.0048414855
17	0x3daf69bd	0.0856509
18	0x3d534f44	0.051589265
19	0xbc2fa436	-0.010720303
20	0xbd0b86c3	-0.034064066
21	0xbb0bc426	-0.002132663
22	0x3d1935b5	0.037404735
23	0x3c5367e3	0.0129031865
24	0x3ca41a84	0.020032175
25	0x3b72fed1	0.0037078152
26	0x3bc28e29	0.005937357
27	0x3dbb9e98	0.09161109
28	0x3cb80a9c	0.022465996
29	0xbbd148ec	-0.006386867
30	0x3d19b2ed	0.037524153
31	0x3dbbf252	0.09177078
32	0x3dbbb210	0.09164822
33	0x3a613586	0.00085910445
34	0x3dae2476	0.08503048
35	0x3d17d28f	0.03706604
36	0x3d9d664d	0.07685528
37	0x3c23c799	0.009996318
38	0x3c86bb4d	0.016446734
39	0x3db84b9f	0.089987986
40	0x3d8449ab	0.064593635
41	0x3d1c6d9c	0.03819047
42	0x3dd516ff	0.10404777
43	0x3d29dc5a	0.04146991
44	0x3c5c693f	0.013452827
45	0x3dc7150d	0.09720812
46	0x3d62a4aa	0.055332817
47	0x3d95fc31	0.07323492
48	0xbba20a52	-0.004945078
49	0x3d9617e9	0.07328779
50	0x3bdc3485	0.006720128
51	0x3d46f881	0.048576836
52	0xbdae2edd	-0.08505032
53	0xbcb3e34c	-0.02195897
54	0xbd7fc38f	-0.06244236
55	0xbca9a9d7	-0.020710869
56	0xbd90c918	-0.070696056
57	0xbd0bc2e3	-0.034121405
58	0x3da7aa89	0.08186824
59	0x3ca62ea8	0.02028592
60	0x3d33d04b	0.043899816
61	0x3d622de3	0.055219542
62	0x3d72098e	0.059091143
63	0xbd408a44	-0.04700686

winter_proj.weight f4 [16, 8, 1, 1]
0	0x3e98cc6f	0.2984347
1	0xbed19145	-0.40931144
2	0xbda5b9b1	-0.080920584
3	0xbed40526	-0.41410178
4	0x3ea13ddc	0.31492507
5	0x3e51b443	0.2047892
6	0xbef764e2	-0.48319155
7	0x3e2d2c49	0.16911425
8	0x3df58568	0.11988336
9	0xbd5ee61d	-0.054418672
10	0xbedffe58	-0.43748736
11	0xbde564ee	-0.112008914
12	0xbe2f58b0	-0.17123675
13	0x3e59a7ec	0.21255463
14	0x3eb8eefc	0.3611983
15	0xbe48a9f1	-0.19596078
16	0xbe62f7f1	-0.22164895
17	0xbcce6bdc	-0.025197916
18	0xbea65bbb	-0.3249186
19	0x3ed1e6d9	0.40996435
20	0xbe79928c	-0.2437231
21	0xbe5da0ad	-0.21643324
22	0x3e0707f9	0.13186635
23	0x3e2edec5	0.17077167
24	0xbec80e0a	-0.3907321
25	0x3ee5d34a	0.44887763
26	0xbe364d45	-0.17802913
27	0xbd111b50	-0.035426438
28	0x3dd7b8db	0.10533305
29	0x3e4729a0	0.19449472
30	0x3e237bfd	0.15965267
31	0x3d5881e5	0.052858252
32	0xbd304961	-0.04303873
33	0xbe62837f	-0.22120474
34	0x3ecfa8d5	0.40558496
35	0x3e7c2585	0.24623688
36	0xbe4592ac	-0.19294232
37	0xbe0bd86e	-0.1365678
38	0xbf0370b8	-0.5134387
39	0x3dde109a	0.1084301
40	0xbe6d58d1	-0.23178412
41	0x3eabed42	0.3357945
42	0xbde78b14	-0.11305824
43	0xbe1382c2	-0.14405349
44	0xbe135b78	-0.14390361
45	0xbe9f085b	-0.31061062
46	0x3ea95589	0.3307307
47	0xbd583a64	-0.05279006
48	0xbe17e48d	-0.14833279
49	0x3e8758f5	0.26435056
50	0x3ebd706f	0.36999843
51	0xbee670ab	-0.45007834
52	0xbd3ef553	-0.04662068
53	0x3ed10cec	0.4083017
54	0xbe7f2ccd	-0.24919434
55	0xbe04f360	-0.12983465
56	0xbbd9dc8a	-0.0066486048
57	0xbec6b23d	-0.3880786
58	0x3e8e170a	0.27751952
59	0xbe81bb4a	-0.25338203
60	0x3ee0e8d6	0.4392764
61	0x3e42ddb0	0.1902988
62	0xbeded43c	-0.43521297
63	0x3ec8c29d	0.39210978
64	0x3dc97e36	0.09838526
65	0xbebb216f	-0.36548945
66	0xbded0087	-0.11572366
67	0xbe9da076	-0.30786484
68	0x3e743392	0.23847798
69	0x3e589855	0.2115186
70	0xbec2cf73	-0.38048896
71	0x3c11421e	0.008865861
72	0x3daedc40	0.08538103
73	0xbec545f1	-0.38529924
74	0x3f015eeb	0.5053546
75	0xbef3c962	-0.4761458
76	0x3d642e62	0.055708297
77	0x3e390eb7	0.1807202
78	0xbe8e528d	-0.27797356
79	0x3dfc1430	0.12308538
80	0xbee673b1	-0.4501014
81	0xbda16d95	-0.07882229
82	0xbebfb4e9	-0.3744271
83	0x3ecf6156	0.4050395
84	0xbe58fb04	-0.21189505
85	0xbeb29189	-0.3487666
86	0x3c86f4d3	0.016474163
87	0xbecc8f9c	-0.39953315
88	0x3df93067	0.12167435
89	0xbe8f1f75	-0.27953687
90	0xbd83f2d9	-0.06442804
91	0xbe88108f	-0.26575133
92	0x3ece563c	0.40300167
93	0xbe53b791	-0.20675494
94	0xbea0187c	-0.3126868
95	0x3efaa623	0.48954877
96	0x3eca7b0c	0.39547002
97	0x3c4d00ca	0.012512395
98	0x3ea6f313	0.32607326
99	0xbe510894	-0.20413429
100	0xbe2ab6b9	-0.16671266
101	0xbe00420e	-0.12525198
102	0xbeef3324	-0.46718705
103	0x3ecd3da7	0.400861
104	0xbe2989cf	-0.16556476
105	0xbe5eb497	-0.21748577
106	0xbee1bbaa	-0.4408849
107	0x3d5a764e	0.05333548
108	0x3dc3cbd5	0.09560362
109	0xbd515ed7	-0.051115837
110	0x3ea6bb5e	0.32564825
111	0xbe6344fb	-0.22194283
112	0xbe347f44	-0.17626673
113	0x3e966578	0.2937429
114	0xbd83d7dc	-0.06437656
115	0xbcbeda85	-0.023297558
116	0x3e7b2463	0.24525599
117	0x3e1a93eb	0.15095489
118	0x3ec65f27	0.3874447
119	0x3cc0fccb	0.023558041
120	0x3ed37848	0.41302705
121	0xbe0cc8ad	-0.13748427
122	0x3e7b5748	0.24545014
123	0xbe518029	-0.20459045
124	0x397fbca1	0.00024388965
125	0x3dde1f44	0.10845807
126	0xbf0233b3	-0.50860137
127	0x3eed0d35	0.4629914

winter_proj.bias f4 [16]
0	0xbe82f376	-0.2557637
1	0xbe5bf606	-0.21480569
2	0xbcf2d06a	-0.029640395
3	0x3e7ddfe7	0.24792443
4	0xbe46f533	-0.19429474
5	0xbbaf1a90	-0.0053437427
6	0x3e3806a0	0.17971277
7	0xbea85b1b	-0.32882008
8	0x3eb9a0c3	0.36255464
9	0x3e6461b4	0.22302896
10	0x3e0e8bed	0.13920565
11	0xbc76807e	-0.015045283
12	0x3e40bea6	0.18822727
13	0xbda35b63	-0.07976415
14	0x3d48b846	0.04900386
15	0x3e7a6c02	0.24455264

head.weight f4 [1, 16, 1, 1]
0	0xbec45e00	-0.38352966
1	0x3db6d42b	0.089271866
2	0x3ea09572	0.31364018
3	0x3dd4993f	0.10380792
4	0xbe9c00e5	-0.30469432
5	0x3e7c5ac2	0.24643996
6	0xbe301d89	-0.17198767
7	0xbeb2bc88	-0.34909463
8	0xbd85863e	-0.06519745
9	0xbdaeb4a4	-0.08530548
10	0x3eed4977	0.46345112
11	0xbe032672	-0.12807634
12	0xbeb57246	-0.35438746
13	0x3f02da6c	0.51114535
14	0x3e45477d	0.19265552
15	0xbe3f82b6	-0.18702206
