experiments/sweeps_phase3/p3_tv0.001_time0.001_run06.pt (torch, 63477 bytes, 9 tensors)

encoder.0.weight f4 [8, 1, 3, 3]
0	0x3e2f8b58	0.17142999
1	0x3d7ac214	0.061220244
2	0x3e22f5c6	0.15914068
3	0xbe493f03	-0.19652943
4	0x3e3464ba	0.17616549
5	0x3eb3c62a	0.35112125
6	0x3e704869	0.23465122
7	0x3ceb6d7b	0.028738728
8	0x3d8e62d4	0.06952444
9	0x3e4ef980	0.20212364
10	0x3eac5803	0.33660898
11	0xbdd7bd77	-0.105341844
12	0x3cca5dfa	0.024703015
13	0x3e03e7ad	0.12881346
14	0xbd2aa202	-0.04165841
15	0xbe4f3687	-0.20235644
16	0xbdad6ed4	-0.084684044
17	0x3cadd292	0.021218572
18	0x3d2de7c5	0.04245736
19	0xbd9a72dd	-0.0754144
20	0xbdc328a9	-0.0952924
21	0xbc79e0e4	-0.015251372
22	0x3d19aedd	0.03752028
23	0x3d74fcff	0.05981159
24	0xbb93728d	-0.0044997395
25	0x3e1937e2	0.14962724
26	0x3e82ce45	0.25547996
27	0x3d9f0726	0.07765035
28	0x3ea737fb	0.32659897
29	0xbbf2f786	-0.007414761
30	0x3e93347c	0.2875098
31	0x3ea9e0c1	0.33179286
32	0xbd0971ab	-0.033555668
33	0x3e7012f1	0.23444726
34	0xbd9ed92c	-0.07756266
35	0xbd50d4f2	-0.05098433
36	0x3e7cf4c0	0.2470274
37	0xbe74afd9	-0.23895206
38	0xbe09bf66	-0.13451919
39	0x3d3ceffc	0.046127304
40	0xbdfa9920	-0.122362375
41	0x3dd2a932	0.10286178
42	0x3d5c136a	0.053729452
43	0xbd687850	-0.056755364
44	0xbdf48e85	-0.11941246
45	0xbda1344b	-0.07871302
46	0xbe0dc7f1	-0.13845803
47	0x3dd541ac	0.104129165
48	0x3e6f3cd9	0.23363055
49	0xbd969ee0	-0.07354522
50	0xbe7aa6f5	-0.24477752
51	0xbe191166	-0.14948043
52	0xbbaa3ec1	-0.005195469
53	0x3e908fbe	0.28234667
54	0xbd23209c	-0.03982602
55	0xbe0a428c	-0.13501948
56	0xbe86e915	-0.26349702
57	0x3d3dc2e6	0.046328448
58	0xbd378661	-0.044805888
59	0x3dbba3c4	0.09162095
60	0xbd9dc824	-0.077041894
61	0x3df5490f	0.119768254
62	0x3dafcd27	0.085840516
63	0x3e36740d	0.17817707
64	0x3ebbb0f4	0.36658442
65	0xbe0b6050	-0.13610959
66	0xbde3c505	-0.11121563
67	0xbe918d1f	-0.2842798
68	0x3eb37570	0.35050535
69	0xbd735612	-0.059408255
70	0xbe0c69cf	-0.13712238
71	0xbbd27f10	-0.0064238384

encoder.0.bias f4 [8]
0	0x3e79f22a	0.24408785
1	0x3ea76aca	0.3269866
2	0x3d0f13eb	0.034931105
3	0x3e0ceb9f	0.13761757
4	0x3e28d107	0.16485988
5	0x3e50ee4b	0.20403402
6	0x3e67b5ef	0.22627996
7	0x3e72e899	0.23721541

encoder.2.weight f4 [8, 8, 3, 3]
0	0x3d53e44d	0.051731396
1	0xbc09f62f	-0.008420511
2	0x3e1ad47b	0.15120117
3	0x3dcac348	0.09900528
4	0x3e0b7c3a	0.13621607
5	0x3df4084f	0.11915647
6	0x3dc90be9	0.09816725
7	0x3c90ca7d	0.017674679
8	0xbd2f6cb3	-0.042828273
9	0x3dc7c3be	0.09754132
10	0x3cff19fe	0.031140324
11	0xbd74010c	-0.05957131
12	0x3d34433f	0.044009443
13	0xbd50f15d	-0.051011432
14	0x3e24495b	0.16043608
15	0x3c5db110	0.0135309845
16	0x3e34ce61	0.17656852
17	0x3d9cc18e	0.07654105
18	0x3e8a0624	0.2695781
19	0x3e1480f8	0.14502323
20	0x3da13e14	0.078731686
21	0x3e2a0060	0.16601706
22	0xbc309d42	-0.010779681
23	0xbc44c815	-0.012010594
24	0xbe2936f5	-0.1652487
25	0xbe134300	-0.14381027
26	0xbd72cc3c	-0.059276804
27	0x3e1c1feb	0.1524655
28	0x3df6935b	0.120398246
29	0x3ddde218	0.108341396
30	0xbd323ea4	-0.04351677
31	0xba82efff	-0.0009989737
32	0x3d6ee6ce	0.05832558
33	0x3dab10c7	0.083528094
34	0x3d99f772	0.075178996
35	0x3de1228e	0.10992919
36	0xbdb2fbe1	-0.08739448
37	0xbc327b40	-0.010893643
38	0xbd600d4d	-0.054700185
39	0xbe3fac05	-0.18717964
40	0x3d0953a2	0.033527024
41	0xbdcd10fa	-0.10013004
42	0xbe52b088	-0.20575154
43	0xbd83b527	-0.064310364
44	0x3dc050f2	0.09390439
45	0x3c71a796	0.014749428
46	0xbe252941	-0.16129018
47	0xbe56b1d7	-0.20966278
48	0xbe7d006a	-0.24707189
49	0xbe1e2bee	-0.15446445
50	0xbd5523f3	-0.052036237
51	0xbd1cfe9c	-0.038328752
52	0xbbbd0682	-0.005768598
53	0xbce59699	-0.028025912
54	0xbc9c34ad	-0.019068087
55	0x3da5c273	0.08093729
56	0xbd718afb	-0.058970433
57	0xbd9abdf7	-0.07555764
58	0x3bec8922	0.007218496
59	0x3d8d7cb5	0.069085516
60	0xbdd7fff0	-0.10546863
61	0xbc87c256	-0.016572159
62	0x3c959879	0.018261181
63	0xbd5bd147	-0.05366638
64	0xbe1188a2	-0.14212278
65	0xbdb1dfb0	-0.08685243
66	0x3ccf2099	0.025284098
67	0xbe2d5412	-0.16926602
68	0xbe61e512	-0.2206004
69	0xbd81d306	-0.06339078
70	0xbc9b678c	-0.018970273
71	0xbdc9e033	-0.09857216
72	0x3dfd75b6	0.12375967
73	0xbcc41159	-0.023934053
74	0x3d9fc65f	0.07801508
75	0x3e2a4a26	0.16629848
76	0x3e1cd4f0	0.15315604
77	0xbca576c1	-0.020198228
78	0xbd80a330	-0.062811255
79	0xbd6bb030	-0.057541072
80	0x3d0ba7fa	0.03409574
81	0x3d2b5f10	0.041838706
82	0x3d7cc1bb	0.061708193
83	0x3c6dcfcc	0.014514875
84	0x3cb9dc93	0.022688186
85	0x3de912d4	0.11380544
86	0x3e269d79	0.16271009
87	0x3e182e66	0.1486145
88	0x3de04c78	0.10952085
89	0x3e193913	0.14963178
90	0x3e7bc5bc	0.24587148
91	0x3d723420	0.05913174
92	0x3e31ef5b	0.17376463
93	0x3d37c1ad	0.044862438
94	0x3da4a141	0.08038569
95	0xbc62540d	-0.013813985
96	0x3d4a1e7b	0.049345475
97	0xbcafd9fb	-0.021466246
98	0xbd987fdb	-0.074462615
99	0x3e093059	0.1339735
100	0x3e23254b	0.15932195
101	0xbc134944	-0.008989636
102	0x3dfb16c0	0.122601986
103	0xbd3a3feb	-0.045471113
104	0x3ba904c8	0.0051580407
105	0x3d06da0e	0.032922797
106	0x3cdd4ca7	0.02701409
107	0x3deff709	0.1171704
108	0x3d434550	0.047673523
109	0xbdd1ce40	-0.10244417
110	0xbd9eff71	-0.07763565
111	0xbde3323d	-0.110935666
112	0xbe0e1172	-0.13873842
113	0x3d8da9d7	0.0691716
114	0xbdc247fa	-0.09486385
115	0xbcf4f8fb	-0.02990388
116	0xbd2891d6	-0.041154705
117	0x3c5ca01a	0.013465906
118	0x3d27a827	0.040931847
119	0xbddf5d1f	-0.10906433
120	0xbdc577c5	-0.09641985
121	0xbd817e7e	-0.063229546
122	0xbdf402e5	-0.119146146
123	0x3cc16ec2	0.023612384
124	0xbe228738	-0.15871894
125	0xbe703ffa	-0.23461905
126	0x3d09e6c9	0.03366736
127	0x3e137a14	0.14402038
128	0xbd7d2d31	-0.061810676
129	0xbd6c74e0	-0.05772865
130	0xbe0487d7	-0.12942444
131	0xbe01e713	-0.12685804
132	0xbe02d25c	-0.12775558
133	0xbe02f4f1	-0.1278875
134	0xbb56541c	-0.0032703942
135	0xbe0aef4e	-0.1356785
136	0xbd6800a0	-0.05664122
137	0xbe47536f	-0.19465421
138	0x3c54e16f	0.012993201
139	0xbdb38f81	-0.087676056
140	0xbd16a8f2	-0.036782213
141	0xbd8d4ff8	-0.069000185
142	0x3c653b9d	0.013991264
143	0x3ca9de2c	0.020735823
144	0x3d805156	0.062655136
145	0x3d9c23ec	0.07624039
146	0xbda44f73	-0.08022966
147	0x3ded80c8	0.11596829
148	0x3e17eb60	0.14835882
149	0x3d590b5a	0.05298934
150	0x3d9f9779	0.07792563
151	0x3da41c42	0.08013202
152	0x3e115f44	0.14196497
153	0x3dfa0909	0.122087546
154	0x3ded405e	0.11584543
155	0x3c69c693	0.014268535
156	0xbc356777	-0.011072031
157	0xbd1df6e8	-0.038565546
158	0x3dad8f93	0.0847465
159	0xbd31d8e1	-0.043419722
160	0x3decb721	0.115583666
161	0x3d69e78e	0.057105593
162	0x3de681c9	0.11255223
163	0x3db2aabf	0.087239735
164	0xbd1df8d4	-0.03856738
165	0xbddcff32	-0.10790862
166	0xbde4b30f	-0.11166965
167	0xbd920904	-0.07130626
168	0x3c424e32	0.0118594635
169	0xbe3f7242	-0.1869593
170	0x3d29f2d1	0.041491333
171	0xbd0a7821	-0.03380597
172	0x3de0c147	0.10974365
173	0x3d78a7a8	0.060706764
174	0x3d989a19	0.07451267
175	0x3d8c8c67	0.06862717
176	0x3db16e8d	0.08663664
177	0xbd4ca907	-0.049965885
178	0x3d97fc1d	0.07421134
179	0x3e1d3345	0.15351589
180	0xbd5def83	-0.054183494
181	0xbd8d175b	-0.0688922
182	0xbde05f08	-0.10955626
183	0xbd3d069f	-0.046148892
184	0xbe0515a7	-0.12996541
185	0xbd5ecc60	-0.054394126
186	0xbe054e78	-0.13018215
187	0x3cd0c4d5	0.025484482
188	0x3bf5b548	0.007498417
189	0xbdb720d8	-0.08941811
190	0x3c4407e8	0.011964776
191	0x3b54f3a6	0.0032493859
192	0xbde94135	-0.113893904
193	0xbdbc8c77	-0.09206479
194	0xbd901354	-0.070349365
195	0xbdfb9d84	-0.12285903
196	0xbd70e6cd	-0.05881386
197	0xbb8156fb	-0.0039471365
198	0x3e21e7c3	0.15811066
199	0x3dca702f	0.098846786
200	0x3c7452b3	0.014912295
201	0x3beca9bc	0.0072223824
202	0xbc8dd589	-0.017313736
203	0xbd1ad4d5	-0.03780063
204	0xbd47012b	-0.0485851
205	0xbe17c6a5	-0.1482187
206	0x3d5954a6	0.053059243
207	0xbd971645	-0.073772945
208	0xbde21fdc	-0.11041233
209	0xbe51eea7	-0.20501195
210	0xbe0a74d7	-0.13521133
211	0xbba52cbc	-0.005040733
212	0x3ca7629f	0.020432768
213	0x3c0c6948	0.008570023
214	0xbd2cd67b	-0.042196732
215	0xbd6b6be0	-0.057475924
216	0x3b1c41dd	0.0023842969
217	0xbce2a729	-0.027667599
218	0xbceafc7e	-0.02868485
219	0xbdc88404	-0.09790805
220	0x3c95821a	0.018250514
221	0x3dac79e2	0.08421685
222	0x3d83923d	0.06424377
223	0xbcd4eab1	-0.025990816
224	0x3de012a4	0.109410554
225	0xbd46702b	-0.048446815
226	0x3d596f4e	0.053084664
227	0x3de76d1c	0.11300108
228	0x3dd51c8c	0.104058355
229	0xbda00f79	-0.07815451
230	0x3d2e7774	0.042594388
231	0xbdcac918	-0.09901637
232	0xbda0bdc9	-0.07848699
233	0xbda3f5f5	-0.08005897
234	0xbe84213b	-0.25806603
235	0xbc71121a	-0.014713788
236	0x3e0d8ec1	0.13823988
237	0x3e239f2c	0.15978688
238	0x3cacb717	0.021083398
239	0x3d2a833d	0.041629065
240	0x3e0304a3	0.12794738
241	0x3d82dc5a	0.06389685
242	0x3debba32	0.11510123
243	0xbda1e57b	-0.07905098
244	0xbdfb2d0e	-0.12264453
245	0x3d3e596f	0.04647201
246	0xbd852519	-0.065012164
247	0x3d672cad	0.05643909
248	0x3d6c109b	0.057633024
249	0xbdbd99ab	-0.092578255
250	0x3dbcaca9	0.0921262
251	0x3c0e0556	0.008668264
252	0x3e106909	0.14102568
253	0x3e1a9dcd	0.15099259
254	0xbbc81226	-0.006105679
255	0x3e132e4f	0.14373134

encoder.2.bias f4 [8]
0	0x3d8213f5	0.06351463
1	0x3d2034ca	0.039112844
2	0xbd0d17ee	-0.03444665
3	0xbcd34628	-0.025790289
4	0xbd3b02f2	-0.045657106
5	0xbdc8f14f	-0.09811651
6	0xbc245e16	-0.010032197
7	0x3c826cee	0.015921082

cell.conv.weight f4 [64, 24, 3, 3]
0	0x3d098326	0.03357234
1	0x3da29253	0.079380654
2	0x3c8ce88d	0.017200733
3	0xba0d59bd	-0.0005392095
4	0x3ce6203c	0.028091542
5	0xbc5d6ef3	-0.013515222
6	0xbc107b1e	-0.008818416
7	0x3bda36ae	0.0066593504
8	0xbc3449fc	-0.011003967
9	0x3cd59f77	0.026077015
10	0xbbf4ed5c	-0.0074745845
11	0x3dab52d1	0.08365405
12	0x3c88f918	0.01672034
13	0x3cefd355	0.029275576
14	0x3db0fefd	0.08642385
15	0x3caa108b	0.020759841
16	0x3db3f917	0.087877445
17	0x3b15f4d0	0.0022881515
18	0x3c663f7a	0.01405322
19	0x3ceaf47a	0.028681029
20	0xbca5efa2	-0.020255867
21	0x3ce4c463	0.027925676
22	0xbcbfeb1d	-0.02342754
23	0x3dc1bb7e	0.094595894
24	0xbd11d2db	-0.035601478
25	0xbcf2e46c	-0.029649936
26	0x3d954d89	0.07290179
27	0x3dd9f166	0.10641746
28	0x3d10368e	0.035208277
29	0xbccd17eb	-0.025035819
30	0x3df7abbd	0.12093303
31	0x3b4e3dd5	0.003146996
32	0x3d8879d2	0.066638604
33	0xbc5565b0	-0.0130247325
34	0x3d05ebdf	0.032695647
35	0x3da83374	0.08212939
36	0x3cff6250	0.031174809
37	0xbd7a08a0	-0.06104338
38	0xbc2f6357	-0.010704837
39	0xbc9e1a8c	-0.019299768
40	0xbcc18059	-0.023620771
41	0xbcf60e19	-0.03003602
42	0xbd68304d	-0.05668669
43	0x3cefa366	0.02925272
44	0x3bc4f996	0.0060111983
45	0xbabd1ae7	-0.0014427573
46	0x3d4bd752	0.049765892
47	0x3c1b55bc	0.00948089
48	0x3cc4ba35	0.024014572
49	0x3cf0f51c	0.029413752
50	0xbd27c9a2	-0.040963776
51	0x3d68a2df	0.05679595
52	0x3c94ea43	0.018178111
53	0x3d03964f	0.032125767
54	0x3d373909	0.044732127
55	0x3d6fd451	0.05855209
56	0xbd271b51	-0.040797535
57	0x3da9dfd2	0.082946435
58	0xbc3f7255	-0.011684974
59	0x3d8cf421	0.068825014
60	0xbc1c53bb	-0.009541447
61	0x3da1c94a	0.07899721
62	0x3d8e393d	0.06944511
63	0x3d7552b6	0.059893332
64	0x3d46a3d6	0.04849609
65	0x3b9065e6	0.0044066785
66	0xbd26c834	-0.040718272
67	0x3db55f4f	0.08856069
68	0x3d50a21d	0.050935853
69	0x3ce86143	0.02836669
70	0x3d8eeadb	0.06978389
71	0x3d9a494a	0.0753351
72	0x3d24457a	0.04010532
73	0xbd82e44a	-0.06391199
74	0x3cbe2766	0.023212146
75	0x3c20e7bd	0.009820876
76	0x3cd711a5	0.02625353
77	0x3d033d8e	0.032041125
78	0xbda88184	-0.08227828
79	0xbc9a7940	-0.018856645
80	0xbc3fab58	-0.011698566
81	0xb980533e	-0.00024476083
82	0x3d98f33b	0.074682675
83	0xbcbc3fb8	-0.022979602
84	0xbba74846	-0.005105051
85	0xbcc1481c	-0.023593955
86	0x3cfd505a	0.030922104
87	0x3da0ffd8	0.07861298
88	0x3b1f7fe9	0.0024337715
89	0xbce26d4a	-0.027640004
90	0xbcce8274	-0.02520869
91	0x3d90a43e	0.07062577
92	0x3db11a48	0.08647591
93	0x3c9a9f6a	0.018874843
94	0x3c42edae	0.011897488
95	0x3bdcfa73	0.006743723
96	0x3d42443a	0.047428347
97	0x3cc5bc8e	0.024137761
98	0x3bb30ae6	0.0054639457
99	0x3cb76368	0.022386268
100	0x3d544439	0.051822875
101	0x3ca2a967	0.019856168
102	0x3cd7ac2c	0.026327215
103	0x3c9a0b96	0.018804353
104	0x3c039816	0.008031866
105	0x3c7bf8a7	0.015379108
106	0x3d9c5e5f	0.07635187
107	0x3d51fcc4	0.051266447
108	0xbcf544ea	-0.029940087
109	0xbd482511	-0.048863474
110	0xbd0121fd	-0.031526554
111	0xbd5f164b	-0.05446462
112	0x3baba162	0.005237744
113	0xbd2b7062	-0.041855223
114	0x3b677257	0.0035315955
115	0xbcd19931	-0.025585743
116	0xbd81911a	-0.06326504
117	0x3cbda3d2	0.023149405
118	0x3d439888	0.047752887
119	0x3d3f9109	0.046769176
120	0x3d332de0	0.04374492
121	0xbce47cc1	-0.027891519
122	0x3d07e95d	0.033181537
123	0x3d2fda49	0.042932782
124	0xbd490ecc	-0.049086377
125	0xbca4ae7d	-0.020102734
126	0x3d0c4b2a	0.03425137
127	0xbd798b06	-0.0609236
128	0x3cc61034	0.024177648
129	0xbd7e246a	-0.062046446
130	0xbd198f50	-0.03749019
131	0xbda6b107	-0.08139234
132	0xbc3c9954	-0.011511166
133	0xbdbdd326	-0.09268789
134	0x3cdfa4f7	0.027300341
135	0x3daf5934	0.08561936
136	0x3dc3d5df	0.09562277
137	0x3c1cab7a	0.009562368
138	0x3d6d8931	0.057992164
139	0x3dc37a3a	0.09544797
140	0x3d75f5f9	0.06004903
141	0xbd0c355d	-0.03423058
142	0x3bfcd0a7	0.007715303
143	0x3db839f5	0.089954294
144	0xbcd6d068	-0.026222423
145	0xbd0f5819	-0.034996126
146	0x3d20efb4	0.0392911
147	0xbd138b47	-0.036021497
148	0x3d1e1e10	0.03860289
149	0x3d54e736	0.051978312
150	0xbc248b95	-0.010043045
151	0xbcd7f3ae	-0.026361313
152	0x3b344c49	0.002751129
153	0xbab22bff	-0.0013593434
154	0x3d251b79	0.040309403
155	0x3cc258cb	0.02372398
156	0xbc0e4673	-0.008683789
157	0x3da80b91	0.08205331
158	0x3da3f142	0.08005001
159	0xbcc98258	-0.024598286
160	0x3da10aa9	0.078633614
161	0x3c149c09	0.009070405
162	0x3d53ead9	0.05173764
163	0x39ac6f9a	0.00032889546
164	0x3d6267e3	0.055274855
165	0xbccaee95	-0.024771968
166	0x3d5e670e	0.0542975
167	0xbd0b4ccf	-0.034008797
168	0x3d8fa927	0.07014685
169	0x3d0b741e	0.034046285
170	0x3d2d5694	0.042318895
171	0x3d8150b1	0.06314219
172	0xbcf5388a	-0.029934186
173	0x3c201b69	0.00977216
174	0x3cd6bb76	0.026212435
175	0x3d231db2	0.03982324
176	0xbc60499b	-0.013689424
177	0xbc96a1c6	-0.018387686
178	0x3d5df6a8	0.054190308
179	0xbcbf68ab	-0.02336534
180	0xbcf7a00b	-0.030227682
181	0xbcbd657c	-0.02311968
182	0x3d5817b8	0.052756995
183	0x3cfea493	0.031084334
184	0x3c9cfc72	0.019163344
185	0xbb7dd42e	-0.0038731205
186	0x3d88dea7	0.066830926
187	0x3d2c229d	0.042025197
188	0xbcb29d87	-0.02180363
189	0xbe23c0ec	-0.15991563
190	0xbddad31f	-0.106847994
191	0xbda3e1be	-0.08002041
192	0xbdf4b249	-0.11948068
193	0xbda7700f	-0.0817567
194	0xbd322a09	-0.04349712
195	0xbe3936b9	-0.18087281
196	0xbe1965e6	-0.14980277
197	0xbda9a906	-0.08284192
198	0xbca3adb7	-0.019980295
199	0xbcf917eb	-0.030406913
200	0xbd024854	-0.03180726
201	0x3c091f1e	0.008369235
202	0x3d03aad9	0.032145355
203	0xbce84276	-0.028352004
204	0xbd7a9db8	-0.06118557
205	0xbda46093	-0.080262326
206	0x3cf0ff55	0.029418627
207	0x3d97eff0	0.07418811
208	0xbc282bb0	-0.010264322
209	0xbaa34e3d	-0.001245923
210	0xbce65b0d	-0.028119588
211	0x3d4bf318	0.04979238
212	0x3be086ce	0.0068520075
213	0x3c109a1b	0.008825804
214	0x3d19a4ce	0.037510686
215	0xbcaed2ac	-0.02134069
216	0xbd17833c	-0.03699039
217	0x3c0eb9bb	0.008711274
218	0x3d1601a3	0.036622655
219	0x3ccf6929	0.025318699
220	0xbc10d6fa	-0.008840317
221	0xbca857ec	-0.020549737
222	0x3d1f7e35	0.03893872
223	0x3d046f62	0.032332785
224	0x3d7e6b1e	0.062113874
225	0x3d522b7e	0.05131101
226	0x3c652742	0.013986411
227	0x3cfcb67d	0.030848736
228	0xbc4a9a63	-0.01236591
229	0xbc811aee	-0.015759911
230	0x3c5f1d35	0.013617803
231	0xbc24f02d	-0.010067028
232	0x3b1cc360	0.0023920164
233	0x3d666ceb	0.056256216
234	0x3d81aecc	0.06332168
235	0xbc8aa41e	-0.01692396
236	0xbc40a855	-0.0117588835
237	0x3ce06723	0.02739293
238	0x3c445da1	0.0119852135
239	0x3d12f89d	0.035881627
240	0xbbd2c36e	-0.0064319884
241	0x3d47fb42	0.048823602
242	0xbc007fcb	-0.007842968
243	0x3dd44b38	0.10365909
244	0x3e31a9d8	0.17349946
245	0x3dc9ac33	0.098472975
246	0x3e26c127	0.1628462
247	0x3dccef43	0.10006573
248	0x3dbe4355	0.09290186
249	0x3dbc54b8	0.09195846
250	0x3daf58b0	0.08561838
251	0x3d9cec15	0.076622166
252	0x3d272183	0.040803444
253	0x3ad19aeb	0.0015991604
254	0x3d411f88	0.04714921
255	0x3dfef7e5	0.12449626

cell.conv.bias f4 [64]
0	0x3c5a4de1	0.013324232
1	0x3d671134	0.05641289
2	0xbd1057c8	-0.035239965
3	0x3d00c1ad	0.031434704
4	0x3d46db9c	0.04854928
5	0x3dd2e4a0	0.10297513
6	0x3ac70993	0.0015185348
7	0x3bcc1533	0.006228113
8	0x3c865d5b	0.016401937
9	0x3c713c91	0.014723913
10	0x3d8ce306	0.06879239
11	0x3d20d76e	0.03926795
12	0xbc80e00d	-0.015731836
13	0xbd940c61	-0.072289236
14	0xbca16d25	-0.019705364
15	0xbd053ae8	-0.03252688
16	0x3da6e149	0.081484385
17	0x3df168e7	0.11787587
18	0x3d3e6e61	0.046491984
19	0x3c2ccd29	0.010546961
20	0x3ddfeaed	0.109334804
21	0x3ba2a72a	0.004963775
22	0x3d963351	0.073340066
23	0x3df76fb5	0.12081853
24	0x3d603c90	0.054745257
25	0xbcb1ec6e	-0.021719184
26	0x3d66f867	0.05638924
27	0x3d8357c0	0.06413221
28	0xbd59ee0c	-0.053205535
29	0xbcb07f13	-0.021544969
30	0x3d81905f	0.06326365
31	0xbcb5a73c	-0.02217447
32	0x3b91203d	0.004428892
33	0x3d25ec5b	0.04050861
34	0xbd0813a0	-0.03322184
35	0xbbfa4334	-0.007637406
36	0x3bf3d735	0.007441426
37	0x3cb400a5	0.021972964
38	0x3cd3cb8f	0.0258539
39	0x3d53dd7c	0.051724896
40	0x3d8d160e	0.06888972
41	0x3d0515a3	0.032491338
42	0xbcad3405	-0.021142969
43	0x3c91a695	0.017779628
44	0x3dc7b779	0.097517915
45	0xbc7c64d4	-0.015404899
46	0x3d1b1cf4	0.03786941
47	0x3dc179e3	0.09447076
48	0x3cf68695	0.03009347
49	0xbcc7c0ba	-0.024383891
50	0xbca40d9c	-0.02002602
51	0x3d9e2e4c	0.07723674
52	0x3be52918	0.006993424
53	0x3cc7f5f9	0.024409281
54	0xbc839cc5	-0.016065964
55	0x3d5cc994	0.053903177
56	0x3c8b7fb4	0.017028667
57	0x3d6bcd92	0.057569094
58	0xbd286641	-0.041113142
59	0x3d6586e6	0.056036852
60	0x3c7e7de8	0.015532948
61	0x3b51be15	0.0032004167
62	0x3c1697a5	0.009191428
63	0xbd3613db	-0.04445253

aux_proj.weight f4 [16, 8, 1, 1]
0	0xbe2d78f8	-0.16940677
1	0x3ddaf343	0.1069093
2	0xbe8fffe0	-0.28124905
3	0x3cb2b791	0.021816047
4	0x3f024aef	0.5089559
5	0xbda5d932	-0.08098067
6	0x3e673b52	0.22581223
7	0x3ed53b59	0.4164684
8	0x3e5fa068	0.21838534
9	0x3eb8b555	0.36075845
10	0xbdfccbe8	-0.123435795
11	0x3de0a2db	0.10968562
12	0xbed37a80	-0.41304398
13	0x3e009bcf	0.12559436
14	0x3dc1cad3	0.09462514
15	0xbe2520cf	-0.16125797
16	0xbd85e396	-0.06537549
17	0x3d853228	0.06503707
18	0x3df85dae	0.12127243
19	0x3e93ca5e	0.2886533
20	0x3e188ec6	0.14898214
21	0xbe974cff	-0.2955093
22	0xbe638a95	-0.22220834
23	0xbd1a6bba	-0.037700392
24	0x3d28c1e1	0.041200522
25	0xbeaf9542	-0.34293562
26	0x3d476205	0.048677463
27	0x3d291ec0	0.04128909
28	0xbe5bed3b	-0.21477215
29	0x3d8224c7	0.06354671
30	0x3e603631	0.21895672
31	0x3ebb1e14	0.36546385
32	0xbce3576f	-0.027751653
33	0xbd231552	-0.039815255
34	0xbed70030	-0.4199233
35	0xbd81d049	-0.06338555
36	0x3d68f834	0.05687733
37	0x3e0139e4	0.1261974
38	0xbe3015f8	-0.1719588
39	0x3d85e49b	0.06537744
40	0xbeb486ff	-0.35259244
41	0xbe64b1cc	-0.22333449
42	0xbed54208	-0.4165194
43	0xbe1425d9	-0.14467563
44	0xbd4b978b	-0.04970507
45	0xbe54b970	-0.20773864
46	0xbe823668	-0.25432134
47	0x3ea2f8ae	0.31830353
48	0xbeabd486	-0.3356058
49	0xbcddc135	-0.027069667
50	0x3e8f35e9	0.27970818
51	0x3eb1458a	0.34623367
52	0x3ed45343	0.41469774
53	0x3e826c9f	0.25473496
54	0xbe8754e8	-0.26431966
55	0x3ecad43e	0.39615053
56	0xbe0fa332	-0.14027098
57	0xbe12ec46	-0.14347944
58	0xbe87a943	-0.26496324
59	0xbde55c88	-0.111992896
60	0xbc2a099a	-0.010378266
61	0xbe8aa7e7	-0.27081224
62	0xbd8582e8	-0.06519109
63	0xbf02b620	-0.5105915
64	0xbdefbbd4	-0.11705747
65	0xbe852fc3	-0.26013002
66	0xbe551bbd	-0.20811363
67	0x3d74d71f	0.059775468
68	0x3d4af8e9	0.049553785
69	0x3e8abf9b	0.27099308
70	0xbeb51e04	-0.35374463
71	0xbdbf914a	-0.093538836
72	0x3e39aaba	0.18131533
73	0x3e13d8a6	0.14438114
74	0x3d940102	0.07226755
75	0xbeb4e803	-0.3533326
76	0xbed03238	-0.40663314
77	0xbe78785a	-0.2426466
78	0x3e825055	0.25451913
79	0xbeca8001	-0.39550784
80	0xbe13d63a	-0.1443719
81	0xbebdfdab	-0.37107596
82	0x3e8ec6dc	0.27886093
83	0xbc5c1610	-0.0134329945
84	0x3de14a2a	0.11000474
85	0x3e254d0e	0.16142675
86	0xbe71503a	-0.2356576
87	0x3f035b4a	0.5131117
88	0xbdd83798	-0.10557479
89	0xbdbdf378	-0.092749536
90	0x3ec87d9a	0.39158326
91	0x3d59394f	0.05303317
92	0xbee4d37c	-0.446926
93	0xbe8d0131	-0.2753997
94	0x3e0979b3	0.13425331
95	0xbed25e2f	-0.4108748
96	0xbee48144	-0.44629872
97	0xbd3fea1f	-0.046854135
98	0xbe82b503	-0.25528726
99	0xbd867017	-0.06564348
100	0x3ed26916	0.410958
101	0xbe9de9e8	-0.3084252
102	0xbec146a5	-0.3774921
103	0x3e96c0d6	0.29443997
104	0x3e937c64	0.2880584
105	0x3e1c1b06	0.15244684
106	0xbc0e316a	-0.008678773
107	0x3d8dd7e4	0.069259435
108	0x3e91e60a	0.28495818
109	0xbe11c48f	-0.14235137
110	0x3e9e745f	0.3094816
111	0xbde656fe	-0.11247061
112	0xbe9535db	-0.2914265
113	0xbd58e3bf	-0.05295157
114	0x3c9e335d	0.019311601
115	0x3ecb4b06	0.39705676
116	0xbc957f23	-0.0182491
117	0xbeb4a23e	-0.3528003
118	0xbe6d0fe2	-0.2315059
119	0x3e2a3983	0.16623501
120	0x3ed770d8	0.4207828
121	0xbd2a3bda	-0.041560985
122	0xbe1ccfd3	-0.15313654
123	0xbec682a3	-0.38771543
124	0x3c7c85a5	0.015412723
125	0xbe54d3a1	-0.20783855
126	0x3df4efe5	0.11959819
127	0xbe0dc5f7	-0.13845049

aux_proj.bias f4 [16]
0	0x3bf1cf04	0.0073794145
1	0xbd1b29be	-0.037881605
2	0xbea7dd78	-0.32786155
3	0xbea2170b	-0.31658205
4	0xba248628	-0.00062760944
5	0xbe2115e0	-0.15731001
6	0x3e3257db	0.17416327
7	0x3e469204	0.19391638
8	0x3c3be92d	0.011469168
9	0xbdd707b4	-0.10499516
10	0xbdef7cee	-0.1169375
11	0xbe964c0f	-0.29354903
12	0xbd4f96bd	-0.050680865
13	0x3e94e7a5	0.2908298
14	0xbea14c1a	-0.31503373
15	0xbe85c046	-0.26123255

head.weight f4 [1, 16, 1, 1]
0	0xbe4d219a	-0.20032349
1	0x3e9cf864	0.30658257
2	0xbe956b13	-0.29183254
3	0x3c563fb1	0.013076709
4	0xbe225ef6	-0.15856537
5	0xbe8af5cf	-0.27140662
6	0xbe852d5b	-0.26011166
7	0x3e403306	0.18769464
8	0xbecdd118	-0.40198588
9	0x3edb3101	0.42810825
10	0xbe8ea386	-0.27859133
11	0x3eca0fa8	0.3946507
12	0xbf0d1701	-0.55113226
13	0xbdbb973e	-0.091597065
14	0xbe86a7f9	-0.26300028
15	0x3de674c0	0.11252737
