experiments/sweeps_phase3/p3_tv0.001_time0.001_run06.pt (torch, 63477 bytes, 9 tensors)

encoder.0.weight f4 [8, 1, 3, 3]
0	0x3e377b73	0.17918186
1	0x3d6e0c23	0.058117043
2	0x3e2456df	0.16048764
3	0xbe4e4a82	-0.2014561
4	0x3e25ae0b	0.16179673
5	0x3eafae48	0.34312654
6	0x3e696357	0.22791801
7	0x3cbaa255	0.022782484
8	0x3d8999f1	0.06718815
9	0x3e4e5738	0.20150459
10	0x3eabd8cf	0.3356385
11	0xbdd7f39f	-0.10544514
12	0x3cc4324b	0.023949763
13	0x3e030e4d	0.12798424
14	0xbd2aec09	-0.041729007
15	0xbe4f6d3f	-0.20256518
16	0xbdaecbb5	-0.08534948
17	0x3caa83dc	0.020814829
18	0x3d48c3d7	0.049014892
19	0xbd943723	-0.07237079
20	0xbdafe220	-0.08588052
21	0xbc584184	-0.013199214
22	0x3d0551b0	0.032548606
23	0x3d5cfcf9	0.05395219
24	0xbbc90389	-0.0061344546
25	0x3e0c471d	0.13699003
26	0x3e77bcfd	0.24193187
27	0x3d9dfec5	0.07714609
28	0x3ea7138c	0.326321
29	0xbbd425e7	-0.006474245
30	0x3e92bddf	0.28660485
31	0x3ea94d18	0.3306663
32	0xbd062b25	-0.03275599
33	0x3e6f5476	0.23372063
34	0xbda0fea0	-0.07861066
35	0xbd4f54ba	-0.05061791
36	0x3e7beed6	0.24602827
37	0xbe75b47c	-0.2399463
38	0xbe0af534	-0.135701
39	0x3d38d9a1	0.045129422
40	0xbdfc6cd6	-0.12325446
41	0x3dd0b5bf	0.10190915
42	0x3d578ecf	0.052626427
43	0xbd6cb0ee	-0.05778592
44	0xbdf6dade	-0.12053464
45	0xbdb2b35f	-0.087256186
46	0xbe0ac159	-0.13550319
47	0x3db86133	0.09002914
48	0x3e6dbddc	0.23216957
49	0xbd73a980	-0.05948782
50	0xbe801c29	-0.25021484
51	0xbe21f723	-0.15816931
52	0x3bdaa2d7	0.006672244
53	0x3e921d7c	0.2853812
54	0xbd17c45e	-0.037052505
55	0xbdfa766b	-0.12229618
56	0xbe8787b1	-0.26470712
57	0x3d47c3a1	0.04877055
58	0xbd05a324	-0.032626286
59	0x3dba56ce	0.09098588
60	0xbda0613f	-0.07831048
61	0x3e00c097	0.12573467
62	0x3db6d827	0.089279465
63	0x3e2e3787	0.1701337
64	0x3eb8b022	0.3607188
65	0xbe22f2ae	-0.15912887
66	0xbde9fd7d	-0.11425302
67	0xbe8f9778	-0.2804525
68	0x3eadb8ef	0.33930156
69	0xbd84a3c0	-0.06476545
70	0xbe0342d3	-0.1281846
71	0xbc7cb7ea	-0.015424708

encoder.0.bias f4 [8]
0	0x3e737fa0	0.23779154
1	0x3ea7023d	0.32618895
2	0x3cfc5efd	0.030807013
3	0x3e0d00bc	0.13769811
4	0x3e27a0f9	0.1637
5	0x3e411db7	0.18858992
6	0x3e53c375	0.2068003
7	0x3e62ec86	0.22160539

encoder.2.weight f4 [8, 8, 3, 3]
0	0x3d4dc812	0.05023963
1	0xbc1ecba2	-0.0096921045
2	0x3e1a0d20	0.1504407
3	0x3dc4d937	0.09611743
4	0x3e083771	0.13302399
5	0x3df5893c	0.11989066
6	0x3dc488a8	0.095963776
7	0x3c82c1fe	0.015961643
8	0xbd3615d7	-0.04445442
9	0x3dc2fac2	0.095204845
10	0x3cefb41d	0.02926069
11	0xbd723397	-0.05913123
12	0x3d2cfd7c	0.04223393
13	0xbd603074	-0.05473371
14	0x3e219451	0.15779234
15	0x3c4f0630	0.012635753
16	0x3e2e92d5	0.170482
17	0x3d94ddd0	0.0726887
18	0x3e860aeb	0.26180205
19	0x3e0e9ce0	0.1392703
20	0x3da17fae	0.07885681
21	0x3e25ca0c	0.16190356
22	0xbc74982e	-0.014928861
23	0xbc54b6f4	-0.012983073
24	0xbe2943b2	-0.1652973
25	0xbe151452	-0.14558533
26	0xbd8125f3	-0.06306066
27	0x3e1c56da	0.15267506
28	0x3df33b22	0.11876513
29	0x3dd7f190	0.10544121
30	0xbd303d6a	-0.04302732
31	0xbbb77e9b	-0.0055998093
32	0x3d5f2cf8	0.054486245
33	0x3dab66a0	0.083691835
34	0x3d90ef87	0.07076936
35	0x3ddbd45d	0.107338645
36	0xbdbd3d65	-0.09240226
37	0xbce1845a	-0.02752893
38	0xbda267ee	-0.07929979
39	0xbe4bc04d	-0.19897576
40	0x3cc18e52	0.023627434
41	0xbdfd3926	-0.12364416
42	0xbe54d4be	-0.2078428
43	0xbd8bdfc8	-0.06829792
44	0x3d81bf33	0.063352965
45	0xbd96677d	-0.073439576
46	0xbe4695fa	-0.19393149
47	0xbe5df89a	-0.21676865
48	0xbe73951b	-0.23787348
49	0xbe2efa9b	-0.17087786
50	0xbdfcd2cf	-0.12344896
51	0xbdafb40a	-0.085792616
52	0xbca7a1c1	-0.020462872
53	0xbd504060	-0.050842643
54	0xbdce139d	-0.10062335
55	0xbd037103	-0.0320902
56	0xbde2933a	-0.110632375
57	0xbe1bbb27	-0.15208112
58	0xbccbd817	-0.024883313
59	0xbc5bc60e	-0.013413919
60	0xbda9cb76	-0.0829076
61	0xbd3766fc	-0.044775948
62	0xbd1ba1d1	-0.037996117
63	0xbd9a9738	-0.07548374
64	0xbe19749a	-0.14985886
65	0xbd92bcd7	-0.071649246
66	0xbd416174	-0.04721208
67	0xbe28e7f0	-0.16494727
68	0xbe69d29c	-0.22834247
69	0xbd861212	-0.065464154
70	0xbdb774dc	-0.08957836
71	0xbe055104	-0.13019186
72	0x3dfaac6c	0.12239918
73	0xbccd6763	-0.025073713
74	0x3da15733	0.0787796
75	0x3e2876c7	0.1645156
76	0x3e18f0e6	0.14935645
77	0xbca53073	-0.020164704
78	0xbd84775e	-0.0646808
79	0xbd75a47b	-0.059971314
80	0x3d04d694	0.0324312
81	0x3d2da473	0.04239316
82	0x3d7baec0	0.06144595
83	0x3c851cb7	0.016249044
84	0x3cb3f19b	0.021965792
85	0x3de47365	0.11154822
86	0x3e24d4df	0.16096829
87	0x3e17fd66	0.14842758
88	0x3dda4a63	0.106587194
89	0x3e168106	0.14697656
90	0x3e74aa81	0.23893167
91	0x3d547293	0.05186708
92	0x3e311fad	0.1729724
93	0x3d2654d4	0.040608242
94	0x3d95b1f5	0.07309333
95	0xbc912ed2	-0.017722521
96	0x3d425756	0.04744657
97	0xbcd8b58e	-0.02645376
98	0xbda529f8	-0.080646455
99	0x3e0a9f40	0.13537312
100	0x3e1fe73f	0.15615557
101	0xbc403f40	-0.01173383
102	0x3dfce349	0.12348039
103	0xbd4ed958	-0.050500244
104	0x3a651332	0.0008738517
105	0x3d0823c9	0.033237252
106	0x3cbdf237	0.023186786
107	0x3de68778	0.11256307
108	0x3d3fa1fd	0.046785343
109	0xbdd91a42	-0.106007114
110	0xbdc78c5a	-0.09743567
111	0xbdd6a8e3	-0.10481431
112	0xbe0f3343	-0.13984399
113	0x3d6580a0	0.05603087
114	0xbdb2299c	-0.086993426
115	0xbcfdf98c	-0.031002782
116	0xbd512a39	-0.051065657
117	0xb8cf539e	-9.886104e-05
118	0x3cc75d62	0.02433652
119	0xbddd3e27	-0.1080287
120	0xbdc01bf7	-0.09380334
121	0xbd76b94d	-0.06023531
122	0xbe07295f	-0.13199376
123	0x3cddadc8	0.027060404
124	0xbe2a0d59	-0.16606654
125	0xbe69431a	-0.22779503
126	0x3baeacf0	0.0053306744
127	0x3dce33e6	0.100684926
128	0xbdb8f488	-0.09031016
129	0xbd6cf92c	-0.057854816
130	0xbdf7511f	-0.120760195
131	0xbe13a47c	-0.14418215
132	0xbdc7a79d	-0.097487666
133	0xbdfaf720	-0.122541666
134	0xbc8d4711	-0.017245801
135	0xbe0a74b4	-0.13521081
136	0xbd40ecac	-0.047100708
137	0xbe2a64d3	-0.16640024
138	0xbbdc58f2	-0.0067244703
139	0xbdd2c3e9	-0.10291273
140	0xbcd1479e	-0.025546845
141	0xbd934629	-0.07191116
142	0xbc58bbae	-0.01322834
143	0x3c4b08b1	0.012392209
144	0x3d801c8a	0.062554434
145	0x3d9bc1eb	0.07605346
146	0xbda3a439	-0.07990307
147	0x3decf926	0.11570959
148	0x3e178942	0.14798453
149	0x3d59b56e	0.05315154
150	0x3d9f3664	0.07774046
151	0x3da38e31	0.07986105
152	0x3e1159c6	0.14194402
153	0x3df9ad49	0.12191255
154	0x3decaafa	0.11556049
155	0x3c6aca6c	0.014330488
156	0xbc39525b	-0.011311139
157	0xbd20ecdc	-0.039288387
158	0x3dac8653	0.08424058
159	0xbd32ddfe	-0.04366874
160	0x3deabdc2	0.11461975
161	0x3d673823	0.05645002
162	0x3de47824	0.111557275
163	0x3db0c69f	0.08631634
164	0xbd1cde23	-0.038297784
165	0xbdde02b3	-0.108403586
166	0xbde5de3a	-0.11224027
167	0xbd9252b7	-0.07144683
168	0x3c45d744	0.012075249
169	0xbe3fdfac	-0.18737668
170	0x3d277c29	0.040889893
171	0xbd07fe68	-0.033201605
172	0x3de00e16	0.10940187
173	0x3d77881d	0.060432542
174	0x3d9987fa	0.074966386
175	0x3d8b1dd0	0.06792796
176	0x3db04e8d	0.08608732
177	0xbd4b396f	-0.04961532
178	0x3d96fa55	0.07371966
179	0x3e1cc57c	0.1530971
180	0xbd6a2c14	-0.057170942
181	0xbd95153e	-0.07279442
182	0xbdeeb462	-0.11655499
183	0xbd43a3dc	-0.04776369
184	0xbe0889ca	-0.13333812
185	0xbd79e98f	-0.061013754
186	0xbe0653f6	-0.13117966
187	0x3cb6b0f6	0.022301178
188	0x3abb4afa	0.0014289313
189	0xbe0087a6	-0.12551746
190	0xbc7a3b59	-0.015272939
191	0xbcad3140	-0.021141648
192	0xbe0b35fb	-0.1359481
193	0xbddb37ea	-0.10704024
194	0xbdd16569	-0.102244206
195	0xbe0b1702	-0.13582996
196	0xbdad38cc	-0.08458099
197	0xbcdaf80f	-0.026729612
198	0x3da67791	0.08128274
199	0x3cb7d259	0.022439169
200	0xbd56ed22	-0.05247224
201	0xbd09315b	-0.033494335
202	0xbd731e34	-0.059354976
203	0xbdc383e3	-0.0954664
204	0xbd683d93	-0.056699347
205	0xbe314896	-0.17312846
206	0xbbdd1b5f	-0.0067476477
207	0xbdba5853	-0.09098878
208	0xbdd984db	-0.10621043
209	0xbe3e0ebc	-0.18560308
210	0xbe1d72c0	-0.15375805
211	0xbcbb3ec5	-0.02285708
212	0x3cafc541	0.021456363
213	0xbc5b0e8f	-0.01337017
214	0xbd907999	-0.07054443
215	0xbda0c38e	-0.07849799
216	0x3b97b027	0.0046291533
217	0xbcd77a4b	-0.026303431
218	0xbce2a99c	-0.027668767
219	0xbdc278c1	-0.09495688
220	0x3c948ea2	0.018134419
221	0x3daad9d1	0.083423264
222	0x3d83dc78	0.064385355
223	0xbcc6d6ff	-0.02427244
224	0x3de798cb	0.1130844
225	0xbd463ce1	-0.048397902
226	0x3d554c19	0.052074526
227	0x3de16c70	0.11007011
228	0x3dd4157e	0.10355662
229	0xbd97a1fe	-0.074039444
230	0x3d2c1225	0.04200949
231	0xbdc60d6d	-0.096705295
232	0xbd994843	-0.07484486
233	0xbda5f93a	-0.08104177
234	0xbe7e2378	-0.24818218
235	0xbc48735c	-0.012234535
236	0x3e0f89b6	0.14017376
237	0x3e2145ad	0.15749235
238	0x3cb9adef	0.022665946
239	0x3d3709b4	0.044686988
240	0x3e02d6dc	0.12777275
241	0x3d8dc010	0.06921399
242	0x3df98705	0.12183956
243	0xbd9fe811	-0.07807935
244	0xbdf38278	-0.11890119
245	0x3d471c07	0.048610713
246	0xbd7de071	-0.061981622
247	0x3d81a23a	0.063297704
248	0x3d6b4fbb	0.057449084
249	0xbdb81f99	-0.08990402
250	0x3dc12ba2	0.094321504
251	0x3c166314	0.0091788955
252	0x3dff3e56	0.124630615
253	0x3e1b5774	0.1517008
254	0xbb04fe84	-0.0020293305
255	0x3e0da91c	0.13834041

encoder.2.bias f4 [8]
0	0x3d74609f	0.059662458
1	0x3d228d7d	0.039685715
2	0xbd10265e	-0.03519284
3	0xbce26cd6	-0.027639788
4	0xbd3c6166	-0.045991324
5	0xbdc8f13f	-0.09811639
6	0xbc704606	-0.014665132
7	0x3c7c4a71	0.015398608

cell.conv.weight f4 [64, 24, 3, 3]
0	0x3d0a715f	0.033799525
1	0x3da30f66	0.079619214
2	0x3c8e8b92	0.017400537
3	0xb98de0a9	-0.00027061
4	0x3ce847be	0.028354522
5	0xbc59e35e	-0.0132988375
6	0xbc0d0ffa	-0.008609766
7	0x3be0d02b	0.006860753
8	0xbc31822a	-0.010834256
9	0x3cd74451	0.026277693
10	0xbbeec1ce	-0.007286287
11	0x3daba672	0.08381356
12	0x3c8b014b	0.01696839
13	0x3cf1dedf	0.029525219
14	0x3db16cba	0.08663316
15	0x3cabcd5d	0.020971948
16	0x3db465b8	0.08808464
17	0x3b213c0a	0.0024602436
18	0x3c6a5ee0	0.0143048465
19	0x3cecdd34	0.028914072
20	0xbca45d22	-0.02006394
21	0x3ce73432	0.02822313
22	0xbcbda7b3	-0.023151254
23	0x3dc230e9	0.09481985
24	0xbd10ca96	-0.03534945
25	0xbcf125ec	-0.029437028
26	0x3d95ac87	0.073082976
27	0x3dd9ca54	0.10634294
28	0x3d0f5251	0.034990612
29	0xbccf1d5c	-0.025282554
30	0x3df742a9	0.12073261
31	0x3b348e18	0.0027550515
32	0x3d87a4dd	0.06623242
33	0xbc585f86	-0.013206368
34	0x3d04bf16	0.032408796
35	0x3da7ba4a	0.08189829
36	0x3cfbf09d	0.030754382
37	0xbd7c788d	-0.061638404
38	0xbc389b8f	-0.011267557
39	0xbca2157c	-0.019785635
40	0xbcc6adb5	-0.024252752
41	0xbcf9e4c8	-0.0305046
42	0xbd696a2f	-0.05698603
43	0x3cedf8c4	0.029049285
44	0x3bbeece8	0.0058265813
45	0xbabd1ae7	-0.0014427573
46	0x3d4bd752	0.049765892
47	0x3c1b55bc	0.00948089
48	0x3cc4ba35	0.024014572
49	0x3cf0f51c	0.029413752
50	0xbd27c9a2	-0.040963776
51	0x3d68a2df	0.05679595
52	0x3c94ea43	0.018178111
53	0x3d03964f	0.032125767
54	0x3d37900b	0.044815104
55	0x3d6f741e	0.058460347
56	0xbd279778	-0.040915936
57	0x3daa7296	0.08322637
58	0xbc3c69ec	-0.011499863
59	0x3d8d18c5	0.0688949
60	0xbc16f9ce	-0.0092148315
61	0x3da254e2	0.07926346
62	0x3d8e9c14	0.06963363
63	0x3d70dee7	0.058806326
64	0x3d42121a	0.047380544
65	0x3b6461b9	0.0034848286
66	0xbd2bd0d0	-0.041947186
67	0x3db2a89e	0.087235674
68	0x3d4cfc4c	0.050045297
69	0x3cdfca0d	0.027318025
70	0x3d8cf2e2	0.06882264
71	0x3d98e8b7	0.07466262
72	0x3d22170d	0.039572764
73	0xbd829c64	-0.063774854
74	0x3cc5719d	0.024102027
75	0x3c16c7d9	0.009202921
76	0x3cda402c	0.026641928
77	0x3d05d289	0.032671485
78	0xbda94ee9	-0.08267004
79	0xbc95fd55	-0.018309275
80	0xbc2fcd4c	-0.010730099
81	0x3a19439e	0.00058465626
82	0x3d962e49	0.07333047
83	0xbcd255ed	-0.025675738
84	0xbb3a8f5c	-0.0028466797
85	0xbcb7cd6b	-0.022436818
86	0x3cefefbf	0.029289125
87	0x3da3fc26	0.08007078
88	0x3b08bb0a	0.0020863437
89	0xbcf4804e	-0.029846337
90	0xbcd518fd	-0.026012892
91	0x3d8eeb03	0.06978419
92	0x3daf877d	0.08570764
93	0x3c928fe4	0.017890878
94	0x3c32d0a4	0.010914002
95	0x3bbf76d4	0.005843023
96	0x3d3e6003	0.046478283
97	0x3cbeae05	0.023276338
98	0x3b9b1437	0.0047326344
99	0x3cbc1271	0.022958012
100	0x3d54874a	0.051886834
101	0x3ca0880f	0.019596128
102	0x3cdbd3a0	0.02683431
103	0x3c97e769	0.018542962
104	0x3bfd43b5	0.0077290186
105	0x3c80745b	0.015680483
106	0x3d9b6993	0.07588496
107	0x3d506be3	0.05088414
108	0xbcfc26bc	-0.030780189
109	0xbd47d0b7	-0.04878303
110	0xbcf71ab0	-0.030164093
111	0xbd634948	-0.05548981
112	0x3b75f8e9	0.0037532395
113	0xbd283cd5	-0.04107364
114	0x3b364988	0.0027814824
115	0xbcd91b21	-0.026502194
116	0xbd7ef8c6	-0.062248968
117	0x3cb72267	0.022355272
118	0x3d416dcf	0.047223862
119	0x3d3e4d7e	0.04646062
120	0x3d2f87ea	0.042854227
121	0xbce8bffb	-0.028411856
122	0x3d066e26	0.03281989
123	0x3d2d3229	0.042284165
124	0xbd49e74a	-0.04929284
125	0xbca50d5d	-0.020147974
126	0x3d053da9	0.032529507
127	0xbd76f173	-0.060288858
128	0x3cd955fb	0.026530256
129	0xbd82feb1	-0.06396235
130	0xbd26831f	-0.04065239
131	0xbda4016d	-0.080080844
132	0xbc509da7	-0.0127329
133	0xbdbb0882	-0.09132482
134	0x3cf3d89f	0.029766379
135	0x3dafd11f	0.085848086
136	0x3dc2c999	0.09511108
137	0x3bf08c0e	0.0073409146
138	0x3d6f145d	0.05836903
139	0x3dc94fff	0.09829711
140	0x3d7232b4	0.059130386
141	0xbd097fd8	-0.033569187
142	0x3c123c30	0.008925483
143	0x3db50f87	0.08840852
144	0xbcd1c37b	-0.025605908
145	0xbd0b99e7	-0.03408232
146	0x3d246d54	0.040143326
147	0xbd113312	-0.035449095
148	0x3d21a9da	0.039468624
149	0x3d583dc6	0.052793287
150	0xbc1620fa	-0.009163136
151	0xbcce5d03	-0.025190836
152	0x3b756d56	0.0037449203
153	0xbadb7b2d	-0.0016745083
154	0x3d236a6f	0.039896425
155	0x3cbdbf94	0.02316264
156	0xbc10cc35	-0.008837749
157	0x3da7a0c5	0.08184961
158	0x3da32a6f	0.07967078
159	0xbccdd8c5	-0.025127778
160	0x3d9f6142	0.07782222
161	0x3c05d18f	0.008167638
162	0x3d4e6483	0.050388824
163	0xba839984	-0.0010040258
164	0x3d5d0f17	0.05396947
165	0xbcd775d6	-0.026301306
166	0x3d58256b	0.05277006
167	0xbd111da0	-0.035428643
168	0x3d8c6a9d	0.06856272
169	0x3d0505e6	0.03247633
170	0x3d2755bd	0.04085325
171	0x3d8258c8	0.0636459
172	0xbcf21c58	-0.029554531
173	0x3c2240b0	0.009903118
174	0x3cdca854	0.026935734
175	0x3d25c2fa	0.040469147
176	0xbc5dc926	-0.013536727
177	0xbc94461e	-0.01809984
178	0x3d5dd924	0.05416216
179	0xbcc1bb3b	-0.023648849
180	0xbcfacf29	-0.03061636
181	0xbcbff9e5	-0.023434589
182	0x3d57cbf9	0.052684758
183	0x3cfa29c8	0.030537501
184	0x3c98090f	0.018559007
185	0xbb841455	-0.004030744
186	0x3d883bf7	0.066520624
187	0x3d2b9356	0.041888557
188	0xbcb0c7fc	-0.021579735
189	0xbe26210c	-0.16223544
190	0xbddfd595	-0.109294094
191	0xbdaaf6f2	-0.08347882
192	0xbdf924d5	-0.12165228
193	0xbda9728a	-0.082738
194	0xbd3eb00f	-0.04655462
195	0xbe3b96c0	-0.18319225
196	0xbe1b9e8c	-0.151972
197	0xbdb07b85	-0.086173095
198	0xbc9b561f	-0.018961964
199	0xbcec7960	-0.02886647
200	0xbcf6896f	-0.03009483
201	0x3c1c58b3	0.009542632
202	0x3d0e55ff	0.03474998
203	0xbcd8094f	-0.026371626
204	0xbd74dbde	-0.059779994
205	0xbd9efa9d	-0.077626444
206	0x3d0178d2	0.031609364
207	0x3d9c0fb9	0.07620186
208	0xbc1515b7	-0.0090994155
209	0xb9fc4172	-0.00048113946
210	0xbcd49bbb	-0.025953164
211	0x3d5491c5	0.05189683
212	0x3c03f97f	0.00805509
213	0x3c2e8c75	0.010653605
214	0x3d1f8e46	0.038954042
215	0xbca6ba36	-0.020352464
216	0xbcdc0e29	-0.02686222
217	0x3c9998a2	0.018749539
218	0x3d3ea222	0.04654134
219	0x3d117803	0.035514843
220	0x3aa3782d	0.0012471728
221	0xbc2e3411	-0.010632531
222	0x3d48ce54	0.049024895
223	0x3d2cf16b	0.04222242
224	0x3d93f183	0.07223799
225	0x3d7d9117	0.061905947
226	0x3cc76736	0.024341207
227	0x3d291e4d	0.041288663
228	0xbadf5a66	-0.0017040491
229	0xbbac4206	-0.005256894
230	0x3cc475c5	0.023981938
231	0x3a082628	0.0005193674
232	0x3c52ad78	0.012858741
233	0x3d88aa1c	0.06673071
234	0x3d980d6d	0.07424436
235	0xbbcc1501	-0.00622809
236	0xba876205	-0.0010328895
237	0x3d1d46e6	0.038397692
238	0x3cba0581	0.022707703
239	0x3d3eb4d7	0.04655918
240	0x3b94f09e	0.0045452854
241	0x3d742370	0.05960411
242	0x3b37cf36	0.0028047091
243	0x3de79685	0.11308006
244	0x3e3bc2bb	0.18336003
245	0x3ddcee23	0.107876085
246	0x3e3071be	0.17230889
247	0x3ddf10a9	0.108918495
248	0x3dd1a132	0.10235824
249	0x3dd002c0	0.101567745
250	0x3dc2a927	0.095049195
251	0x3dafd92a	0.08586343
252	0x3d4508bd	0.048104037
253	0x3c0b4ab1	0.008501695
254	0x3d5e4b50	0.054271042
255	0x3e067f25	0.1313444

cell.conv.bias f4 [64]
0	0x3c5a709f	0.013332515
1	0x3d850fdf	0.06497168
2	0xbd2b5fcd	-0.04183941
3	0x3d05d38d	0.032672454
4	0x3d47e586	0.048802875
5	0x3dc8ae2c	0.09798846
6	0x3ad8bf1d	0.0016536448
7	0x3c2caa53	0.010538655
8	0x3bf0e955	0.007352034
9	0x3c32634b	0.010887931
10	0x3d83e4e6	0.06440143
11	0x3cf63db2	0.030058715
12	0xbcee67f6	-0.029102307
13	0xbd9601d2	-0.07324566
14	0xbcb520d2	-0.022110377
15	0xbcffed9f	-0.031241236
16	0x3da1a594	0.0789291
17	0x3de97a13	0.11400237
18	0x3d493fe6	0.049133204
19	0x3c242aab	0.010019938
20	0x3dd4b8c5	0.103868045
21	0x3c767ade	0.015043942
22	0x3d8ff5ca	0.070293024
23	0x3def73b0	0.116919875
24	0x3d5a4921	0.053292397
25	0xbce82943	-0.028339988
26	0x3d5f8574	0.05457063
27	0x3d87e2a9	0.06635029
28	0xbd13d1fa	-0.03608892
29	0xbcc53234	-0.02407179
30	0x3d7d65da	0.06186471
31	0xbca625d9	-0.020281719
32	0x3ba86c59	0.005139869
33	0x3d2fbd43	0.042905103
34	0xbd36a65c	-0.044592246
35	0xbbe700d1	-0.007049658
36	0x3c33f03f	0.010982572
37	0x3c79ac34	0.01523881
38	0x3cfb0da3	0.030646151
39	0x3d8286de	0.0637338
40	0x3d694dae	0.056958847
41	0x3cf48736	0.02984963
42	0xbd04afa8	-0.03239408
43	0x3c5663ce	0.013085319
44	0x3db062fb	0.08612629
45	0xbc871cc0	-0.016493201
46	0x3d1c0646	0.03809192
47	0x3dc55d94	0.09636989
48	0x3d00abe5	0.03141393
49	0xbcc6046e	-0.024172034
50	0xbcca29a0	-0.024678051
51	0x3d9c4d02	0.076318756
52	0x3bdaf22c	0.006681701
53	0x3cf25a2e	0.029584017
54	0xbc853f87	-0.016265644
55	0x3d5e1c04	0.054225937
56	0x3cad36da	0.02114432
57	0x3d5fc807	0.05463412
58	0xbd2e2ab1	-0.042521182
59	0x3d4d13a4	0.05006756
60	0x3cadf21a	0.021233607
61	0x3b5f64f6	0.0034087277
62	0xbb2d9717	-0.0026487762
63	0xbd3e2f78	-0.04643199

aux_proj.weight f4 [16, 8, 1, 1]
0	0xbe26bf0e	-0.16283819
1	0x3de5ff06	0.112302825
2	0xbe8eefa9	-0.2791722
3	0x3c90fbd8	0.017698213
4	0x3f024cc4	0.50898385
5	0xbda5d932	-0.08098067
6	0x3e824812	0.2544561
7	0x3ed75f94	0.42065108
8	0x3e59fd9b	0.21288149
9	0x3eb65a95	0.35615984
10	0xbe00132c	-0.12507313
11	0x3de92182	0.11383344
12	0xbed37114	-0.4129721
13	0x3e009bcf	0.12559436
14	0x3d87c741	0.066298015
15	0xbe292505	-0.16518028
16	0xbd73f288	-0.059557468
17	0x3d8c271a	0.068433955
18	0x3df807ff	0.121109
19	0x3e902473	0.2815281
20	0x3e17e891	0.14834811
21	0xbe974cff	-0.2955093
22	0xbe432ffe	-0.19061276
23	0xbd040a25	-0.032236237
24	0x3d2ac6fa	0.041693665
25	0xbeaf1710	-0.34197283
26	0x3d4985c6	0.049199842
27	0x3d60d536	0.054890834
28	0xbe5b348b	-0.21406762
29	0x3d8224c7	0.06354671
30	0x3e4ef230	0.20209575
31	0x3eba5918	0.36396098
32	0xbcab67ad	-0.02092346
33	0xbd0bfc0f	-0.03417593
34	0xbed5d6c5	-0.4176542
35	0xbd8a32be	-0.067479596
36	0x3d68ae33	0.056806754
37	0x3e0139e4	0.1261974
38	0xbe1304d9	-0.14357318
39	0x3d8e03ff	0.06934356
40	0xbeb20a2a	-0.3477338
41	0xbe610848	-0.21975815
42	0xbed4c6e1	-0.41557983
43	0xbe198043	-0.14990334
44	0xbd4cc0b2	-0.049988456
45	0xbe54b970	-0.20773864
46	0xbe670e92	-0.22564152
47	0x3ea529a8	0.32258344
48	0xbea90e3c	-0.33018672
49	0xbcb85451	-0.022501143
50	0x3e900eb9	0.28136232
51	0x3eaf3d12	0.3422628
52	0x3ed454a5	0.4147083
53	0x3e826c9f	0.25473496
54	0xbe71e999	-0.23624267
55	0x3eccd431	0.4000564
56	0xbe152e48	-0.14568436
57	0xbe177c3c	-0.14793485
58	0xbe887be5	-0.26657024
59	0xbddcece2	-0.10787369
60	0xbc29d243	-0.010365072
61	0xbe8aa7e7	-0.27081224
62	0xbdbda881	-0.09260655
63	0xbf03b746	-0.5145153
64	0xbdde3e9f	-0.10851788
65	0xbe827b70	-0.254848
66	0xbe54a3d9	-0.20765628
67	0x3d5661f5	0.052339513
68	0x3d488ff9	0.048965428
69	0x3e8abf9b	0.27099308
70	0xbea359b7	-0.31904384
71	0xbdb338f2	-0.08751096
72	0x3e34a35b	0.1764044
73	0x3e109a2f	0.14121316
74	0x3d9365b7	0.07197135
75	0xbeb1ac3d	-0.3470172
76	0xbecff4b8	-0.40616393
77	0xbe78785a	-0.2426466
78	0x3e63d748	0.22250092
79	0xbecd0e1a	-0.4004982
80	0xbe0d80d1	-0.13818671
81	0xbebbd515	-0.36686006
82	0x3e8f1857	0.27948257
83	0xbca196a2	-0.019725148
84	0x3de052cf	0.109532945
85	0x3e254d0e	0.16142675
86	0xbe50b472	-0.20381334
87	0x3f04ae8b	0.5182883
88	0xbde3675c	-0.111036986
89	0xbdc4e4e7	-0.09613972
90	0x3ec8773d	0.39153472
91	0x3d74d484	0.059772983
92	0xbee48d8a	-0.44639236
93	0xbe8d0131	-0.2753997
94	0x3dcf2608	0.10114676
95	0xbed51b58	-0.41622424
96	0xbee1a72b	-0.44072852
97	0xbd30135e	-0.04298722
98	0xbe826041	-0.2546406
99	0xbd92c13e	-0.07165764
100	0x3ed23370	0.4105487
101	0xbe9de9e8	-0.3084252
102	0xbeb086c4	-0.34477818
103	0x3e994f75	0.29943433
104	0x3e9430c4	0.28943455
105	0x3e1c7b4d	0.1528141
106	0xbc127af4	-0.008940447
107	0x3d7e2ef3	0.062056493
108	0x3e9181ee	0.2841944
109	0xbe11c48f	-0.14235137
110	0x3eaeccd5	0.3414065
111	0xbddeaf4e	-0.108732805
112	0xbe927ed4	-0.28612387
113	0xbd47acf5	-0.04874893
114	0x3ca97421	0.020685257
115	0x3ec8ed49	0.39243534
116	0xbc96b079	-0.018394696
117	0xbeb4a23e	-0.3528003
118	0xbe4fe97d	-0.20303912
119	0x3e2e6d3e	0.1703386
120	0x3ed23f89	0.41064098
121	0xbd493c3b	-0.049129706
122	0xbe20d6e7	-0.15706979
123	0xbec41532	-0.3829742
124	0x3c7dec9f	0.015498309
125	0xbe54d3a1	-0.20783855
126	0x3db9390f	0.09044086
127	0xbe1299c6	-0.14316472

aux_proj.bias f4 [16]
0	0x3c2b739d	0.010464576
1	0xbd24e575	-0.04025789
2	0xbea63f6c	-0.32470262
3	0xbea20e6a	-0.31651622
4	0x3b2bc63b	0.0026210684
5	0xbe1eb9cf	-0.15500568
6	0x3e34bbd6	0.17649779
7	0x3e441272	0.19147661
8	0x3c877e6b	0.016539773
9	0xbddc096c	-0.107439846
10	0xbde96d6b	-0.11397823
11	0xbe97bb5a	-0.29635125
12	0xbd44984a	-0.047996797
13	0x3e9544dc	0.29154098
14	0xbea00f2b	-0.31261572
15	0xbe88ed52	-0.2674356

head.weight f4 [1, 16, 1, 1]
0	0xbe54b508	-0.20772183
1	0x3ea5b964	0.32368004
2	0xbe4260e6	-0.18982276
3	0x3ac315c5	0.0014883807
4	0xbe2f78d1	-0.17135932
5	0xbe703aee	-0.2345998
6	0xbe8ee536	-0.2790925
7	0x3e45a191	0.19299914
8	0xbe7c7119	-0.24652518
9	0x3e9eaa04	0.30989087
10	0xbe54c926	-0.20779857
11	0x3e88beb5	0.26707998
12	0xbed8b5af	-0.42326114
13	0xbd70bd33	-0.058774184
14	0xbe7dbc1e	-0.24778792
15	0x3ddea785	0.108717956
