experiments/sweeps_phase3/p3_tv0_time0.0005_run02.pt (torch, 63429 bytes, 9 tensors)

encoder.0.weight f4 [8, 1, 3, 3]
00000000: 4439 663e 5bff 23be 2528 f13c 37a7 37be
00000010: c748 60be e550 c6bd c23b 93bc 74de f63d
00000020: a0ad dc3c cb03 1e3e 6790 d4bc 8d8b 423e
00000030: bf3f 63bd d284 25be ff5c 4ebe e664 2b3e
00000040: 72f3 70be 6029 27bd afd4 af3e 04a3 a63e
00000050: 5316 283e 4bdf 9a3e fe23 febd 14d4 e1bd
00000060: 1cf7 88be 31be 983e 7eaf 19be 336c 8d3d
00000070: 30be 643e 5521 b33e 304f 85be fe46 c6bd
00000080: bae3 c13e b5a9 49be f3b9 d1bc d73b 59be
00000090: b6f8 bcbc 2396 b73e 02f7 59be 7b2b caba
000000a0: 0f8c 0b3e 4ea7 1dbe b7d0 42be d1af 1f3c
000000b0: d6e1 ba3e 0d89 55be 71a0 ae3e 998b bc3e
000000c0: b1e5 033d 9a0a 81be 4a52 a53e 6660 693e
000000d0: 2924 073e 176b 4c3e 6d2c c0bd ec0c d93b
000000e0: 19a6 323d f1ac b23e 705a a13e 9cb1 a4bc
000000f0: 0599 ea3d 3219 b13e a8df a2bd 3798 af3e
00000100: 8838 ccbd f165 45be 68f9 15be 585d 8c3e
00000110: 7a91 41be f278 953e 7c22 51be 5a5c 54be
0.22482783 -0.16015379 0.029438088 -0.17934881 -0.21902762 -0.09683398 -0.01797283 0.12054148
0.02693826 0.15431134 -0.025947763 0.18998547 -0.055480715 -0.16163948 -0.20152663 0.16737708
-0.23530367 -0.040810943 0.34341952 0.32546246 0.16414766 0.30248484 -0.12409209 -0.11026779
-0.2675103 0.29832605 -0.15008351 0.06905403 0.22338176 0.34986368 -0.26036978 -0.096815094
0.37869054 -0.19693644 -0.025601363 -0.21214233 -0.023067813 0.35856733 -0.21285632 -0.0015424335
0.13627647 -0.15395853 -0.19024931 0.009746508 0.36500424 -0.20853062 0.34106782 0.36825255
0.032201473 -0.252034 0.32289344 0.2279068 0.13197388 0.19962727 -0.093834735 0.006623855
0.043615434 0.3489757 0.3151431 -0.020104222 0.114549674 0.34589535 -0.07952815 0.34295818
-0.0997172 -0.19277169 -0.14645922 0.27414966 -0.18903151 0.29193836 -0.20423311 -0.20738354

encoder.0.bias f4 [8]
00000000: 1408 a23e 1c15 9e3e 2fdb 8cbe 0a86 343e
00000010: 26d4 ee3b ce80 8bbe 9d5f 6b3d e9b5 463e
0.31646788 0.3087548 -0.27510974 0.17629257 0.0072884737 -0.27246708 0.05746423 0.1940533

encoder.2.weight f4 [8, 8, 3, 3]
00000000: 1adb 94bc 1a08 153e 7490 cbbc 2dd7 783c
00000010: decb 4c3c 07e6 b63d 724b cf3d 73e3 db3d
00000020: 4381 783e a11b 573e c6e1 5ebd bbf5 ef3d
00000030: 9b91 c93d 84c1 873e 5e57 5d3e d642 293e
00000040: 5336 733e 5706 293e 578e 1e3d e2d8 7db9
00000050: d4e2 b73c c9e9 b93d 2832 9d3d 13f3 cc3d
00000060: c88b bebd e44b e53d 2856 c5bc 4c11 643c
00000070: 57c3 913d 594f 363d ad25 b43d 6089 8b3e
00000080: 8e0b 103e b121 2cbe 1351 e63c d21b c93d
00000090: a98c 26be 2d53 123d 0286 773d 454e 6dbe
000000a0: f3b5 70bb e6a4 573e e3db 3cbe 09b8 593d
000000b0: b9bd aebd 789c afb9 8e83 e83c 69ae 04bd
000000c0: 37d3 abbd c415 ae3c 6692 c93d 53a3 9c3d
000000d0: a29d d53d cf55 4bbc dfa0 013e 43bd 9bbd
000000e0: 9fd2 a63d 74c8 9abd 7a51 9bbd 17f1 c83d
000000f0: a331 92bd cdc1 adbc 9a9c 9fbd 2ed4 0e3e
00000100: 0db9 193d fd4e fe3c 7215 303e 7d52 68bd
00000110: 9e46 f53d 551d f4bc 894a 143c 7ce0 19bb
00000120: ee81 cebd 9a78 dfbd 50d1 e8bd 1c07 563c
00000130: 7d88 cbbd 6b01 18bd 2e22 95bd aafc 0e3d
00000140: 405e 793d 88ea 843d 6a69 a0bc 902f c23b
00000150: 2e8e 193c e6c2 753d b108 543c 0640 c3bd
00000160: 8a50 2a3d 8e3f fb3d f90c ce3d 3f1b 9f3c
00000170: 4e36 983d d6fe 62bc fb31 113e d61d 013c
00000180: b627 cd3b 9989 193e 1304 8c3d ca5c f43c
00000190: 6346 20be 58b3 b9bc 8899 c83d a501 643d
000001a0: b993 b4bd 986e ca3d e2b0 d33d 7ea2 bd3d
000001b0: 2eea fd3d ba98 d6bd 758e 203c ac74 433d
000001c0: ab30 343e 90d5 81bd bc29 943d d75f 71bb
000001d0: a7da a5bd fd2a 873d 1cd1 1e3d 605e 7b3d
000001e0: 8432 0a3e 95d5 b2bc 4602 c83c 92a9 23bc
000001f0: 97dc 443d 4220 743d c5a3 afbd 1bde 783c
00000200: 4efa c53c 2f90 753d 38fa c5bc c660 de3d
00000210: 0cfc 003d e5a7 013e b131 c1bc dbbd 54bc
00000220: fe4e 543b c8ec 083e a7d7 a8bd e7f4 63bc
00000230: 74bb 96bc 099a ae3d 03eb 89bd 4b1c c03d
00000240: c020 053e a080 ad3d 07e0 7c3e 335f 733e
00000250: 06b2 5c3e 2c89 5b3e e9b5 d03d c995 8e3e
00000260: 8e1c 1c3e d06a 183d 50c7 3b3e 49dc 843d
00000270: 716c 633e c2ab 993e 6a66 ef3d 1140 e43d
00000280: a74a 1a3e 842d d03c 5195 40bc 5d46 3cbd
00000290: d1be 153e 5286 283d 295f fd3d 85c6 09bd
000002a0: db65 853d e649 57bb d06b b8bd 7e66 db3d
000002b0: 48d0 683e 85fc 803d 5ac4 b8bd 2a37 e53c
000002c0: 2e6b 8a3e 4bbb e8bd 319a 28be bbf9 e23d
000002d0: c94a a4be 0dc3 7abc f1d4 6e3e 4e06 d83d
000002e0: 4e76 fdbd 5fd3 503e 43d7 d43d 111e cabd
000002f0: f1d2 c5bd f6ed 623c 22b0 f73d 34f1 e0bc
00000300: 9c5b c03d 86d8 21bd 6cc4 1d3e c42b ecbd
00000310: 2ccb a4bd 5b07 05bd 4b11 2abd 1295 cd3d
00000320: f984 4ebd e0b0 ec3d e0b9 8abd a4b1 05be
00000330: 36a6 81bd 7c9d 3bbd e6c0 19bd 15e3 403e
00000340: 504c 493e 831f e3bc 4e03 183e fb28 963c
00000350: 4ae5 b73d 41e0 5d3e 79f9 1c3e c982 873d
00000360: 1f4b 1b3e f420 f23d 1cfb 103e 025c 7a3e
00000370: fc95 453e d07b 733e b63a 133e 7798 853d
00000380: 9ec2 343e 2c00 253e 43ca 7a3e ee32 3c3d
00000390: f457 0a3d 8e79 343e b4e5 583d c726 a93d
000003a0: c0f1 e93d d6d0 ec3d 4846 dfbd c3de c7bd
000003b0: b01d d53a 54bc 8fbc 6a23 bebd 16b6 3f3d
000003c0: ec96 b1bc 2edc 1b3d 0d8e 8bbd 3d73 f7bc
000003d0: db6a 8c3d 91ec 8e3d a992 19bd 7741 b73d
000003e0: f2c4 523d 0584 0bbe 8629 19be 3e43 acbb
000003f0: 0f24 0bbd 6506 ef3c 37b1 053e ac67 b63d
-0.018170882 0.14553872 -0.024849154 0.015188021 0.012499778 0.08930593 0.10121812 0.10736742
0.2426806 0.21006633 -0.054414533 0.11716791 0.09842225 0.26514828 0.21615359 0.16529402
0.23751192 0.16506325 0.038709965 -0.00024208755 0.022447027 0.09077794 0.07675582 0.100073
-0.09304005 0.111961156 -0.024088934 0.0139201395 0.07117336 0.044509266 0.087962486 0.27253246
0.14066908 -0.16809727 0.028114831 0.098197594 -0.16264595 0.035723854 0.060430534 -0.23174389
-0.0036729544 0.21058998 -0.18443255 0.053154025 -0.085322805 -0.0003349518 0.028383043 -0.032392893
-0.083898954 0.021250613 0.098423764 0.07648339 0.10430457 -0.012410595 0.12659024 -0.07604458
0.081456415 -0.07557765 -0.075839 0.09811609 -0.07138374 -0.021210575 -0.07793541 0.13948128
0.037529994 0.031043524 0.1719568 -0.056719292 0.1197636 -0.029799143 0.009050974 -0.002347975
-0.10083376 -0.10911675 -0.11368048 0.013063218 -0.099381424 -0.037110727 -0.0728191 0.034908928
0.0608809 0.06490046 -0.019581515 0.00592608 0.009372277 0.060000323 0.012941525 -0.09533696
0.041580714 0.122679815 0.10061068 0.019422172 0.07432233 -0.013854703 0.14179222 0.007880649
0.0062608374 0.14993896 0.068367146 0.029829402 -0.1565185 -0.022668526 0.09794909 0.05566563
-0.08817238 0.09884375 0.10336472 0.092595086 0.12398182 -0.10478349 0.009799589 0.04771869
0.1759669 -0.06339562 0.07234523 -0.0036830807 -0.08098345 0.06599996 0.03877364 0.0613693
0.13495833 -0.02183036 0.024415147 -0.009989159 0.048061933 0.059601076 -0.085761584 0.015189673
0.024167206 0.059951957 -0.024167165 0.10858302 0.03149037 0.12661703 -0.023583265 -0.012984718
0.0032395716 0.13371575 -0.082442574 -0.01391337 -0.018399931 0.085254736 -0.06734278 0.093803965
0.13000774 0.08471799 0.24694835 0.23766784 0.21552286 0.21439046 0.101909466 0.27848652
0.15245268 0.03721124 0.1833775 0.064873286 0.22209336 0.30013853 0.11689456 0.11145032
0.1506754 0.025412329 -0.01175435 -0.04596554 0.14623572 0.041143723 0.12371666 -0.03363659
0.06513568 -0.0032850443 -0.090049386 0.10712908 0.22735703 0.06298164 -0.09021826 0.027980406
0.27034897 -0.11363848 -0.1646507 0.110827886 -0.32088307 -0.015305293 0.23323418 0.105480775
-0.123760805 0.20393132 0.103926204 -0.09869016 -0.096593745 0.01385068 0.120941415 -0.027458765
0.09392473 -0.039513133 0.1540696 -0.11531785 -0.080465645 -0.032477718 -0.041520398 0.100381985
-0.05041978 0.11557174 -0.06773734 -0.13056046 -0.0633053 -0.045804486 -0.037537478 0.18836625
0.19658017 -0.027724987 0.1484501 0.018330088 0.0897928 0.21667577 0.15329541 0.06616742
0.15165375 0.118226916 0.1415829 0.2444916 0.19295496 0.237777 0.14377865 0.06523221
0.17652366 0.16113347 0.24491219 0.045947008 0.033775285 0.17624494 0.052953437 0.08259349
0.11423063 0.1156327 -0.10902077 -0.09759285 0.0016259458 -0.017545857 -0.092840984 0.04680451
-0.02167841 0.038051777 -0.068142034 -0.030206317 0.068563186 0.06978715 -0.03749338 0.08948033
0.051457353 -0.1362458 -0.14957246 -0.0052570393 -0.033969935 0.029177854 0.13055883 0.089064926

encoder.2.bias f4 [8]
00000000: 082e 843c 7454 9aba c12e cebb 2117 123e
00000010: d482 a8bd 3a0e 713d e86a b13a 530f 9f3d
0.01613523 -0.0011774437 -0.0062921946 0.14266635 -0.082280785 0.058851458 0.0013535889 0.07766595

cell.conv.weight f4 [64, 24, 3, 3]
00000000: 303a 62bd 8e92 b2bc 2a04 dabd c181 cebd
00000010: 80cd d7bd 0a8a e8bd 7681 85bd 9b5c c4bc
00000020: 3c7e 9ebd 3c66 94bd 6f4d 01bd 4bf1 40bd
00000030: db28 7ebd 7c71 443d a650 49bd 5917 1dbd
00000040: 46ed 873d 5fc4 0e3d 3a7b 03be 8d99 87bd
00000050: 7a1a 1dbe a737 c8bd ea9b 37be 0796 46be
00000060: d892 01be 5b9d 37be 323d d2bd f9a0 8dbd
00000070: 6e22 1fbe 0ec7 f9bd c88d 0bbe 59ed 30be
00000080: 41a5 0dbe b6ad 30bd 0ee0 bebd e260 0bbe
00000090: 58b7 cabc 29ec a8bc 0ff7 76bc 44d4 34bd
000000a0: 42b5 043d d533 9c3d 09c9 32bd 16a6 5e3d
000000b0: 83d1 3f3d cc7f 643d ad98 843d 60bd dfbc
000000c0: a37e 763b 6884 603d 5a6b cb3c 8606 083d
000000d0: 6844 b43c 23ee b03b 4db6 ef3c 106b 8a3d
000000e0: fc10 313d 0846 ed37 5629 813d 4591 8f3c
000000f0: 40da e2bc 1007 5d3d a8af 293c f996 9abc
00000100: 9d40 6ebc c6e4 31bd 885e a93b d864 acbc
00000110: e7d7 7cbc aed2 2d3d 6432 023d 985f 473d
00000120: 196b 45bd f44c 8bbd bf48 17bc a8ad c2bc
00000130: 516a 0c3c 11ca b4bc 2d44 bb3c ff95 913c
00000140: 4e52 e1bb b592 2e3d 59b5 58bc edc8 bebb
00000150: 6d04 ad3d af50 2abd 202f 1bba dc06 003d
00000160: f0da 2cbc 0adf 77bb 3459 33bd d3c6 fa3c
00000170: d669 673d 50f0 8dbc b797 babc a844 9e3d
00000180: 899c acba 6796 823d e268 323a 6c6a bcbd
00000190: e07a 71bd 9a77 b7bc c3ed 0ebd 5f35 983c
000001a0: 6f42 59bd 0f0c 92bd b4e5 cebd eb46 cebd
000001b0: 8b46 323d c764 b53d 2b58 c83c 7ebb 883d
000001c0: b5e4 9c3d 6e81 493d 26a4 413d 1299 bc3d
000001d0: 25f2 af3c cd45 033c 0e93 a93b dd01 9e3c
000001e0: 7bad 323d 0d14 f0bc 24c1 033c 219c 04bd
000001f0: bad2 683d 6738 093c 98af 06bd cc13 edbc
00000200: a815 9fbd 1487 e4bb fb0d ccbc c1a9 033d
00000210: 7f69 35bd d753 62bd 0948 c0bd a69b 4d3c
00000220: 4d28 8cbd 6bc6 4cbd 6af6 083b 1886 cebc
00000230: 4017 adbd 01ba e9bd 699b c2bd 4d92 033c
00000240: 2e9d 173d 969a 0cbd de36 12bd b4e1 97bc
00000250: 08a3 65bd b5ac aa3d a661 183c 1652 413d
00000260: 6bc4 5c3d a20e d4bd d0f3 d5bd deb7 dcbd
00000270: 8c29 febc 61aa 88bd 3301 8ebd 139a 503b
00000280: 2dd3 95bd c3ce 1dbe 40c0 123d e83c b4bc
00000290: a256 ff3c f20f be3c 5e47 82bc 8c02 93bc
000002a0: 1d6d 253c 9f17 393d 132c 7ebd fdc7 97bd
000002b0: 4a24 33bd 0c09 f7bd 3f45 8abc 3c63 25bd
000002c0: c805 16bd af8d e0bd e61d cf3a 9a2f f5bd
000002d0: 39de 7bbd e006 a7bc 9ebb 94bd 9ab8 4bbd
000002e0: d66d 3f3d f46f 7c3d a3e1 7e3d a2d0 973d
000002f0: c81c 5dbc 732e c83d 1eef e0bc feb7 b33d
00000300: 47c1 ae3c c777 bc3c 3543 a93d 365b 213d
00000310: 198b a53c 9c87 c73d f454 b1bc 82db b23d
00000320: 7980 c13d 568a 2a3b 0126 813d bf67 013d
00000330: 75be a83d 9954 bb3d 5b76 153e 39bb 85bd
00000340: 0d87 b83b a732 23bd 583b 0abc c038 23bd
00000350: a0de 21bd 6171 90bd bc73 2cbc d267 95bd
00000360: 64d6 b33d e9df fd3c 3ff5 d9bc e022 0a3d
00000370: 3abd 24bd 1ce0 8c3d c033 603d 3f77 b7bc
00000380: 2ccc 913d 6576 ccbc ca69 3c3d a840 013c
00000390: fcf0 b7bb 3cea a3bc df1f ba3c c033 9e3d
000003a0: 75de b43d ddc9 edbc ca30 f2bc 6ffc a63d
000003b0: 0423 05bd 04e2 213d 6c83 6ebd 6544 9e3c
000003c0: 9776 af3d dfca 783d eab4 913d f3cc fe3d
000003d0: 0223 3c3d d053 9a3c 9f80 883c b189 ef3d
000003e0: 3439 bb3d dab2 9c3d bf5c e73d 079c bd3d
000003f0: 9e33 9b3d 77de bc3c 9c04 1ebc cb15 c33c
-0.055231273 -0.021798398 -0.106453255 -0.10083342 -0.10537243 -0.11354454 -0.06518833 -0.023969939
-0.07738921 -0.07246062 -0.031567987 -0.047105115 -0.06205068 0.04795979 -0.049149178 -0.038352344
0.06637053 0.034855243 -0.12839976 -0.06621084 -0.15342131 -0.0977624 -0.1793057 -0.19393168
-0.12653673 -0.1793112 -0.10265578 -0.06915469 -0.15540478 -0.1219617 -0.13628304 -0.17278041
-0.1383257 -0.043134414 -0.09320079 -0.13611177 -0.024745628 -0.020620422 -0.015073552 -0.044147745
0.032399423 0.07627074 -0.043648753 0.05435761 0.046830665 0.05578594 0.06474433 -0.02731198
0.0037612102 0.054813772 0.024831463 0.033209346 0.022005275 0.005399482 0.029261732 0.06758702
0.04322909 2.8285212e-05 0.06306712 0.017525325 -0.02769196 0.053961813 0.010356821 -0.018870817
-0.014541772 -0.043431066 0.0051687397 -0.02104418 -0.0154323345 0.042437248 0.031786337 0.04867515
-0.04819784 -0.06801787 -0.009233653 -0.023764446 0.00857027 -0.022069009 0.022859657 0.017771719
-0.0068762666 0.04262038 -0.01322683 -0.005822292 0.0844811 -0.041580852 -0.0005919803 0.03125654
-0.010550246 -0.003782215 -0.043786243 0.030612385 0.056497417 -0.017326504 -0.022777421 0.07727939
-0.001316921 0.06376343 0.000680579 -0.09199986 -0.058955073 -0.022395898 -0.034894716 0.018580137
-0.05304187 -0.07131206 -0.10102406 -0.1007212 0.043524306 0.088571124 0.024456104 0.06676386
0.0766081 0.0491957 0.047275685 0.09208883 0.021477768 0.008012247 0.005175001 0.019287998
0.043622475 -0.029306436 0.008041654 -0.03237546 0.05684159 0.008375264 -0.032882303 -0.028940104
-0.077678025 -0.0069741104 -0.02490901 0.03214431 -0.044290062 -0.055255737 -0.093887396 0.0125493165
-0.06843624 -0.049993914 0.0020898827 -0.025210425 -0.084517 -0.114124306 -0.095022984 0.008030486
0.037015133 -0.034327112 -0.035696857 -0.01854024 -0.05606368 0.083337225 0.009300625 0.047197424
0.053898256 -0.103543535 -0.10446894 -0.107772574 -0.03102567 -0.06673122 -0.069338225 0.0031830117
-0.07315669 -0.15410905 0.035827875 -0.022001699 0.03116924 0.023200963 -0.015903171 -0.01794555
0.010096815 0.045188542 -0.06205375 -0.074111916 -0.04373578 -0.120622724 -0.016878722 -0.04037784
-0.036626607 -0.10964524 0.0015801757 -0.1197197 -0.061491225 -0.02038902 -0.07262348 -0.049736597
0.046735607 0.061630204 0.062226903 0.074128404 -0.0134956315 0.097744845 -0.02745777 0.08775328
0.021332396 0.023006333 0.08264772 0.039393626 0.020207928 0.09742662 -0.021646954 0.08733274
0.09448332 0.0026022396 0.06306077 0.03159308 0.08239452 0.09146995 0.1459593 -0.065298505
0.0056313337 -0.039843228 -0.008437 -0.039849043 -0.039518952 -0.07052875 -0.01052564 -0.07295193
0.08781126 0.030990558 -0.0266062 0.033724666 -0.040219523 0.06878683 0.054736853 -0.022395728
0.07119021 -0.024958799 0.045999326 0.00788895 -0.0056134444 -0.020009153 0.022720275 0.07724714
0.08831493 -0.02902692 -0.02956428 0.08153617 -0.032504097 0.039522186 -0.058230802 0.019319722
0.08567541 0.060740348 0.07114585 0.12441435 0.045931824 0.018838793 0.016662894 0.116961844
0.0914177 0.07651301 0.11296987 0.092582755 0.075782046 0.023055298 -0.009644654 0.023814103

cell.conv.bias f4 [64]
00000000: 78fa 80bd 33ae bc3c 5268 92bb c4e1 d63c
00000010: c7d8 9ebc 7369 3c3d cc12 ae3d 9a30 a03d
00000020: a30f 6fbd 8da0 cb3d 9e4c 143d 03f9 3dbd
00000030: 9d18 c5bc c8a2 40ba 8353 b13c 09a7 2cbc
00000040: b4ca 8fbd e06c b23d c520 913d 35ed 35bc
00000050: 358f 10bc 318e f2bb 6c2c 8b3d acf5 a93c
00000060: 7965 223d 7a6c 52bd d2c1 703a 594a 343d
00000070: 12f4 7e3d 3c75 4dbc 4076 84bc 522a ef3d
00000080: c1f9 e53b 04a1 753d 75ff a139 2b59 e2bb
00000090: 3500 47bc 7203 e63c e89b 983c 665e f53c
000000a0: c48b ab3c df19 31bb d897 48bd 9a4e e53c
000000b0: faf5 603d 7cdf d53d 53b7 123d cd44 423c
000000c0: d349 0c3d be2a 593d fda7 8b3d 4861 21bc
000000d0: 4133 babd 48ee 74bd df29 55bd 8336 ad3c
000000e0: b8fb 13bc 75f1 cf3c 0829 db3b d68d 8d3d
000000f0: ab27 473c 9c64 7d3c bee3 9cbc ade7 2abd
-0.06297773 0.023032283 -0.0044680024 0.0262307 -0.019390477 0.045999 0.08499679 0.0782177
-0.05836452 0.09942732 0.03620588 -0.046380054 -0.024059588 -0.0007348475 0.021646267 -0.010537871
-0.070210844 0.087121725 0.070863284 -0.011103918 -0.008823206 -0.0074022044 0.06795582 0.020747028
0.039647553 -0.051372983 0.0009184155 0.044016216 0.062244482 -0.012540158 -0.016169667 0.11677994
0.0070182984 0.05996801 0.00030898643 -0.0069076023 -0.012146045 0.028077815 0.01862903 0.02995224
0.020940669 -0.0027023477 -0.048972934 0.027991582 0.05492208 0.10443017 0.035819363 0.011857224
0.03425009 0.053019278 0.068191506 -0.009849854 -0.09091807 -0.059797555 -0.052041885 0.021144157
-0.009032182 0.02538369 0.006688241 0.06911819 0.012155454 0.015465882 -0.019151565 -0.04172485

aux_proj.weight f4 [16, 8, 1, 1]
00000000: 5b3f a53e 1fbd dbbd 2c41 983d 10d6 c23e
00000010: 18ca 8dbd 5a08 81be 9878 9abe 18cd fc3d
00000020: 4eef ee3d 573a ab3d 7933 ec3e a680 5cbd
00000030: 3445 f1bd 15db 5ebe 759a 303e 4a70 bbbe
00000040: f9db 9a3d 8ec2 e63d 8036 bebe 3185 9bbd
00000050: 9b81 8dbe b8ff 263e 0ab6 cd3e a42b 983e
00000060: 7da2 233e c1a5 3e3e ba3e e53e 2442 a63e
00000070: bc81 b53d 1912 553e b499 aebe 4de0 9ebe
00000080: 751d 93be 7a51 18be f8e0 f3bd 88ed cabe
00000090: b772 ce3e 0706 8b3d 352e 8d3e 914c 763e
000000a0: c1a9 08bb df34 c83c e108 103e bd8f 78be
000000b0: 0c7e a9be a8a7 babe c814 90be 65cd 97be
000000c0: aeef 90be bf16 62be 95ae 463e f49a 093d
000000d0: da74 c93d fb8c c03d e016 9bbe 8b47 3e38
000000e0: 3ae4 19be ed51 b43e 448c a7be e4e8 d5be
000000f0: 5cf7 03bd 820d b2bd 4b6f 8c3e 23c4 a03e
00000100: acdc 32bd 25bb d13e 8c95 10be e350 e7bd
00000110: b079 9b3d f58e 0fbd 5010 34be d2be 8a3e
00000120: 110f 8f3d 563b 22bc 6029 cb3e ba42 a23d
00000130: 2ba2 a0be 02d2 243e c72d d8bc 62a4 e1be
00000140: e54d 983e 304c 92be db92 0e3f dcd6 02be
00000150: be08 c1be 8752 7cbe eecc 5b3e 88d2 49bd
00000160: 9297 81bd b12c d7be bcc1 e63e 4dc2 0c3e
00000170: df70 c1be 07ae 75be 907c 3d3d 6a2f 013e
00000180: 9d48 08be cdda bb3e 1c11 f2bd de79 9cbc
00000190: 7161 95bc 08b4 a33e dee2 8f3e fe4f 6d3e
000001a0: 362f 353e e544 e83d a5ef 5dbe 8973 c1be
000001b0: 8606 c23e 0402 243e 581e 023e 284b 63be
000001c0: 3bfb cc3d 29be 6e3e 0a9b 5ebe 0f52 cfbe
000001d0: 8c9b c53e d507 773e 9801 d2bc 4ad4 5c3e
000001e0: 87ca 693e 0590 5a3c ca29 663e 6c07 563e
000001f0: f969 4cbe 34f4 4c3e e6dd 9d3d 606b 1c3e
0.322749 -0.10729431 0.074343055 0.38053942 -0.06923312 -0.25201684 -0.3017013 0.12343806
0.116667375 0.08360737 0.4613302 -0.053833626 -0.117807776 -0.2176326 0.1724642 -0.36609107
0.07561488 0.11267577 -0.37150955 -0.075937636 -0.27637944 0.16308486 0.40177947 0.29720795
0.15979953 0.18617918 0.4477442 0.32472336 0.088626355 0.20807685 -0.3410164 -0.31030503
-0.2873341 -0.14874831 -0.11908144 -0.39634347 0.40321895 0.06788259 0.27574316 0.24052645
-0.0020853134 0.024439273 0.14065887 -0.24273582 -0.3310398 -0.36456037 -0.28140855 -0.2964889
-0.2830786 -0.2207899 0.19402535 0.03359504 0.09836741 0.0940189 -0.3029089 4.536616e-05
-0.15028468 0.35218754 -0.32724202 -0.41779244 -0.032218322 -0.08693983 0.2742866 0.3139964
-0.04366748 0.40963092 -0.14119548 -0.11294725 0.075915694 -0.035048444 -0.17584348 0.2709871
0.069852956 -0.009901842 0.39680004 0.07922883 -0.31373724 0.16095737 -0.026389016 -0.44070727
0.2974693 -0.2857375 0.55692834 -0.12777275 -0.37701982 -0.24640857 0.21464893 -0.049273044
-0.06327738 -0.42026284 0.45069683 0.13745995 -0.37781426 -0.23992167 0.04626137 0.12615743
-0.1330895 0.3669037 -0.118196696 -0.01910108 -0.01823494 0.3197329 0.28102773 0.23175046
0.17693791 0.113412656 -0.21673448 -0.3778346 0.37895602 0.16016394 0.12706888 -0.22196639
0.10008856 0.23314728 -0.2173883 -0.40492293 0.38595235 0.24124081 -0.025635526 0.21565357
0.22831164 0.013340001 0.22476879 0.20901269 -0.199623 0.20015031 0.077083394 0.15275335

aux_proj.bias f4 [16]
00000000: 4457 ab3e 038f 2cbe d1b8 453b 60b4 5ebe
00000010: 79d3 253e e49d 06be 32a9 59bd 3324 6c3e
00000020: 7f38 b93d 9394 33be bfdc e43d f876 783b
00000030: 0de5 87be f857 d4bd 512e 7c3e 1c74 993d
0.33465016 -0.1685143 0.0030169974 -0.21748495 0.16193952 -0.13146168 -0.053139873 0.23060684
0.09043979 -0.17537145 0.111749165 0.0037912708 -0.2654194 -0.10368341 0.24627043 0.07492849

head.weight f4 [1, 16, 1, 1]
00000000: 546b 06be bff6 a5be 70fd ef3e 656f acbe
00000010: 045a 543e 12b2 5a3d 9868 a8be 3bdb 783e
00000020: 07fa f73d 9053 d8be 849f 16be 0abd 29be
00000030: 0609 b93d f6a2 cd3e b68e e03e fd4c a8be
-0.1312688 -0.32414815 0.46873045 -0.33678737 0.20737463 0.053392477 -0.328923 0.2430238
0.12108236 -0.42251253 -0.14709288 -0.16576019 0.09034924 0.40163392 0.4385888 -0.32871237
