experiments/sweeps_phase3/p3_tv0.005_time0_run07.pt (torch, 63413 bytes, 9 tensors)

encoder.0.weight f4 [8, 1, 3, 3]
00000000: c163 873e d6a2 0a3e e2e5 d63d cdbd a93e
00000010: 24c9 34bd 7a89 42be 79f8 dc3d b797 6ebe
00000020: e26c 05bd 4914 dc3d 18f6 40bd 38d1 623c
00000030: 0643 8e3e 7718 733e 590f a73e cd39 04bd
00000040: 03b2 983e 1bca 823e 6c80 ec3c a5f1 08be
00000050: e9aa 81bb 62d6 2d3e 7ecf f73d bca0 82bd
00000060: 3591 653e e031 11be e13e 40be 86b2 45be
00000070: b304 753e 6742 a83e 7c01 8c3b 3aba 633e
00000080: a803 9c3d b542 7a3e 4fdb ae3d 75b2 863e
00000090: f3a8 a83e 489a 19be e518 003d cbcf 32be
000000a0: 86f1 c23e a77c c23e 5d25 64be 9709 b9bd
000000b0: e7fd 21be cebe 643c 10b9 1fbe 9124 503d
000000c0: 1127 bcbd 0341 ec3c 5e6e 6bbd 18d3 a43e
000000d0: cb1b 30be 687f 453d 7fc7 1cbe e47b 57be
000000e0: 8e61 82be 5081 49be 498f 9c3e f823 193c
000000f0: 338f b8bd 302c 913e 84d6 13bd e113 763e
00000100: 475a 453d 54a0 6ebe e1d7 833e 9f4b 63bd
00000110: 8d7f 5d3e c653 81be be49 13bd f047 bd3d
0.26443294 0.1353868 0.104930654 0.3315262 -0.044137135 -0.18997756 0.1078958 -0.23300062
-0.032574542 0.107460566 -0.047109693 0.013843827 0.2778551 0.23739801 0.32628897 -0.032281686
0.29823312 0.2554482 0.02886983 -0.1337343 -0.0039571417 0.16976312 0.12100123 -0.06378314
0.22418673 -0.14179182 -0.18773986 -0.19306383 0.23927574 0.3286316 0.004272638 0.22239009
0.07617885 0.24439509 0.085379235 0.26308027 0.32941398 -0.1500026 0.03127374 -0.17462079
0.38074893 0.37985727 -0.22279878 -0.09035032 -0.15819512 0.013961507 -0.1559794 0.050816122
-0.09187139 0.028839594 -0.0574783 0.32192302 -0.17198102 0.048217207 -0.15310477 -0.21043354
-0.25465053 -0.19678235 0.30578068 0.0093469545 -0.09011688 0.28354025 -0.03609325 0.2403102
0.0481818 -0.23303348 0.2575064 -0.05549204 0.21630688 -0.25259227 -0.035958998 0.092422366

encoder.0.bias f4 [8]
00000000: 3c79 b53a 9fc4 a4bd a9fd d33d 9407 f7bd
00000010: 0777 b3b8 3fad 573d 7bb4 bf3e 0262 30be
0.0013845335 -0.08045315 0.10351116 -0.12061992 -8.557556e-05 0.052655455 0.37442383 -0.17224887

encoder.2.weight f4 [8, 8, 3, 3]
00000000: 241e 10be c5eb 37bd 35d7 683d 47fd c23d
00000010: 86e2 fabc 25a3 043d 885f 4d3d caec 243e
00000020: 0692 f23d fd2a 7f3d 25dc 453d b5f4 c23d
00000030: 064c c93d a69e b0bd ada8 963d d7df 183d
00000040: 90f7 f93d 4676 3fbd 877d 10be a1c4 ab3d
00000050: 6af7 503c 528e 15bd 7c71 a5bd fcb1 33bc
00000060: a250 28bd 7bb0 fa3c 52e1 ab3c f043 82bd
00000070: 9042 8d3d bf2d ee3d 9a74 0e3e 61bf a4bd
00000080: 8b76 d8bb 7392 d03d 429e e93c 6917 8bbc
00000090: 3d8a 033e 2946 573c 7805 1bbe 6a36 c1bc
000000a0: 6185 f1bc 0ff0 03bd 2bba 8c3d 7312 b33a
000000b0: ca70 fb3d 38d0 2cbd d229 263d 7f78 1bbd
000000c0: 698a 90bc 563e cabd 85bd 03be 3028 943d
000000d0: ccda 183d 4ce0 87bd 3479 1ebc 585e 1cbd
000000e0: 7975 6dbc 3a29 823d d4cb a1bc 3e91 123d
000000f0: 0bcc f0bc bce9 32be b67d 7fbd 1417 db3d
00000100: affe 623d 00f8 cc3d bb86 abbd 2f43 4a3d
00000110: 04a7 273e 992c cb3d fd77 c63d 1635 d53d
00000120: 01b0 b9ba 55d1 443d 6b78 663e a738 e3bd
00000130: 17da 8f3d f1f4 603e 24ea 2e3e 271d 263e
00000140: 5654 753e 4fc9 0d3e 4d93 103d 0840 6bbc
00000150: a030 0c3d 59e4 99bb cea5 a7bb 6079 933d
00000160: 8b76 80bc 4720 3ebd d283 3fbe 9faa b53c
00000170: dd12 c63d 815b 0e3d 52a3 063e 3136 7b3e
00000180: f59e 53bd 0d1e 763c 94cb 183d 903f eb3d
00000190: f905 dfbc d44e ebbc 5edc 183d 691b 133e
000001a0: 6a8e 09bd b3aa 8b3d 1d7b c33c d25e 92bd
000001b0: 6cb9 77bd d809 d5bd 7949 9fbd 7fd5 893e
000001c0: ac0e 313e 6f48 85bc f330 173e f181 003d
000001d0: 12dc 443e 3f40 193e 89b7 e0bd 961b 1d3f
000001e0: 96de 05be 9a65 223e 7029 903b 7fc3 1a3d
000001f0: e037 3ebe 54cf e1bd da61 5bbc ff2e 2c3e
00000200: b845 58bd ac04 953c 5ea4 2c3e 0442 0ebe
00000210: b7b4 e7bd 7400 403d 732a 33be 3ab5 c73d
00000220: 9aaf dabd a94a 55be 8e93 1c3d b679 113e
00000230: 31e4 8a3e 43c7 86bd 26b0 a43e 9ffd 523e
00000240: 2b12 70bd 0776 0cbd 2656 9ebd 28a7 4abd
00000250: 5f29 06be 4a0a 223e 102a aabd fc04 81bc
00000260: 06ed c43d f5ae 0d3e ab03 0c3d 8dbc 813d
00000270: 4a84 a43d 2adb d53d f3d8 e23d 9e42 593c
00000280: 4cfd 943b 0f14 bbbd fdc0 1abe 8339 02be
00000290: 4f5d 023e 8e50 abbb e682 e8bd ed85 a23c
000002a0: 92e4 663d 6544 02be 0bad 293d e68d 203c
000002b0: d4ab a0bc 7722 883d 1022 ce3d bc0f a13d
000002c0: bf31 88bc 4144 26bd 22d1 d33d 2ad1 053e
000002d0: b1a0 3a3c 68b8 42be 7b41 7bbe fccd 36bc
000002e0: 7fbb 8abd f125 423c 8b83 573c 0f84 493d
000002f0: f1d2 303e ca3a 0a3d e91f 41be c27f a73e
00000300: 9598 86bd 2b2c 093c 9a48 1bbd 1583 383e
00000310: 334f b73b d1c5 d13b 6c1c 8dbb 4243 02be
00000320: 4199 acbc b0e8 923d 914b c1bc 6dd9 553c
00000330: 94b8 96bd b003 5ebc e3d1 22be 4e97 ae3d
00000340: 83f6 d6bc 0324 00be a43f 55bd a4a3 c23d
00000350: c281 283e 6005 5fbd e18e 8d3d 4d31 da3d
00000360: e05e 093e 165f 043e 4be2 c6bc 01ed 1a3e
00000370: 5682 713d 68af d4bd 64c8 523d c56f 3abd
00000380: 60f5 19be 7aa6 e93d f652 7bbd 3da7 4fbd
00000390: 3964 433d 3b9a 85bd bf63 cabd b25e a5bd
000003a0: 0a5c 073d fcc5 ef3d 0c89 c73c 9c88 dbbc
000003b0: 4a2c 6b3c 803c e03d b100 96bd 0beb 363d
000003c0: 64fe f73d 0431 193e 0611 c1bd 19d3 a43c
000003d0: ec5c de3d 16c0 bc3b b50b 96bd 1566 39bd
000003e0: 4efe 833d 5a0a 8d3d 1a26 d13c 4f19 d63c
000003f0: b7c9 0a3e 9263 a83c b322 083e 5907 d9bd
-0.14073998 -0.04490258 0.056845862 0.09520965 -0.030625593 0.03238215 0.050139934 0.16105953
0.11844258 0.062296856 0.04830565 0.095193304 0.098289534 -0.0862401 0.07356391 0.037322845
0.12205422 -0.046743654 -0.14110385 0.08387113 0.012754301 -0.03651268 -0.08078286 -0.010967728
-0.041092522 0.03060173 0.020981465 -0.06360614 0.068974614 0.11629819 0.13911667 -0.08044315
-0.0066059283 0.10184183 0.028517846 -0.016978936 0.12845702 0.013139286 -0.15138805 -0.023585517
-0.029482545 -0.03221136 0.06871446 0.0013662115 0.12277372 -0.04219076 0.040567227 -0.03795671
-0.017644124 -0.09875171 -0.12865265 0.07234228 0.037318036 -0.06634578 -0.009672452 -0.03817591
-0.01449334 0.063555196 -0.019750513 0.035783045 -0.02939417 -0.17471975 -0.062375747 0.10697761
0.055418666 0.1000824 -0.08375307 0.049380478 0.16372305 0.09920616 0.09690855 0.10410516
-0.0014166833 0.048051197 0.22506873 -0.1109479 0.07024019 0.21968438 0.17081505 0.16222058
0.23957953 0.13846324 0.035296727 -0.014358528 0.03422606 -0.0046964106 -0.005116201 0.07200885
-0.015681526 -0.0464175 -0.18702629 0.022176085 0.09671567 0.034755234 0.1314824 0.24532391
-0.051665265 0.015021813 0.037303522 0.11486733 -0.027224528 -0.028724112 0.037319534 0.14365925
-0.033583082 0.06819668 0.023862416 -0.07146992 -0.060479566 -0.10402268 -0.07777686 0.26920697
0.17290753 -0.01626989 0.14764766 0.03137392 0.19224575 0.14965914 -0.109725066 0.6137022
-0.13073191 0.1585907 0.004399471 0.037784096 -0.18576002 -0.11025873 -0.013390029 0.16814803
-0.052800864 0.018190704 0.16859576 -0.1389237 -0.113137655 0.046875432 -0.17496662 0.09751363
-0.106780246 -0.20829262 0.038226657 0.14206585 0.2712722 -0.06580975 0.3216564 0.20604561
-0.058611076 -0.034292247 -0.07731275 -0.04947582 -0.1310172 0.15824237 -0.08308804 -0.015749447
0.09615521 0.13836272 0.034183186 0.06334791 0.08033045 0.10442193 0.11076536 0.013260512
0.004546797 -0.09134685 -0.15112682 -0.12717251 0.12730907 -0.0052281087 -0.11353092 0.019839251
0.056370325 -0.12721403 0.041424792 0.009799456 -0.019613184 0.06647199 0.10065091 0.07864329
-0.016625283 -0.040592436 0.10342623 0.13068071 0.011390851 -0.19015658 -0.24536698 -0.011157509
-0.06774043 0.011849866 0.013153921 0.049198207 0.17267968 0.033747472 -0.18859829 0.3271466
-0.065720715 0.008372347 -0.037911035 0.18018754 0.005594158 0.0064017554 -0.0043063667 -0.1272097
-0.02106917 0.07173288 -0.023595603 0.013052327 -0.07359424 -0.013550684 -0.15900378 0.08524953
-0.026240593 -0.12513737 -0.052062646 0.09503868 0.16455749 -0.054448485 0.069120176 0.10653935
0.13415098 0.12926897 -0.024277827 0.15129472 0.05896219 -0.103850186 0.05146064 -0.045516748
-0.1503501 0.11408706 -0.061358415 -0.0506966 0.047703 -0.06523558 -0.09882306 -0.08074702
0.03304676 0.117076844 0.024357341 -0.026798539 0.014353821 0.109490395 -0.073243506 0.04465775
0.12109068 0.14960104 -0.09427075 0.02012019 0.10857567 0.005760203 -0.07326452 -0.04526337
0.06444989 0.0688674 0.025530864 0.026135115 0.1355351 0.020555291 0.13294487 -0.105971046

encoder.2.bias f4 [8]
00000000: 191d 71bd 61d3 39bc 309a da3d 298b 163e
00000010: bbd5 68bb 38bb 093e 3b96 d3bc 15f0 563d
-0.05886564 -0.011341901 0.1067394 0.14701523 -0.0035527784 0.13450325 -0.025828471 0.052475054

cell.conv.weight f4 [64, 24, 3, 3]
00000000: e8b8 97bc d21c 963d f672 e23c 7468 eab9
00000010: d4f3 a63c 85fe 61ba 76e7 c9bc b1df 543d
00000020: e75d 98bc cc82 ca3c 343d 8f3c 96e6 6b3d
00000030: eedc 28bc 780a 203d 6041 cd3c 4def c93b
00000040: 2d09 853d e916 e13d 6180 e7bb 5f37 b03d
00000050: c997 743d 3ef3 053d 2505 753d f0f2 26bc
00000060: dd31 ab3c 7286 523c 23a3 983d 3a47 b2bc
00000070: 5acf e03d 313c 073e 0217 2abc 8ec9 dd3b
00000080: 2d86 dd3d 8c3c a73d 9fbc a23d 3714 8b3d
00000090: acdd a53c beb9 dd3d accd b33d 9558 5e3a
000000a0: f43f 143e 8467 2b3e 73f1 313d 7ba5 723c
000000b0: eb3e 7bbc 64f9 a33a cf8a 383c eb0d 013e
000000c0: 1c8d 243d ae36 073d 9377 b33c 5dea 523c
000000d0: 048f 743d 8e88 413d 2d95 41bd 127b fdbc
000000e0: e926 223a 763b 723d 167b 7a3d 6d3c 19bc
000000f0: d988 373d 7bba 0c3d f619 ecbc 5e28 1f3e
00000100: 0cc0 f33c 4d94 f13d 8eca 023e d2ea e83d
00000110: d2b4 0c3e a060 cb3d d959 223e f5cb 3e3d
00000120: 0804 1e3d 8f0a 933d 4f69 aebd 97c1 e13d
00000130: db23 6cbc a717 5a3d b580 933c 1fab bfbc
00000140: 77dd b4bd a046 19bd 0636 af3d 2d7d 783d
00000150: 7c2b a73d bf38 c03c edb3 44bd b43f 67bd
00000160: 0086 1cbd c48f c73b 3b64 8e3d fccb 85bc
00000170: 0619 273d 8683 f43c 5c54 733d 7da7 9e3c
00000180: 4bf2 ec3d 7346 bb3c 4dcf a13d 3ab3 1abe
00000190: 6e7b 2bbe 372f d6bd 6679 9bbd f5b7 4abe
000001a0: 61cc 21be 0f5b 37be 5c32 48be 8ece 48be
000001b0: e617 873d f95a a13d 35b1 563c 81cd e3bc
000001c0: 56fe 39bd 1ca7 2c3c 1773 8cbc 45ed 6bbb
000001d0: e4be 2b3d c7d7 a2bb 93c7 d4bb 0a75 ec3b
000001e0: 2119 e63d 42cf 533d 6f8f 89bc 3e7d 783d
000001f0: 5a6d 3f3d 1c36 0cbd c546 86b9 2d06 a93c
00000200: 35db c3bd 2d9b 693d 4d71 5cbd 0628 b7bd
00000210: e7ab 933c c074 0a3c 5422 03bb 5961 a9bc
00000220: 4851 acbc 03d3 263d 3549 c53d 5b9f d23d
00000230: 7cfc 603c 3c64 243c f148 873d 2f3f 40bd
00000240: 8ef6 7e3d e574 583d b674 c53c aabb 7c3d
00000250: 1b4b 933d fe61 0b3d afe1 fc3b a589 943d
00000260: 716e 353c 9805 db3d 9eb1 363e e6f4 c13d
00000270: ea29 3c3d 63d8 203e f754 453e 64b8 023e
00000280: e66a ae3d 4d9b 193e c90a 873c 2c87 79bd
00000290: c81f 1dbd b12b 35bc fdcb 47bd 6479 513d
000002a0: 8ff3 b3bd d2d8 3fbd f8c1 e9bc 7c3c 39bd
000002b0: c87e 303d 4718 503d 37ba 963c 8465 c1bc
000002c0: 28f3 3d3c ce51 51bd a17c 163c 065d 803d
000002d0: 089a 4dbd 54e1 563c 3eba 9d3d 6fe8 cb3c
000002e0: 893f 52bd a577 903d 47fd 023d a14c 55bd
000002f0: 1d82 993d a95a e1bb c2a6 a0bd cd7c b4bd
00000300: fbc2 80bd e6f8 7bbd 3a78 18bd ad3c 83bd
00000310: bb6d 88bd 4268 01bc 5bdf a03d 0844 8b3c
00000320: c19e f23c ba1c 3c3d 8505 a33c 6592 433d
00000330: bff0 143c 947f bfbc 2323 9b3d 257a e43d
00000340: 5c4e d73d bf9a a53d 7e1a 1b3d da36 9f3d
00000350: 0d0b 8e3d 75ac 013e f201 273e bb1d 873d
00000360: 83d1 8b3d 0c2f 773d fc36 2cbc 29ed 36bc
00000370: 22e2 e83c fce3 b43b f3e2 dfbc de81 773d
00000380: b591 b93c 0531 0b3d d73c 7e3d 237e c7bc
00000390: dda8 38bc 2c5d b63c d3c2 293d 7d89 893d
000003a0: 1373 093e 660d c03d b25f 9f3d f300 d13c
000003b0: 5154 07bd 472c 863d ad80 b4bc e324 cdbc
000003c0: bc6b 3cbc 628e aa3d ed3e 14bd 6647 a03d
000003d0: fc84 b8bb 27cd 12bd 7c69 273d e296 913c
000003e0: 64fb 863d 1493 1e3d 9a67 aa3d d546 17bc
000003f0: 7f54 e3bb 6ae4 e23d bbe8 59bc cc18 9a3c
-0.018520787 0.07329716 0.027642708 -0.00044709782 0.020379938 -0.0008620995 -0.024646502 0.05197114
-0.018599464 0.024720572 0.017485239 0.05759295 -0.01030658 0.039072484 0.025055587 0.00616256
0.06495891 0.10990698 -0.0070648645 0.08604311 0.059715066 0.032702677 0.05981936 -0.010189757
0.0208978 0.012849437 0.07452991 -0.02176248 0.10977049 0.13206555 -0.010381462 0.006768412
0.108166076 0.08165845 0.07946133 0.06790965 0.020247303 0.10826443 0.08779463 0.00084818277
0.14477521 0.16738707 0.043443155 0.014809961 -0.015334825 0.0012510237 0.011263563 0.12602966
0.040173635 0.03301113 0.021907603 0.012873259 0.059706703 0.04724937 -0.047261406 -0.030942474
0.00061856076 0.059138738 0.06115254 -0.009352786 0.044808242 0.03435753 -0.028820973 0.15542743
0.029754661 0.11795864 0.12772581 0.113729134 0.13740852 0.09930539 0.15854587 0.046581227
0.038578063 0.07179748 -0.0851618 0.110232525 -0.0144128455 0.053245213 0.018005708 -0.023397027
-0.088313036 -0.03742087 0.08555226 0.060666252 0.08162591 0.023464559 -0.048023153 -0.056457236
-0.03821373 0.0060901362 0.06952711 -0.016332619 0.04079535 0.029847872 0.059406623 0.019366974
0.11569651 0.022860741 0.079008676 -0.15107432 -0.16746303 -0.10458224 -0.07591514 -0.19796737
-0.1580062 -0.1790583 -0.1955046 -0.19610044 0.06596355 0.0787868 0.013103773 -0.027807953
-0.04540857 0.010537889 -0.017144723 -0.0035999578 0.041930094 -0.0049695703 -0.0064935177 0.0072161006
0.11235262 0.05171133 -0.016792027 0.060666315 0.046735145 -0.03423129 -0.000256112 0.020632828
-0.09563295 0.057032753 -0.05381899 -0.08943181 0.018026305 0.008450687 -0.0020009475 -0.020676302
-0.021034852 0.04072858 0.09633104 0.10284301 0.013732072 0.010033663 0.06605709 -0.046935257
0.06224685 0.052845854 0.024103504 0.061702408 0.071920596 0.034029 0.0077173333 0.07252816
0.011073695 0.10694426 0.17841193 0.09470539 0.04593841 0.15707545 0.19270693 0.12765652
0.08516483 0.15000649 0.016484635 -0.060919926 -0.038360387 -0.01105778 -0.048778523 0.051141158
-0.087866895 -0.046837635 -0.028534874 -0.045223698 0.043089658 0.050804403 0.018399341 -0.023607977
0.0115936175 -0.051103406 0.009184987 0.06267743 -0.050195724 0.013115246 0.077015385 0.024891106
-0.051330123 0.070540704 0.031979825 -0.052075032 0.0749552 -0.0068772626 -0.078443065 -0.08812866
-0.062871896 -0.061516665 -0.037224032 -0.06408057 -0.066615544 -0.007898392 0.07855102 0.017000213
0.029616715 0.045925833 0.019900093 0.047747035 0.0090906015 -0.023376264 0.07575061 0.1115611
0.10512993 0.08086156 0.03786706 0.07774134 0.069357015 0.12663443 0.16309336 0.065974675
0.068270706 0.0603476 -0.010511156 -0.011164942 0.028428141 0.005520342 -0.027329898 0.060426585
0.022652486 0.033982296 0.06206974 -0.024352139 -0.011270729 0.022261225 0.041445564 0.06715677
0.13422804 0.093775555 0.07781924 0.025513148 -0.033039395 0.06551414 -0.022034014 -0.025042003
-0.011500295 0.083279386 -0.036192823 0.07826118 -0.0056310873 -0.03584018 0.040872082 0.017772142
0.06590918 0.038714483 0.08320542 -0.009233196 -0.006937563 0.11078723 -0.013300116 0.018810652

cell.conv.bias f4 [64]
00000000: b048 a43d e8fe d43d eb7b 703a 4973 1f3d
00000010: 065d 3a3b f268 ae3c f3d2 20bc 646b 103c
00000020: 7c84 ee3d 823d 5f3d bdfa b23d fc30 0b3d
00000030: 91af 273d a8e9 bc3d 8d6f 5f3b 28b0 05bd
00000040: 268e 043e 2ffa b03d f6bf b33d b360 71bd
00000050: 7998 fc3d 5c06 b23d 72d3 cbbc 6315 953d
00000060: b0c5 95bc 8e37 663e ba8a f1bb 0b16 6cbc
00000070: e32f 563d 8589 bc3d 4d60 82bb 7862 b03d
00000080: a542 a23d 476d 133e 469e f93d 11b1 243d
00000090: 7e4d e93d 922f ed3c 6b25 f93d 6ce4 cc3d
000000a0: 2384 3d3d f07b 803d 6f6f cd3c 443a 833d
000000b0: 664a 3e3d b2c7 b83d 3981 6a3d 5397 4a3c
000000c0: 8782 b1bd 5b03 a3bd ea31 313d 4fe0 483d
000000d0: 31de 313d 86ff 57bc 13e6 de3c 7581 3d3d
000000e0: 9863 6dbd 4ba1 7cbd 53b7 c63a 8ecc 173d
000000f0: a09f 43bd 7dc9 67bd baaf 28bd 5a2e de3d
0.080216765 0.10400182 0.00091737387 0.038928304 0.0028436794 0.021290276 -0.009815919 0.008814666
0.11646363 0.054502018 0.08739231 0.033982262 0.040938918 0.09224254 0.003409359 -0.0326387
0.1294485 0.08641469 0.08776848 -0.05893011 0.12333769 0.08692619 -0.024881098 0.0727947
-0.018282741 0.2248213 -0.007371274 -0.014409552 0.052291762 0.09205917 -0.003978765 0.086125314
0.07922868 0.14397155 0.121883914 0.040207926 0.113917336 0.028953347 0.1216534 0.100045055
0.046268594 0.06273639 0.02507755 0.06407598 0.04645767 0.09022464 0.057252143 0.01236518
-0.08667474 -0.079596244 0.043260492 0.049042042 0.04342479 -0.01318348 0.027209317 0.046266038
-0.057956308 -0.06167726 0.0015160836 0.037060313 -0.047759652 -0.05658864 -0.04118321 0.108486846

aux_proj.weight f4 [16, 8, 1, 1]
00000000: 9dad 8e3d e3dd e53e cb68 b73e fba9 0dbe
00000010: f807 d13d 555d f9bd a7f9 75be cd9d ec3c
00000020: a01a 64be 888a 103f 1841 fe3d 10e4 c8be
00000030: dcaf 813e 43af b63d 0763 96be b9ec 94be
00000040: 0988 80bd 3cac 943d f43f 373d e37f d9bd
00000050: f281 e53e 90df babd a3fe aa3d 43f2 12bf
00000060: 11ae 44be d1ff 44bd dd89 a83e dbc2 a4be
00000070: f7d1 e13e 9147 f23d 27c9 bdbc c49b 13bf
00000080: 741a 113e 7882 0dbf e515 26be ed7e 56bd
00000090: 5011 dd3d 25c8 723d f3bb 573e c2c4 1a3f
000000a0: 622a e13d eb65 643e 3d39 263e 20d1 e6bd
000000b0: 333d 9d3e c90e d03d 4945 3a3e 1068 10be
000000c0: 1f0c a6be d598 c5bd 4c36 7abd bb8f e8be
000000d0: ed33 03be fa9b eabc 26a1 b13e 32df 00bf
000000e0: 7d4f ba3e 59d4 0b3f de7c c5bd 1db1 aebe
000000f0: e5c6 af3e 87c0 f2bd bb3f 133e 136e 00bf
00000100: eded 493e f531 b1bd 5efc 30bd bc78 00bd
00000110: f80d 783e 2dcd 023e b42f cabd 6b7f 743c
00000120: 3662 0f3e 6363 adbe 7102 773e 350f 523e
00000130: c661 92be ebc3 8f3d 912b 58be 8ea8 8c3d
00000140: 4754 d8bd 559f 12be 3891 b9bd 1e15 713e
00000150: 17bf b1be 1a0c 9c3e e5fe c6be e420 b43e
00000160: 6dba 673e af21 b6be cb80 15be e996 c43e
00000170: 1f58 133e e304 263e c067 86be eb0c 8cbd
00000180: 63f4 b0be 6861 8a3d 7b33 26be 3343 06be
00000190: 4d92 e6be f0eb aa3e 4e55 5a3e 167d 8e3d
000001a0: 0861 2ebe 481f b3be 1023 74be ac2f af3e
000001b0: f1c4 9bbe d03b b23e 25ac a03d f42e 6c3d
000001c0: f0c8 a13e 2944 91be 3964 c0be 66b9 853e
000001d0: fcd9 cabe a445 f5bd b22d c4be 6d59 033f
000001e0: e6fc 1ebe 6967 533e 3955 0a3e 3d76 6ebe
000001f0: 59c3 953d 1183 eb3c d889 79bc 76da aebd
0.06966708 0.4489585 0.35822138 -0.13834374 0.10206598 -0.12176005 -0.24021016 0.028883839
-0.22275782 0.5646138 0.124147594 -0.39236498 0.25329483 0.08920147 -0.29372427 -0.29086855
-0.06275947 0.072594136 0.044738725 -0.106200956 0.44825703 -0.091246724 0.08349349 -0.5740091
-0.19207026 -0.048095528 0.3291768 -0.32179913 0.44105503 0.118300565 -0.023167206 -0.57659554
0.14170247 -0.55277205 -0.1621929 -0.05236714 0.10794318 0.059272904 0.2106779 0.6045648
0.10994412 0.22304504 0.16232772 -0.11270356 0.30710754 0.1015907 0.18190493 -0.14102197
-0.32431123 -0.09648291 -0.061086938 -0.45422158 -0.12812777 -0.028638829 0.3469326 -0.5034057
0.3638877 0.5462089 -0.09642957 -0.34119502 0.34331432 -0.11853128 0.1437978 -0.5016796
0.19719668 -0.08652107 -0.043209426 -0.03136514 0.24224079 0.12773581 -0.0987238 0.014922957
0.14002308 -0.3386489 0.24122025 0.20513614 -0.2859022 0.0701979 -0.2111037 0.06868087
-0.1056295 -0.14318593 -0.090609014 0.23543212 -0.34716102 0.30477983 -0.38866344 0.35181344
0.2262971 -0.35572574 -0.14599912 0.38396385 0.14389084 0.16212802 -0.2625103 -0.068384014
-0.34561452 0.0675686 -0.16230576 -0.13111572 -0.45033494 0.3338313 0.21321604 0.06957452
-0.17029202 -0.34984803 -0.238415 0.34216058 -0.30423692 0.34811258 0.07845334 0.057661965
0.31598616 -0.28372315 -0.37576464 0.2611801 -0.39619434 -0.119761735 -0.38316113 0.5130833
-0.1552616 0.20644917 0.13509072 -0.23287292 0.0731265 0.02874902 -0.015230618 -0.08537762

aux_proj.bias f4 [16]
00000000: 0c97 833e 636f 6abc 0aa2 c03d 618e 7b3e
00000010: 2804 c53e 534a 863d 5a55 25bd 592c a2be
00000020: 796f 733e 9449 5ebe 9359 453e 7266 8cbe
00000030: 2ba8 843e 3304 2e3d 8667 49be ad19 313e
0.25701177 -0.014308783 0.094059065 0.24566032 0.38479733 0.06557145 -0.0403646 -0.3167446
0.23772992 -0.21707755 0.19272451 -0.2742191 0.25909552 0.042484473 -0.19668397 0.17294951

head.weight f4 [1, 16, 1, 1]
00000000: 4a59 683e 979b bb3e 54e4 863e 5459 e43e
00000010: e96d 77be f1ab 9b3e 47ae 103f bf8e a63e
00000020: 90c6 c63e e9ea 4cbe fa77 c3be dc65 b3be
00000030: 18f4 a7be 9424 90be bd7b b2be f17f 4a3b
0.22690311 0.36642143 0.26346076 0.44599402 -0.24163021 0.30404618 0.56515926 0.32530782
0.38823366 -0.20011486 -0.38177472 -0.3503865 -0.32803416 -0.28152907 -0.3486003 0.0030899013
