experiments/sweeps_phase3/p3_tv0.005_time0.0005_run08.pt (torch, 63493 bytes, 9 tensors)

encoder.0.weight f4 [8, 1, 3, 3]
000000 ad de 9f be ae 88 77 3d ed ec b7 3c 65 8b 80 bc
       -0.31224576 0.060433082 0.022451842 -0.015691468
000010 a1 f2 21 3e a4 33 9a be e3 da 8f bc 5d a7 73 bd
       0.15815212 -0.30117524 -0.017560428 -0.059485782
000020 00 9f 34 3e b0 2b 19 3e 50 3b 31 3e 7d 34 ed bd
       0.17638779 0.14958072 0.17307782 -0.11582277
000030 c2 a2 b0 3e 5c d7 70 3e 8e 39 8b be c2 e2 02 be
       0.34499174 0.23519653 -0.27192348 -0.12781814
000040 f2 b9 8e 3e 46 0d 5d be 5e 08 59 3e 0c c6 81 be
       0.2787624 -0.21587095 0.21194598 -0.2534641
000050 13 dc bd 3d 30 46 b0 be de ca 67 be 64 2e a1 be
       0.092704915 -0.3442855 -0.22635981 -0.31480706
000060 2e d7 da bd e9 c5 8b be 2d 41 35 be 40 db 66 3e
       -0.106855735 -0.2729943 -0.17700644 0.22544575
000070 23 0e d0 3d c8 90 9d 3e f3 33 31 bc 8f d3 3a bc
       0.10158946 0.30774522 -0.010815608 -0.011402979
000080 ff de b9 3e ae 2d 85 3d 2a 1c 00 3e bf d2 50 3e
       0.36302945 0.06502853 0.12510744 0.20392893
000090 ab 27 86 3e 87 cf 94 be 7f 1d d1 bd 01 f0 5f be
       0.2620214 -0.2906458 -0.10210704 -0.21868898
0000a0 6f f0 94 3e 43 46 84 3e 0f 58 86 bd de c2 9e bc
       0.29089686 0.25834855 -0.065597646 -0.01938003
0000b0 86 36 35 be 5a ec c4 3e ba 63 41 3d 05 bc 48 3d
       -0.1769658 0.38461572 0.047214247 0.049007434
0000c0 5f 56 f2 3e 87 66 27 3c fc 62 c7 3d d9 1c cc bc
       0.4733152 0.0102173155 0.09735677 -0.0249161
0000d0 65 58 16 be 9d 4f 14 be 0c 8b b5 bd 3b ea ad 3d
       -0.14682157 -0.14483495 -0.08864412 0.084919415
0000e0 45 3a 80 3d 3d de 00 be a9 7e 18 be ed 4c cc bd
       0.06261114 -0.12584777 -0.14892067 -0.0997561
0000f0 a8 f7 f6 3b 1c 5e 92 3e e9 bb 5e be 80 24 b8 3e
       0.007536847 0.28587425 -0.2175137 0.35965347
000100 99 0b 82 3e 20 a9 2b 3e aa d8 06 be 70 83 95 3e
       0.25399473 0.16763735 -0.13168588 0.2920184
000110 ed c3 93 3c 90 ba 51 be 00 47 ab bd d6 9e 44 3e
       0.01803776 -0.20481324 -0.083631516 0.19201216

encoder.0.bias f4 [8]
000000 56 e8 99 3e 89 9f 10 be ac 7c 40 3e 62 bd 00 3d
       0.3006007 -0.14123358 0.18797559 0.03143061
000010 70 c3 b9 3e 0a 75 94 bd c9 4a 86 3e 70 0e 9c 3e
       0.3628192 -0.07248886 0.26228932 0.30479765

encoder.2.weight f4 [8, 8, 3, 3]
000000 70 19 20 3e a2 9d d3 3c 83 8d 01 3e 4d 7a 1f 3e
       0.15634704 0.025832001 0.12651639 0.15573998
000010 59 cb 42 3e 57 a3 d5 3c 9f fb 65 3d e7 d9 a7 3d
       0.19022883 0.026078863 0.056148168 0.081958584
000020 b6 a1 74 3e d4 93 a1 3d 36 e2 1b be b7 40 cf bd
       0.23889813 0.07889524 -0.15223011 -0.10119765
000030 80 93 08 3e cd d4 6e bd 3f 56 3f be 46 83 83 3c
       0.13337517 -0.05830841 -0.18685244 0.016053807
000040 ff d6 0a bd 75 30 66 be a2 0a 51 3e f9 a8 3a 3e
       -0.033896443 -0.22479422 0.20414212 0.1822852
000050 f8 4a bd 3d c6 96 a2 3d 2b ff 45 3e 53 f1 6b 3e
       0.09242815 0.07938914 0.1933562 0.23041277
000060 97 d4 03 bd f1 cb ad 3d f9 1e 2d 3d 0e 39 2c bd
       -0.032185163 0.08486164 0.042265866 -0.0420466
000070 f9 f4 72 3d 99 7f 0c 3d 6f 8d 64 bd 31 6a 69 bd
       0.059315655 0.034301374 -0.055798944 -0.056986038
000080 9d ef b7 bc 72 90 0f bc c9 4d b7 bd 95 73 97 3d
       -0.022453124 -0.008762466 -0.08950383 0.073950924
000090 1e 12 da 3d 12 ac 07 3e 77 a7 7c bc 12 18 8d bd
       0.10647987 0.13249233 -0.015420786 -0.06889357
0000a0 e4 8b d8 3d 1f 48 26 3a 4e 41 e1 3d 31 cc 05 3b
       0.10573557 0.00063431443 0.10998784 0.0020415897
0000b0 2e fb b8 3d 79 ea 2c 3e 41 25 1a 3e 1c 0d 24 bd
       0.09032284 0.16886319 0.15053274 -0.040051565
0000c0 03 a3 3c 3e 82 47 2c bd 8a 43 f5 bd 46 12 c1 3a
       0.18421559 -0.042060383 -0.11975773 0.0014730177
0000d0 b5 3d c0 bd 32 98 95 bd c8 7e c6 3b 31 99 0b 3e
       -0.0938677 -0.073044196 0.006057594 0.13632657
0000e0 70 b8 10 bc 9d 3d d8 3d f6 0a ba 3d 02 64 c8 bb
       -0.008833036 0.10558627 0.09084122 -0.0061154375
0000f0 08 62 59 3d 0f a9 34 3e 57 1d 35 3d 4d cc 48 bd
       0.053072006 0.17642616 0.044217434 -0.04902296
000100 32 17 db 3d c9 75 05 bd 7b f7 d8 3b 57 c5 b1 bd
       0.106977835 -0.03258303 0.006621299 -0.08680218
000110 8e 08 18 bd 53 b4 e2 b9 db 59 56 bd 12 07 0a 3e
       -0.037117533 -0.0004324043 -0.052331787 0.1347926
000120 0b 9d 17 3e 87 a4 c7 3d 51 c0 3f ba 50 bb dc 3b
       0.14806001 0.09748178 -0.0007314729 0.0067361966
000130 25 ea 8f 3d e7 02 16 3d ac e9 8c 3d 6a e0 69 3e
       0.070270814 0.03662386 0.06880507 0.22839513
000140 0a e2 ff 3d bb 10 ed bb de 0f eb bd 20 85 74 3c
       0.124942854 -0.0072346604 -0.11477636 0.014924318
000150 04 b3 6c 3d b6 37 2a be 46 36 2b be 05 cf 19 3d
       0.05778791 -0.16622815 -0.16719922 0.037550945
000160 58 8e fa bd c7 7b 05 be 4e 84 89 3e d0 b2 19 3e
       -0.12234181 -0.13035499 0.26858753 0.15009618
000170 52 5d d7 3d c0 78 20 3e 7b 64 43 3e e5 bc 13 3e
       0.10515846 0.15671062 0.19081299 0.14427526
000180 ae d3 65 3e 79 70 0c 3e ca d7 dc 3d ca d6 f6 3b
       0.2244403 0.1371478 0.10783346 0.007532929
000190 ce 6c 61 3d 03 8e 18 3b 2b ca c3 bc 99 dd 1c bd
       0.055035405 0.0023278005 -0.023900112 -0.03829727
0001a0 ed 0d f0 bc ac 80 b5 3b 39 e6 9c bd 82 9c fd 3d
       -0.029303515 0.0055390205 -0.07661099 0.12383367
0001b0 e8 fb 14 3e 50 34 9b 3d d9 6f b0 3d f0 66 b9 3c
       0.1454922 0.07578337 0.08615083 0.022632092
0001c0 3d 6c f2 bc e1 39 26 3e b6 00 28 3e 98 4f 1c bc
       -0.029592628 0.16233017 0.16406521 -0.009540461
0001d0 51 3a 06 3e f7 d2 f1 3d fe 75 19 bd 9a a2 c7 3d
       0.13108183 0.118078165 -0.03746604 0.09747811
0001e0 61 65 36 3e d6 24 11 be 34 ca 29 be 19 11 dc 3d
       0.1781211 -0.14174208 -0.1658104 0.107454486
0001f0 3c ed 4c be 13 1f 85 be 28 1a 54 3e d1 9c c4 3d
       -0.20012373 -0.2600027 0.20713103 0.09600223
000200 aa 46 ac 3d 69 40 f8 3d 05 8d 96 3d ab c6 48 3d
       0.084119156 0.1212166 0.07351116 0.04901759
000210 31 34 a9 3d 39 0b 0d 3e e4 95 7c 3d 1b 43 86 bd
       0.08261908 0.13773812 0.061666384 -0.06555768
000220 9e e1 19 3e b9 27 6c bd 9a 2f 18 bd aa 26 99 3d
       0.15027472 -0.05765507 -0.03715477 0.07478078
000230 2c 66 24 3d f3 aa 72 bc 47 73 b3 3d 7b e9 c1 3c
       0.0401365 -0.014811265 0.08762222 0.023670902
000240 30 30 11 3e 93 92 5c 3d 9e 41 ce 3c ec 51 c9 3c
       0.14178538 0.05385072 0.025177773 0.024575196
000250 27 c6 fc 3d d9 1a 81 3d 5d 61 23 3c d9 95 5e 3e
       0.12342482 0.06303949 0.009971944 0.2173685
000260 04 dc bb 3d cf c5 fe 3d 75 fb 18 3c cf c9 8c 3c
       0.09172824 0.12440073 0.009337296 0.017186074
000270 a4 45 af 3c 98 c9 61 be 0a 12 e6 bd 24 67 12 3e
       0.021395512 -0.22049558 -0.112339094 0.14297158
000280 c6 3d 26 bd 29 10 39 be 0b e7 49 3e 5b dc f0 3d
       -0.040586255 -0.18072571 0.19717042 0.117607795
000290 95 00 35 3e 2c b8 79 3e e7 91 85 3e c0 34 a7 3d
       0.17676003 0.24386662 0.26087877 0.08164358
0002a0 a2 5e 22 3e ae 2b 80 3d 36 cd f8 3d 86 b5 ca bc
       0.15856412 0.06258331 0.12148516 -0.02474476
0002b0 20 fd b5 bd 63 b5 f9 3c d7 a9 ef ba a1 75 5c bd
       -0.088861704 0.030482 -0.0018284869 -0.053823117
0002c0 2a dd c7 3d 27 98 a3 bd 71 7f 82 bd 2f 07 80 bd
       0.097589806 -0.07988005 -0.06371964 -0.0625137
0002d0 fb c0 c4 bc 71 97 1a 3e 83 fb a4 3d c6 52 aa bc
       -0.024017802 0.15096833 0.080557846 -0.020791423
0002e0 33 13 95 bd 56 e6 da bc 63 a5 c0 3d d4 3a 4b 3d
       -0.072790526 -0.02672116 0.09406545 0.04961665
0002f0 98 05 a5 bd 80 75 23 3e 3c 77 10 3e a6 1a 46 bc
       -0.080577075 0.15962791 0.14107984 -0.012091314
000300 1f ae b8 3c 21 25 15 be 37 21 a3 bd 3a 66 96 bd
       0.022543965 -0.14564945 -0.079653196 -0.07343717
000310 4c 75 72 bd e0 10 19 bd 40 f5 1e 3d 84 ed ce 3d
       -0.059193894 -0.03736961 0.038808107 0.10103896
000320 0c b0 11 bc 83 08 83 3d ab a1 4f 3e b2 8b 1c 3c
       -0.0088920705 0.06398108 0.20276515 0.00955479
000330 b1 6e cd 3c d9 3b 8c 3d 9c eb 8d 3b 74 f3 c0 3d
       0.025077196 0.068473525 0.0043310653 0.09421435
000340 2f ab bd 3d 3a 3c 09 3e cb 71 ee 3d 25 86 6c bd
       0.09261166 0.13401881 0.11642798 -0.057745118
000350 bb a2 ff 3d 4c 72 09 3d 72 f6 d3 3d e2 f8 19 bd
       0.1248221 0.033556268 0.1034974 -0.03759087
000360 2c 61 90 3d 3e 2f e0 bd 59 22 c5 bd 23 28 0b be
       0.07049784 -0.10946511 -0.09625692 -0.1358953
000370 44 25 6a 3a 67 5d a3 3d 1c 2b 7c bd f8 6c 8a bd
       0.00089319446 0.079767995 -0.06156455 -0.067590654
000380 41 18 2a bd 23 ee 85 bd 83 8d 4d 3e 46 43 69 3d
       -0.041527037 -0.065395616 0.20073514 0.056948923
000390 9e b6 8b bd a6 37 8b 3e 10 81 6c 3e d3 f0 ad 3d
       -0.06821941 0.27190894 0.23096108 0.08493199
0003a0 f1 5b a7 3e 87 c8 5d 3e d2 b0 d1 bd 16 89 f6 bd
       0.32687333 0.21658526 -0.10238804 -0.12037866
0003b0 3f 0c a0 bc 51 ad 20 be 5f 03 54 bd 28 33 1b 3d
       -0.01953709 -0.15691115 -0.051761027 0.037890583
0003c0 ce 69 b2 bc db 97 10 be 4a 20 32 3e 56 7b 5f 3d
       -0.021778967 -0.14120428 0.1739513 0.05456098
0003d0 69 57 d8 3c c0 17 4a 3d 6c 44 8a 3d 8c 45 03 bd
       0.026408868 0.049339056 0.06751332 -0.032048747
0003e0 55 cd 63 3d 0c 0f 1c 3d d5 d1 90 bd 12 a1 dd 3d
       0.05561574 0.038100287 -0.07071272 0.10821737
0003f0 a1 d8 35 bd 16 cc b1 3d 91 80 2f 3d 91 95 23 bd
       -0.044396047 0.086815044 0.04284722 -0.03993756

encoder.2.bias f4 [8]
000000 23 b4 21 3e 26 55 7b 3c af bc 13 bd 5e 1f 4c 3b
       0.15791373 0.015340125 -0.036068615 0.0031146626
000010 1f a4 3d bd 8d a2 86 3d 68 78 12 3d db 4f aa bd
       -0.046299096 0.06573973 0.03575936 -0.083160125

cell.conv.weight f4 [64, 24, 3, 3]
000000 06 23 2c 3d 9a 5a 81 3d 9f c7 0b 3d 97 64 d1 3d
       0.04202559 0.06316109 0.03412592 0.10224264
000010 78 a3 63 3d 9c 18 bf 3d 45 68 7e 3d 3a 01 6e 3d
       0.055575818 0.09330866 0.062111158 0.05810664
000020 38 f2 6d 3c a3 2c ff 3d fc ec f6 3d 0f 13 bd 3d
       0.0145230815 0.12459686 0.1205692 0.09232151
000030 c1 b7 3a 3e 48 f5 35 3e e9 e3 d0 3d b8 24 47 3e
       0.18234159 0.17769349 0.101997204 0.19447601
000040 c7 79 10 3e 77 2c 34 3e d2 21 d9 3d 2d 24 01 3e
       0.14108954 0.17595087 0.10602154 0.12611456
000050 21 20 08 3d ed 5d c1 3d 7a cf 9b 3c 75 c0 b8 3d
       0.033233766 0.09441743 0.019019831 0.09021083
000060 e8 9d 21 3e 2b 8c 90 3d b7 7e 58 3c cd 07 a9 3c
       0.15782893 0.07057985 0.013213805 0.020633603
000070 b5 95 18 3c f8 d6 4e 3c aa c5 b1 bc d5 09 63 bd
       0.009313037 0.012624495 -0.021700699 -0.0554293
000080 ba a3 26 bd f2 e0 29 3c 49 80 36 3d 53 48 87 39
       -0.040683486 0.010368573 0.044555936 0.00025803092
000090 c4 cd 5a bd dd 3c 36 3d 05 b1 5c bd 3d 4c 04 3c
       -0.05341889 0.044491637 -0.053879756 0.008074817
0000a0 65 c3 1f bd e7 45 55 bd 42 6d fc 3c e5 b8 79 bc
       -0.039004702 -0.052068617 0.030813817 -0.015241836
0000b0 6d cc 78 3d 2b 64 b4 bd d7 54 f1 bc 44 e7 27 bd
       0.06074183 -0.08808168 -0.0294594 -0.040992036
0000c0 34 bb 96 3c 0e a9 a6 bd 4a 39 b6 bd 00 3c 0d 3d
       0.018399812 -0.081377134 -0.08897646 0.03448105
0000d0 c1 93 64 bd c3 ed 60 3c bc bb 08 3d 0f 32 97 bc
       -0.05580497 0.013728562 0.033382162 -0.018456487
0000e0 46 48 79 bd 47 e2 1b 3d 7e 94 57 bc 4b 41 0c bd
       -0.06085994 0.03805759 -0.013157962 -0.034241956
0000f0 50 2c 74 3d d9 6a 83 bb f6 4e 73 bd c9 55 d7 3c
       0.059612572 -0.00401054 -0.059401475 0.026286023
000100 0b c5 83 bd 22 e6 02 bd 2c 95 b1 bc e1 ea cf 3b
       -0.06434067 -0.031957753 -0.021677576 0.0063451384
000110 61 a7 fd bc cc cc ed 3c aa 94 2c 3c 00 6f 87 bd
       -0.030963602 0.029028319 0.010533491 -0.066129684
000120 7b 25 f8 bc 9c 77 30 3d 44 6a 70 3d ef e3 6e 3d
       -0.03029131 0.04308282 0.058695093 0.058322843
000130 84 9d 37 3d dc 74 13 3d 49 e2 17 3d bc 93 9a 3c
       0.044827953 0.036000118 0.037081037 0.018869273
000140 ed 05 05 bc 78 e2 6d bd 63 c7 45 3d db 56 85 3d
       -0.008119089 -0.058077306 0.048285853 0.06510707
000150 b4 4b 8f 3d f1 eb 54 3d d4 b1 dd bc f4 79 1b 3d
       0.06996861 0.051982824 -0.027062334 0.0379581
000160 9e 3f f2 bb ee e2 a2 3c d2 ca 4f bd 96 08 20 3d
       -0.0073928377 0.0198836 -0.050730534 0.03907069
000170 04 e3 a8 bc 86 3e 90 3a c6 b3 42 bd ec 51 47 3d
       -0.020616062 0.0011004962 -0.047534727 0.04866211
000180 e7 31 3c 3d 61 15 81 3d 19 0e 81 3c 73 62 9a 3c
       0.045946028 0.06302906 0.015753793 0.018845772
000190 14 41 89 3d e1 90 0b bc 86 d0 1b bd 3e 62 0c bd
       0.06701866 -0.008518429 -0.03804066 -0.03427338
0001a0 02 96 52 3c 01 1d f7 bc 72 13 0b bc b9 07 69 3c
       0.012853147 -0.030165197 -0.008488523 0.014223033
0001b0 00 47 42 bd ba 59 81 bd 30 3c 75 bd 6c d8 df bd
       -0.047430992 -0.06315942 -0.059871852 -0.10929951
0001c0 97 04 b5 bd 0b da 1e bd de db 98 bd 5f f7 60 bc
       -0.08838766 -0.03878216 -0.07463811 -0.013730853
0001d0 6f 9f ca bd 6c 28 3a bd 36 cc 76 3d 0b dc 3b 3d
       -0.09893691 -0.045448706 0.060253344 0.045864146
0001e0 4d da 1a bb 79 d7 5a 3d 20 df c4 bc 4c 58 25 3c
       -0.0023628653 0.053428147 -0.024032176 0.010091852
0001f0 65 89 01 3d 77 25 e5 3c c3 a0 ab 3c 9e 5e 82 3d
       0.03162517 0.027971966 0.02095068 0.06365703
000200 22 f8 e5 bb 99 2f 61 bd 85 12 7a 3d 2a 57 1d 3c
       -0.007018105 -0.054977033 0.061052818 0.009603301
000210 ad 37 1c bd 5e 66 4b bd 6b a1 32 3b 24 b1 26 bd
       -0.038139034 -0.04965817 0.0027256857 -0.04069628
000220 1e 33 03 bc 7d 41 ac bd 32 2a ed bc 5b 2b b5 bd
       -0.008007793 -0.084109284 -0.028950784 -0.0884616
000230 02 93 c8 3b e4 aa a3 bd ad f5 36 bd 0c f0 d2 bd
       0.0061210403 -0.07991579 -0.04466789 -0.102996916
000240 96 3a 88 bd 21 b5 78 3c e1 cc 4d bd 8e bd 40 bd
       -0.066517994 0.015179903 -0.050244216 -0.047055773
000250 fd 5d 04 bd 7c 70 3f 3c 9b fa 23 3d 63 90 96 bd
       -0.032316197 0.011684533 0.040033918 -0.07351758
000260 20 92 79 bd 01 58 2c bd 71 fd 2e 3d 23 bd 58 bd
       -0.06093037 -0.042076115 0.04272217 -0.05291475
000270 0b 82 f8 3c fd 80 db 3c f2 14 81 3d 80 be 85 3d
       0.030335447 0.026794905 0.06302823 0.065304756
000280 6b 71 84 3d e3 02 b2 3c e6 8c e9 3c 72 f0 47 3c
       0.06466945 0.021729892 0.028509568 0.012203323
000290 48 fb c1 bd f4 8e 8b 3c 21 7b 9c bd d2 a1 7b bc
       -0.09471756 0.017035939 -0.076406725 -0.015358405
0002a0 83 37 8b bd 97 50 26 bd c2 1d 80 bd 45 b9 36 3d
       -0.067976974 -0.0406042 -0.06255676 0.04461028
0002b0 2f 45 71 3b 91 66 63 3d 13 33 47 3d 02 6f be 3d
       0.0036814918 0.055517737 0.048632693 0.09298517
0002c0 75 fc 4c 3b ed 29 35 bc 59 b4 97 3d a7 a2 4d bb
       0.0031278406 -0.011057359 0.074074455 -0.0031377466
0002d0 5f 0a 37 3d 25 a0 22 bd f9 90 0e bc d5 4e bd 3c
       0.044687625 -0.039703507 -0.008701556 0.02310888
0002e0 46 23 a7 3c c8 28 90 bd e7 7e 26 3c c5 79 b6 bc
       0.020402562 -0.070390284 0.010162092 -0.022274861
0002f0 ae dd ad bd 2b 16 82 3d a0 69 b8 3b fa c8 98 bc
       -0.08489548 0.063518845 0.005627826 -0.01865052
000300 92 a3 cf bc 26 4c 55 bc 9a ab a1 bb 3c 54 a5 3d
       -0.025346551 -0.0130186435 -0.0049337866 0.08072707
000310 8a 1a b2 3d 81 0b bb ba 10 08 71 3c 76 42 b7 bb
       0.08696468 -0.0014270396 0.014711395 -0.0055926396
000320 4c 49 f5 bc 19 59 33 3c ff e5 0d bc 4e a5 82 bc
       -0.029942177 0.0109465355 -0.008660792 -0.015947964
000330 d4 ac 61 3d e4 7e 8a 3d 61 f7 0e bc ea 4f 93 3c
       0.055096462 0.06762484 -0.008725972 0.017982442
000340 d7 55 08 bd c5 46 aa bd 1f 5d 59 bd 9e 06 8a bd
       -0.03328499 -0.083142795 -0.053067323 -0.067395434
000350 a7 70 90 bd e1 05 aa bb 5c 2b a3 bc 16 84 ff bc
       -0.07052737 -0.005188689 -0.019918136 -0.031190913
000360 94 e8 6c 3d 60 68 08 3e 6a 07 4e 3d ba c2 73 3d
       0.05783899 0.13321066 0.05030004 0.059511878
000370 a1 bc 95 3d 0f d2 47 3c b3 39 0a 3e ca 5b 0e 3e
       0.07311369 0.012196078 0.13498573 0.13902202
000380 a2 36 0b 3e 5e 5e 0a 3e fd 72 e7 3c 8f 75 0e 3d
       0.1359506 0.1351256 0.028253073 0.03478008
000390 c4 4f fe 3d 32 dc 0d 3c 06 13 b3 3d 6c 38 bb 3d
       0.12417558 0.008658456 0.08743863 0.09141621
0003a0 31 33 04 3e 54 7a e1 3d 6c 0f 98 bc 55 88 8d 3d
       0.12910153 0.1100966 -0.018562041 0.06910769
0003b0 61 ab a4 3d db 05 7f bb e9 16 0f 3d 91 90 c3 3d
       0.080405004 -0.0038913402 0.03493396 0.09549058
0003c0 16 9a a9 3d 14 6a cb 3d ca 37 ca 3d bd 2b 5a 3d
       0.08281343 0.09932342 0.09873922 0.05326437
0003d0 b3 54 09 3d 8c 24 d1 bc b0 5c 3a bd 24 34 2d 3d
       0.03352804 -0.025530122 -0.04549855 0.042286053
0003e0 23 63 bd 3d 24 aa 76 3d 3f a1 a9 bc 2d 22 27 3d
       0.092474245 0.060220852 -0.020706771 0.040804077
0003f0 c1 bf 19 3d a2 78 2b bd d2 9f 91 bc 4e f9 a7 3d
       0.037536386 -0.04186309 -0.017776404 0.08201848

cell.conv.bias f4 [64]
000000 6b bf 7c 3d 1c 4d ae 3d 05 11 9f bd 69 2e 01 3d
       0.061705988 0.08510801 -0.07766918 0.0315384
000010 1e 5b 95 3d 41 de a2 3d c3 63 aa 3d c9 e0 74 3d
       0.0729277 0.07952548 0.08319809 0.059784684
000020 64 38 06 3d 64 77 e7 3c dc 75 02 3e e5 54 d6 3d
       0.032768622 0.028255172 0.12740272 0.10465411
000030 6e 1d f4 3d 0f 52 68 3c f2 c5 ad 3d 8e 3d f9 3c
       0.11919676 0.014179721 0.08485021 0.03042486
000040 d1 27 ba 3d c2 43 a0 3d 70 a6 40 3d 3f e4 b1 3d
       0.090896256 0.07825424 0.047033727 0.086861126
000050 f5 bc 8b 3b 24 b6 2f 3d 42 92 ff 3c 06 21 74 3d
       0.004264469 0.042898312 0.03119767 0.059601806
000060 8b a1 8c 3d c4 84 af 3d a5 f3 13 bd 7a 70 1a bd
       0.068667494 0.08570245 -0.03612103 -0.037704922
000070 ca 74 ea ba c4 4e 50 bd e5 17 8b 3d 54 fe 28 3d
       -0.0017887589 -0.050856367 0.06791667 0.04125817
000080 1d 26 39 3d c3 c1 63 bc 55 90 79 3d c6 e5 d5 3d
       0.045202363 -0.013901177 0.06092866 0.104442164
000090 51 12 b5 3d 82 a0 77 3d eb 5f b8 3d 7a a2 9f 3d
       0.08841384 0.060455807 0.0900267 0.07794662
0000a0 50 16 04 3c 2a be bf 3b e6 3b 8f 3d c2 19 8d 3d
       0.00806196 0.0058515267 0.069938466 0.068896785
0000b0 72 41 b4 3d 86 c3 1b bd b6 a3 44 3d f7 aa a0 3d
       0.08801545 -0.038028263 0.04800769 0.07845109
0000c0 73 47 06 3d 56 cc 3c bd 73 2e 05 3c 51 f7 f2 3a
       0.032782983 -0.046093307 0.00812875 0.0018536841
0000d0 a1 b5 db 3c f0 38 a5 bc 8c 6b 09 bd ca 28 5e bc
       0.026820006 -0.020168751 -0.03354983 -0.01355953
0000e0 db 48 f5 3c 39 b1 1e bd 04 d6 d6 3b 7a b3 18 3b
       0.029941967 -0.03874323 0.0065562744 0.0023300336
0000f0 36 93 19 3c cc 4c 8f 3c 2c 97 ad 3c 61 e4 80 3d
       0.009373477 0.017492674 0.021190248 0.0629356

aux_proj.weight f4 [16, 8, 1, 1]
000000 23 f6 f2 be 91 f6 12 3e 85 a8 b2 be e7 63 23 be
       -0.47453412 0.1435187 -0.34894195 -0.15956078
000010 f4 0a 44 3e d3 c2 fb 3e e4 ff 6b 3d a9 7f 1f 3e
       0.19144803 0.49172077 0.057617083 0.15576042
000020 d9 68 a7 be eb a5 a7 bd 45 e9 af be 7e d1 18 3e
       -0.3269718 -0.08185943 -0.34357658 0.14923665
000030 12 f4 c6 bd 38 da e6 3e b9 19 a6 3d bc b2 80 be
       -0.097145215 0.45088363 0.08110375 -0.25136364
000040 b7 b4 b0 3e ac ee 47 be eb 12 60 3e de 20 4f be
       0.34512874 -0.1952464 0.21882217 -0.20227382
000050 87 c2 d2 bc dd ed d2 be 14 4f bc be 41 7e d0 3d
       -0.025727523 -0.411971 -0.36779082 0.10180331
000060 36 80 b4 bd 7d d7 31 bc be a2 e0 bd 21 ed b7 bd
       -0.08813517 -0.010854599 -0.109685406 -0.089807756
000070 ac c5 ac be 00 10 fa be b8 30 33 3d 3c ac af be
       -0.33744562 -0.48840332 0.043747634 -0.34311092
000080 8b 8b 64 bd 17 14 4e ba 14 92 e7 3e 19 b5 92 bc
       -0.05579714 -0.000786127 0.45228636 -0.01790862
000090 9a f2 a2 be 9b 77 88 be b4 8f 09 3e b2 28 69 3e
       -0.31825715 -0.26653752 0.13433725 0.2276943
0000a0 17 f3 92 3e 98 52 bb 3e 3c 4e 83 3d 3e 53 0f be
       0.28701088 0.36586452 0.064114064 -0.13996598
0000b0 6d 07 de bd 31 f3 bf be d4 ab ee bc 41 dd 90 be
       -0.1084126 -0.37490228 -0.029134668 -0.28293803
0000c0 ab 5d ef 3e f8 f4 ef 3d 41 14 3b 3e 46 18 a9 be
       0.4675115 0.11716646 0.18269445 -0.33026332
0000d0 7c c3 1a bc db 46 97 3b 26 a9 ef 3d 56 92 33 3e
       -0.009446021 0.004616601 0.117021844 0.17536291
0000e0 65 37 5d 3e c4 b6 09 be 9e 6d 1c be b4 ef 04 be
       0.21603163 -0.13448626 -0.1527619 -0.12982064
0000f0 01 45 69 3e 87 55 ad be 7d 96 8d bd ac f6 ad 3e
       0.22780229 -0.33854315 -0.06913469 0.33977258
000100 10 00 72 be c3 93 35 3e e1 98 1a be a4 6b 57 3e
       -0.23632836 0.17732148 -0.15097381 0.21037155
000110 37 2c d9 3d 24 37 64 3e f9 98 8a 3d a6 79 d2 bb
       0.106041364 0.2228666 0.067674585 -0.006423193
000120 f4 89 96 bc 6e f0 5a be 27 83 c2 3d e8 19 24 3e
       -0.018376328 -0.21380779 0.094976716 0.16025507
000130 5c a1 0e 3e 46 33 60 bd 17 88 13 be b3 d8 ac be
       0.13928741 -0.0547364 -0.14407383 -0.33759078
000140 43 71 a3 3d 7e ec 5e bd 70 f2 44 3e 53 44 80 bd
       0.07980587 -0.054424755 0.19233108 -0.06263032
000150 b3 09 8b 3e 73 2b e8 3c 10 c6 9a 3e 75 be 11 3e
       0.27155837 0.02834103 0.30229235 0.1423281
000160 35 64 2e be 24 ce ec be 99 55 04 3e f1 c7 e7 3d
       -0.17030413 -0.46251023 0.12923278 0.11317433
000170 91 94 d1 3c a3 7d 58 3c c3 41 29 3e 34 53 29 be
       0.025583537 0.013213548 0.16528992 -0.16535646
000180 36 48 fa be bb 54 be be 4d 41 4b 3e b6 74 9e 3d
       -0.48883218 -0.3717402 0.19849129 0.077371046
000190 91 d8 ba bd 45 dc c8 3d f4 9f 49 3e 9c 66 3c 3d
       -0.09123338 0.09807638 0.19689924 0.045996293
0001a0 aa 78 82 3e d6 7c 01 3e 0c 05 83 bd bb 60 e5 3c
       0.25482684 0.12645277 -0.06397447 0.028000226
0001b0 58 42 f4 3d 4f 7a e8 be 87 27 93 3e dd 6a ae 3e
       0.119267166 -0.45405814 0.28741094 0.34065905
0001c0 34 ba b3 be 4f 3e ae be c0 e9 db be 28 57 6e 3e
       -0.35103 -0.34031913 -0.42951775 0.23275435
0001d0 b2 08 71 3e ee 2b 51 be 5a ea 6f 3e ac 7f 8d 3e
       0.23538473 -0.20426914 0.23429242 0.27636468
0001e0 19 78 bc 3d 0f 0a bf 3e 16 98 a2 3e c7 7c 71 3d
       0.09202594 0.37312362 0.31756657 0.058956888
0001f0 f3 f8 0f 3e db 3c ad be 7e 1e 20 be 57 b8 49 be
       0.1405981 -0.33835492 -0.15636632 -0.19699226

aux_proj.bias f4 [16]
000000 c8 36 36 bd 21 23 44 3e 41 c2 8a be 1f f9 a0 3e
       -0.044485837 0.19154026 -0.2710133 0.31440064
000010 70 1c 1b 3e ed 22 73 3e b7 f1 ea bd 05 97 96 3d
       0.15147567 0.23743792 -0.11471885 0.073530234
000020 db 3e 27 be 16 60 18 be fd ed 9c be 57 9d 9a be
       -0.16332571 -0.14880404 -0.3065032 -0.30198166
000030 0d ee 94 3d 5c e2 a6 be 25 c8 90 be 70 f8 48 be
       0.07271967 -0.32594573 -0.28277698 -0.19626021

head.weight f4 [1, 16, 1, 1]
000000 fd 7a a7 3e 68 a6 8e 3e 7b c5 8a bd 29 c7 26 be
       0.3271102 0.27861333 -0.06775948 -0.16286911
000010 01 57 bc be 42 1d 62 be 44 f0 8c be 99 8a 9f be
       -0.3678513 -0.22081473 -0.27527058 -0.3116043
000020 84 a0 86 3e 7f 47 1c 3e f5 19 d8 3e 0b 45 b9 3e
       0.2629434 0.15261649 0.42207304 0.36185488
000030 60 07 10 3f da 0b ac be cd d2 9d 3e 33 c8 91 be
       0.56261253 -0.33602792 0.3082489 -0.28473052
