experiments/sweeps_phase3/p3_tv0_time0_run01.pt (torch, 63285 bytes, 9 tensors)

encoder.0.weight f4 [8, 1, 3, 3]
0	0x3ea8ee25	0.3299419
1	0x3d571da5	0.052518506
2	0xbe23ee1d	-0.16008802
3	0x3bdf3e60	0.0068128556
4	0x3ecdfb58	0.40230823
5	0xbe239093	-0.1597312
6	0x3a8eaa7b	0.0010884547
7	0xbda767e0	-0.081741095
8	0x3deaad58	0.11458844
9	0x3e87a76b	0.26494917
10	0x3db6356b	0.088969074
11	0x3e051e2f	0.12999795
12	0x3e4fcef6	0.20293793
13	0xbea40005	-0.32031265
14	0x3d46c566	0.048528098
15	0xbe838fdc	-0.25695693
16	0xbea2c73a	-0.31792623
17	0x3e0cfa72	0.13767412
18	0xbdc5df97	-0.09661787
19	0xbe60318e	-0.21893904
20	0x3ea71fe4	0.32641518
21	0xbe846e1a	-0.2586525
22	0x3ed025c9	0.40653828
23	0xbe5afc44	-0.21385294
24	0xbe110ab4	-0.14164239
25	0x3e086e71	0.1332338
26	0x3daf16fb	0.08549305
27	0xbb7447ce	-0.0037274244
28	0x3af5d5c8	0.0018755728
29	0xbe891646	-0.26774806
30	0xbe95857e	-0.2920341
31	0x3e86ab9b	0.263028
32	0x3d744957	0.059640255
33	0x3dccc48e	0.09998427
34	0x3ec44eba	0.38341314
35	0x3e2dcd0a	0.16972747
36	0x3ddaf445	0.10691122
37	0x3e86a261	0.2629576
38	0x3df13b1d	0.11778853
39	0xbd904e56	-0.070461914
40	0x3e4525aa	0.19252649
41	0x3dfd70b4	0.12375012
42	0xbe129a8a	-0.14316764
43	0xbe22d064	-0.15899807
44	0x3e551626	0.2080923
45	0xbe87c584	-0.2651788
46	0x3d27423f	0.04083466
47	0x3eafb4f6	0.3431775
48	0x3e5d17b2	0.2159107
49	0xbe73003a	-0.23730555
50	0xbbba1d57	-0.005679767
51	0x3eaf6da1	0.34263328
52	0xbd1fd1ba	-0.03901837
53	0x3e3869ac	0.1800906
54	0x3e0a7653	0.135217
55	0x3e68aa8e	0.22721311
56	0xbe22c378	-0.15894878
57	0xbea8009a	-0.3281296
58	0x3d93e0c1	0.07220603
59	0xbde4bc10	-0.111686826
60	0xbe966ab7	-0.29378292
61	0x3e41c9d7	0.18924652
62	0xbd5575fd	-0.052114476
63	0xbe8819ff	-0.26582333
64	0xbe8e7da0	-0.2783022
65	0x3dd99b15	0.10625283
66	0x3deab8ea	0.11461051
67	0x3cab68d2	0.020924006
68	0x3e92a6f7	0.2864301
69	0x3ea664cc	0.32498777
70	0x3e71b2f5	0.23603423
71	0xbbff6100	-0.0077935457

encoder.0.bias f4 [8]
0	0xbe1a0f01	-0.15044786
1	0x3e1b476e	0.15163967
2	0x3e6aa9b4	0.22916299
3	0xbca224cb	-0.019792935
4	0xbc03b29b	-0.008038188
5	0xbe01098b	-0.12601297
6	0x3eabf35d	0.3358411
7	0x3e1a8287	0.15088855

encoder.2.weight f4 [8, 8, 3, 3]
0	0x3dd7ed0c	0.1054326
1	0xbd120293	-0.035646986
2	0x3d2aff0f	0.04174715
3	0x3d0d1a2a	0.03444878
4	0xbc92336e	-0.01784679
5	0xbcbbaead	-0.02291044
6	0x3de97438	0.1139912
7	0x3d007628	0.031362683
8	0xbe5b2a15	-0.21402772
9	0x3ddaed3d	0.10689781
10	0x3d3369c9	0.043802056
11	0x3d63f8f8	0.055657357
12	0xbd9dd806	-0.07707219
13	0x3e14f56d	0.14546748
14	0x3cd9e062	0.026596252
15	0xbda1fd32	-0.07909621
16	0xbd94ac26	-0.07259397
17	0xbdf7a8ac	-0.120927185
18	0x3d1521da	0.036409236
19	0x3d24b9d3	0.04021628
20	0x3dc29c8c	0.09502515
21	0x3d08649a	0.033299066
22	0xbdba46c8	-0.09095532
23	0x3da3434f	0.079718225
24	0xbd6b5026	-0.057449482
25	0x3dca13e7	0.09867077
26	0x3dc6ed84	0.09713271
27	0xbbe5a7a9	-0.007008512
28	0xbd18d33e	-0.03731083
29	0xbc8d67bc	-0.017261378
30	0xbddfcbf3	-0.10927572
31	0x3d23706b	0.039902132
32	0x3e0587db	0.13040106
33	0x3df947a0	0.121718645
34	0x3d38284d	0.04496031
35	0x3e15e0a7	0.1463648
36	0xbb8e0086	-0.0043335585
37	0xbd7fe892	-0.062477656
38	0x3dd31172	0.10306062
39	0xbd6fe44f	-0.05856734
40	0xbd0233d1	-0.031787697
41	0xbcc603cd	-0.024171734
42	0xbdbd977f	-0.09257411
43	0xbcd2e1c5	-0.02574242
44	0xbd984d83	-0.07436659
45	0xbd931fa4	-0.07183769
46	0xbb1a4f8c	-0.0023545949
47	0xbdb3a418	-0.08771533
48	0xbcecfda3	-0.028929537
49	0xbc5b2c56	-0.01337727
50	0xbd13a5b7	-0.03604671
51	0xbdf2a553	-0.11847939
52	0x3e0d30c0	0.13788128
53	0x3df3c60c	0.11903009
54	0x3dc1f697	0.094708614
55	0x3da972ff	0.08273887
56	0x3e65399b	0.22385256
57	0x3e14fc23	0.14549308
58	0x3e1b1c12	0.15147427
59	0x3ddb23f2	0.107002154
60	0x3cdf71ea	0.027275998
61	0x3daa9c0d	0.083305456
62	0x3ce84d0f	0.028357057
63	0xbc0ad9a9	-0.008474746
64	0x3d9eb989	0.07750232
65	0x3d9efd14	0.077631146
66	0xbcd231d9	-0.025658535
67	0xbcab29c6	-0.020893943
68	0xbdb92e62	-0.0904205
69	0xbcb2092c	-0.02173289
70	0x3df3c4d2	0.11902775
71	0x3d86fc96	0.06591146
72	0x3be6a02b	0.0070381365
73	0x3e00b6c2	0.12569717
74	0x3ab44659	0.0013753875
75	0x3e6b84df	0.22999905
76	0xbdd96ec9	-0.10616834
77	0xbded791e	-0.11595367
78	0x3eb710f1	0.35755113
79	0xbd8a06d3	-0.06739583
80	0xbeac75d8	-0.33683658
81	0xbd413bd2	-0.04717619
82	0x3e6df8ab	0.2323939
83	0x3ea96843	0.33087358
84	0x3d5d2419	0.053989504
85	0x3e2ed818	0.1707462
86	0x3da4d615	0.080486454
87	0xbc589f5d	-0.013221589
88	0x3e07e391	0.13270403
89	0x3da02bf6	0.07820885
90	0xbdc38465	-0.09546737
91	0x3d8357c3	0.064132236
92	0x3e74a01f	0.23889206
93	0x3d86a03b	0.0657353
94	0xbe35ee41	-0.17766668
95	0x3e306735	0.1722687
96	0xbe3013c8	-0.17195046
97	0x3e9853f3	0.29751548
98	0x3ea81ac8	0.32832932
99	0xbdede0f7	-0.11615174
100	0xbe976d85	-0.29575744
101	0xbb4a1a37	-0.003083838
102	0xbcbd0080	-0.023071527
103	0xbe0c1e35	-0.13683398
104	0x3e450bf0	0.19242835
105	0x3e495968	0.19663012
106	0x3e2a53b1	0.16633488
107	0x3e54482c	0.20730656
108	0x3c98404a	0.018585343
109	0x3c4ea0f5	0.012611617
110	0x3d4a9969	0.04946271
111	0xbd6d0e78	-0.057875127
112	0x3cf52e39	0.029929267
113	0x3d9afbdf	0.07567572
114	0x3d5bcf9a	0.05366478
115	0x3c33ad5c	0.010966625
116	0xbddd7353	-0.10813012
117	0xbdb895d9	-0.09012956
118	0x3e0a9af4	0.13535672
119	0xbe2b932a	-0.16755357
120	0x3d49a3e1	0.049228553
121	0xbd0d6be8	-0.034526736
122	0xbd8ab4d1	-0.06772769
123	0x3cadc5be	0.021212455
124	0x3cc4f836	0.024044137
125	0x3e3f04f3	0.18654232
126	0x3e0dac1e	0.13835189
127	0x3da98150	0.082766175
128	0x3df2a6a3	0.1184819
129	0x3dca37c9	0.098739214
130	0x3d05ef3c	0.032698855
131	0x3ea04c9b	0.31308445
132	0x3e83901b	0.2569588
133	0xbd044a8c	-0.032297656
134	0x3e41dab3	0.18931083
135	0x3ddcc65d	0.10780022
136	0xbdbc08c5	-0.0918136
137	0xbd0549d1	-0.0325411
138	0xbcd926b0	-0.026507705
139	0x3dcb78e2	0.09935166
140	0xbdb53981	-0.088488586
141	0x3c3b71fe	0.011440752
142	0x3e0514e8	0.12996256
143	0x3ba29a84	0.0049622674
144	0xbd64fa64	-0.055902854
145	0xbbbd2df4	-0.0057733003
146	0x3db67fb0	0.08911073
147	0xbce37c15	-0.027769128
148	0x3e3cbbb7	0.18430983
149	0x3da1c800	0.07899475
150	0xbd4a0935	-0.049325187
151	0x3e278407	0.16358958
152	0x3e94c091	0.29053167
153	0x3d380625	0.044927735
154	0xbd8861f8	-0.06659311
155	0xbd9fa1e7	-0.07794552
156	0xbd66a5fa	-0.05631063
157	0xbd47271a	-0.048621275
158	0x3ddec883	0.10878088
159	0xbca063fe	-0.01957893
160	0x3ddcb9c8	0.107776225
161	0xbd4889fc	-0.048959717
162	0xbcff5df3	-0.031172728
163	0x3dcf3e7b	0.10119339
164	0xbe5b748c	-0.21431178
165	0xbcd9afb2	-0.026573036
166	0x3e531fdc	0.20617622
167	0xbe3ffa05	-0.18747719
168	0x3df8c0e4	0.12146166
169	0xbd7ad008	-0.06123355
170	0xbe1ccc63	-0.15312342
171	0xbc640ccb	-0.013919066
172	0x3e317a1b	0.17331736
173	0xbda30a3b	-0.07960936
174	0xbda4a440	-0.08039141
175	0xbcbee75c	-0.02330368
176	0x3dc707f7	0.09718316
177	0x3d80ca4d	0.06288586
178	0xbda7aade	-0.08186887
179	0xbd8673fc	-0.06565091
180	0x3e1a4167	0.15064012
181	0xbd8ca539	-0.06867451
182	0xbd88470e	-0.066541776
183	0x3e12e28b	0.14344232
184	0x3db0916e	0.086214885
185	0xbdb3fd37	-0.08788531
186	0xbc5d24cc	-0.013497543
187	0x3dfa9c3a	0.12236829
188	0x3d81edcd	0.06344185
189	0x3e0f01dd	0.13965555
190	0x3e06f1ca	0.13178173
191	0xbc25ddd0	-0.010123685
192	0x3dd16a7f	0.10225391
193	0xbd162322	-0.0366546
194	0xbd0018ff	-0.031273838
195	0x3e0aab9b	0.13542025
196	0x3e26aa41	0.16275884
197	0x3d9feb27	0.078085236
198	0xbe0dec1c	-0.138596
199	0x3b0604c5	0.002044962
200	0x3d0ee23e	0.03488373
201	0xbdfe97f9	-0.1243133
202	0x3cb62ae2	0.022237245
203	0xbde59976	-0.11210911
204	0xbcefde0e	-0.029280689
205	0xbdd973b5	-0.106177725
206	0x3d960d72	0.07326783
207	0x3dcc8bb1	0.099875815
208	0x3e15fb01	0.14646532
209	0x3dbb83be	0.09155987
210	0xbca2ec3d	-0.019888038
211	0x3d5dc9d4	0.054147556
212	0x3e0f7768	0.14010394
213	0x3cff41e6	0.031159353
214	0x3dd862cc	0.10565719
215	0x3de09773	0.10966387
216	0x3d759697	0.059958067
217	0x3e0e5489	0.13899435
218	0x3d2ee6e4	0.042700663
219	0x3c6b1fd6	0.014350852
220	0x3e626816	0.22110018
221	0x3de313dc	0.11087772
222	0xbd520a13	-0.05127914
223	0x3e896a0a	0.26838714
224	0x3e63add0	0.22234273
225	0xbd559ae3	-0.052149665
226	0xbe40cf26	-0.18829021
227	0xbd9c1d74	-0.07622805
228	0xbc45d4d3	-0.012074667
229	0xbe259770	-0.1617105
230	0x3da37b1a	0.07982464
231	0xbd3b3acf	-0.04571038
232	0x3b515d41	0.0031946453
233	0x3d39d029	0.045364533
234	0x3d1c04da	0.038090564
235	0x3d0e516e	0.034745626
236	0xbe6ede43	-0.23326974
237	0x3d6b0331	0.05737609
238	0x3dfc863c	0.12330291
239	0xbe56eb58	-0.20988214
240	0x3d40e8dc	0.047097072
241	0xbeb6925e	-0.35658544
242	0xbe696c47	-0.22795211
243	0x3d8e3453	0.06943574
244	0x3e749f6c	0.2388894
245	0x3db6aa2d	0.08919177
246	0x3e0d55af	0.13802217
247	0x3e0ff4bb	0.14058201
248	0x3d4c2b4d	0.049845982
249	0xbe09f6a8	-0.13472998
250	0xbe12d22c	-0.14337987
251	0xbdca5ff7	-0.09881585
252	0xbbc15f3a	-0.0059012445
253	0xbd155999	-0.0364624
254	0x3cde1de1	0.027113857
255	0x3e34d81e	0.17660567

encoder.2.bias f4 [8]
0	0x3e1a6b4c	0.15079993
1	0x3d0cd141	0.034379248
2	0x3d933553	0.07187905
3	0x3da264b1	0.079293616
4	0xbd318b1c	-0.043345556
5	0x3c9779f7	0.018490775
6	0x3da83c87	0.0821467
7	0x3ca3e3cf	0.020006089

cell.conv.weight f4 [64, 24, 3, 3]
0	0x3e361bf0	0.17784095
1	0x3e44c8ea	0.19217268
2	0x3e1d99bc	0.15390676
3	0x3df59480	0.11991215
4	0x3dbd77b1	0.09251345
5	0x3db9d0c7	0.09073024
6	0x3e45496c	0.1926629
7	0x3d907d5f	0.07055163
8	0x3e40bfe8	0.18823206
9	0x3e82554c	0.254557
10	0x3e8d803f	0.27636907
11	0x3e52df32	0.20592955
12	0x3e602782	0.21890071
13	0x3e7e6bf7	0.24845873
14	0x3ea928b1	0.33038858
15	0x3e71495c	0.2356314
16	0x3ea52c99	0.32260588
17	0x3e856b3d	0.2605838
18	0x3df855e8	0.1212576
19	0x3ded01e0	0.11572623
20	0x3db455bd	0.08805416
21	0x3c9a937a	0.01886915
22	0x3b4119a8	0.0029464755
23	0x3cc2fcb2	0.023802135
24	0x3dde1008	0.108429015
25	0x3d99e3ef	0.07514178
26	0x3dc594b6	0.09647505
27	0x3df1b277	0.118016176
28	0x3d943651	0.072369225
29	0x3df4d697	0.11954992
30	0x3e040f8a	0.12896553
31	0x3dd7a382	0.105292335
32	0x3c40ed94	0.011775393
33	0x3e234bec	0.1594693
34	0x3d4cd6cb	0.05000953
35	0x3d174693	0.03693254
36	0x3e080777	0.13284098
37	0x3e0773da	0.13227788
38	0x3d3fb5fb	0.04680441
39	0x3dcf12ab	0.101109825
40	0x3d498c92	0.049206324
41	0x3dfaca63	0.122456335
42	0x3d8e17a6	0.06938104
43	0x3dcdda15	0.100513615
44	0x3d8ce074	0.068787485
45	0x3e9b7200	0.30360413
46	0x3eef4125	0.4672939
47	0x3ebebd84	0.37253964
48	0x3e6f23a9	0.23353447
49	0x3eb92bb6	0.3616616
50	0x3eb76152	0.35816437
51	0x3e6750a2	0.22589353
52	0x3e8c68e4	0.27423775
53	0x3e9a157c	0.30094516
54	0x3e112e9f	0.14177941
55	0x3d960075	0.07324306
56	0x3e176df6	0.1478804
57	0x3ddb3a78	0.107045114
58	0xbc1d9940	-0.009619057
59	0x3df3057c	0.118662804
60	0x3d868b70	0.06569564
61	0x3d025535	0.03181954
62	0x3d939034	0.07205239
63	0x3ddbdbac	0.107352585
64	0x3d913784	0.07090667
65	0x3cbf5f23	0.023360794
66	0x3e0ec2ca	0.13941494
67	0x3d8c8e5b	0.0686309
68	0x3db69f2e	0.0891708
69	0x3e313e57	0.17308937
70	0x3e1cecc7	0.15324698
71	0x3d50cf75	0.050979096
72	0xbcaba6e7	-0.020953609
73	0x3d881046	0.06643729
74	0xba072203	-0.00051549094
75	0x3d0a9bba	0.03383992
76	0x3d181441	0.03712869
77	0xbcffb75f	-0.031215368
78	0x3be7d34e	0.00707475
79	0xbca8182b	-0.020519337
80	0x3c4d5883	0.01253331
81	0xbb9ab048	-0.0047207214
82	0x3b12e356	0.0022413335
83	0x3d660bd8	0.05616364
84	0x3ccf9bc1	0.025342824
85	0xbbfb7c10	-0.0076747015
86	0xbc20a94a	-0.009805987
87	0x3d49cb86	0.04926636
88	0x3d8015ad	0.06254134
89	0x3c55b8f9	0.013044589
90	0x3dbb4209	0.091434546
91	0x3da65db0	0.08123338
92	0x3d3c7380	0.046008587
93	0x3d1a7b62	0.037715323
94	0x3c11bf5e	0.008895723
95	0x3d87a6b0	0.0662359
96	0x3d454d16	0.048169218
97	0x3df7a0fb	0.120912515
98	0x3db62259	0.0889327
99	0xbd0ef764	-0.0349039
100	0x3cdd1422	0.02698714
101	0x3d2d7d59	0.04235587
102	0xbd26f40e	-0.040760092
103	0xbbd10f0c	-0.0063799676
104	0xbd55ffe1	-0.05224598
105	0xbdb71caa	-0.08941014
106	0xbd36e5f8	-0.04465291
107	0xbd98b721	-0.07456804
108	0xbb39f68d	-0.0028375715
109	0xbda80c75	-0.08205501
110	0xbd31b73c	-0.043387637
111	0x3cd1adeb	0.025595626
112	0x3aeb2721	0.0017940738
113	0x3d3adbe4	0.04561986
114	0xbc37cf33	-0.011218834
115	0xbd09ef23	-0.033675324
116	0x3d02b5cb	0.031911653
117	0xbd8ba82a	-0.06819184
118	0x3d6b5a04	0.057458892
119	0xbd7f2e11	-0.06229979
120	0x3d2b0810	0.041755736
121	0xbcd5d465	-0.026102254
122	0x3d30f978	0.043206662
123	0xbce2a7bd	-0.027667874
124	0xbdadb2b5	-0.08481351
125	0xbb985716	-0.0046490533
126	0x3c45774f	0.012052371
127	0x3d33f456	0.04393419
128	0xbd7472c5	-0.059679765
129	0xbd524eda	-0.05134473
130	0xbbb65036	-0.005563761
131	0x3d00de97	0.03146228
132	0xbd10afc7	-0.035323884
133	0xbd9251ca	-0.07144506
134	0xbcc03e76	-0.023467284
135	0xbd29a91f	-0.041421052
136	0x3d8fef14	0.070280224
137	0xbd1f3c6a	-0.038875975
138	0xbcd271ef	-0.025689093
139	0x3c8398e2	0.016064111
140	0x3dbe1090	0.09280503
141	0x3d969d63	0.07354238
142	0x3dd5e2bc	0.10443637
143	0x3dc74f0c	0.09731874
144	0x3cb23d30	0.021757692
145	0xbc0f644a	-0.008751938
146	0x3c9de1bb	0.019272676
147	0x3c981887	0.018566383
148	0xbcdd733e	-0.02703249
149	0xbd040827	-0.032234337
150	0x3ca1cfb6	0.019752365
151	0x3d535191	0.05159146
152	0x3cdbc25f	0.026826082
153	0x3c2dc201	0.010605336
154	0x3bb041ac	0.0053789224
155	0x3d2129c3	0.039346468
156	0x3cf3992d	0.029736126
157	0x3d85d470	0.0653466
158	0x3d215b35	0.039393622
159	0xbd0e9bcc	-0.03481655
160	0xbd84c0e2	-0.06482102
161	0xbd4bfe79	-0.04980323
162	0x3a33f8eb	0.00068654
163	0xbd8a42f7	-0.06751054
164	0xbce3d7a1	-0.02781278
165	0xbd0b97f7	-0.03408047
166	0xbc83e9a7	-0.016102625
167	0x3be43e11	0.0069654067
168	0xbd8c3d58	-0.06847638
169	0xbbbf9218	-0.005846273
170	0xbc6eb2b3	-0.014568972
171	0x3c5da282	0.013527514
172	0xbced14e9	-0.028940635
173	0xbcdcebee	-0.026967969
174	0xbd701cab	-0.05862109
175	0xbd3c2d9e	-0.04594194
176	0x3d857f83	0.065184616
177	0xbd38da0f	-0.045129832
178	0xbbc02942	-0.0058642933
179	0x3c51cbbf	0.0128049245
180	0xbbea15b2	-0.0071436996
181	0x3d05a39b	0.03262673
182	0xbcbdd1c6	-0.023171317
183	0x3d46597c	0.048425183
184	0xbcbba71f	-0.022906838
185	0x3b205495	0.0024464477
186	0xbda93478	-0.08261961
187	0x3bcacd66	0.006189036
188	0xbd6cdfdb	-0.057830673
189	0x3d408030	0.04699725
190	0x3d3a2b5c	0.045451507
191	0x3c3d44d9	0.011552059
192	0xbd335c10	-0.04378897
193	0x3c1bc7c5	0.009508078
194	0xbc429d4b	-0.011878322
195	0xbd8a6b4e	-0.06758748
196	0xbc130586	-0.008973485
197	0xbb882c65	-0.004155683
198	0xbd223467	-0.039600756
199	0x3cf3701b	0.029716542
200	0xbd19225d	-0.037386287
201	0xbc233dd0	-0.009963468
202	0xbd46b3d3	-0.048511337
203	0xbd58a0fb	-0.052887898
204	0xbc101910	-0.008795038
205	0xbcb00c37	-0.0214902
206	0xbc4c90c3	-0.012485686
207	0xbd41cb8b	-0.047313254
208	0x3d3db574	0.046315625
209	0x3c9ac49d	0.01889258
210	0x3d1afb4b	0.037837308
211	0xbd1a4f53	-0.037673306
212	0x3d13f9d0	0.03612691
213	0xbd95d820	-0.07316613
214	0x3ccdc1fe	0.025116917
215	0xbd2c686b	-0.04209177
216	0x3d2b259f	0.041783925
217	0x3cff2a8d	0.03114822
218	0x3c34f835	0.011045505
219	0xbaf3dc44	-0.0018605073
220	0x3d357c0b	0.04430775
221	0x3bd68bda	0.0065474333
222	0x3d8654ff	0.065591805
223	0x3d7e3e4a	0.062071122
224	0x3d2864a6	0.04111161
225	0xbd2298de	-0.039696567
226	0xbd036524	-0.032078877
227	0x3d827008	0.063690245
228	0x3d8b5ee0	0.06805205
229	0x3a6db748	0.00090681436
230	0x3de41b7c	0.11138055
231	0x3e026bf2	0.1273649
232	0x3cd59670	0.02607271
233	0x3cf29be0	0.029615343
234	0x3ddf5bca	0.10906179
235	0x3dee6cf3	0.11641874
236	0x3d9268d6	0.07148902
237	0x3db78629	0.08961136
238	0x3dadd457	0.08487766
239	0x3adadc9a	0.0016697824
240	0x3d212ea9	0.03935114
241	0x3dcb457c	0.099253625
242	0x3de1def6	0.110288545
243	0x3e360315	0.17774613
244	0x3e140c2b	0.14457767
245	0x3e192ea7	0.14959203
246	0x3e22429d	0.15845723
247	0x3e4ef1c8	0.2020942
248	0x3e542ccf	0.20720218
249	0x3d3b0591	0.045659605
250	0x3dc0d3d6	0.094154045
251	0x3d507725	0.050894875
252	0xbc30eb98	-0.010798357
253	0x3da71ef8	0.08160204
254	0x3dda3ef3	0.10656538
255	0x3d59af1f	0.053145524

cell.conv.bias f4 [64]
0	0x3da24922	0.07924105
1	0xbc28c1a7	-0.010300077
2	0x3dd721c0	0.10504484
3	0x3cdab6f8	0.026698574
4	0xb9300100	-0.0001678504
5	0x3d462476	0.048374616
6	0x3b68fe87	0.00355521
7	0x3ddaedd9	0.10689897
8	0x3d4ba52b	0.049718063
9	0x3e0187e3	0.12649493
10	0x3da07712	0.07835211
11	0x3a8b4a45	0.0010626992
12	0x3dda2389	0.10651309
13	0x3d3be646	0.045873903
14	0x3ca00881	0.019535305
15	0x3cf58e5e	0.029975113
16	0x3d55e0da	0.05221639
17	0x3dc6a574	0.096995264
18	0x3d9c9363	0.07645299
19	0xbd100d7c	-0.03516911
20	0xbcad1ae0	-0.021130979
21	0x3d885814	0.066574246
22	0x3d2bcb1f	0.04194176
23	0xbcafe0eb	-0.021469554
24	0x3cffada3	0.031210726
25	0x3d2a514c	0.041581437
26	0x3dd11f36	0.10211031
27	0x3cad4ecb	0.021155735
28	0x3d95e1a7	0.073184304
29	0x3d68003d	0.056640852
30	0xbcb569e4	-0.02214522
31	0x3d9b8f41	0.07595683
32	0x3d7db228	0.06193748
33	0x3c0a9779	0.008458965
34	0x3dde56a3	0.108563684
35	0x3d9650bc	0.073396176
36	0x3d66a044	0.056305185
37	0x3dbaf9a2	0.09129645
38	0x3d1c84f1	0.03821272
39	0x3c45ea7f	0.012079834
40	0x3c1b4d8b	0.009478937
41	0x3de497f5	0.11161796
42	0x3cfce8ce	0.030872729
43	0x3d85de33	0.06536522
44	0x3d8a00e6	0.067384526
45	0x3d05cf75	0.03266855
46	0x3bbaa5db	0.005696041
47	0x3dbb4656	0.09144275
48	0xbd6cb32a	-0.05778805
49	0x3d16d302	0.036822326
50	0x3cd251f9	0.025673853
51	0x3d5cb2e4	0.05388154
52	0x3cd6e536	0.026232343
53	0x3d35958b	0.04433207
54	0x3ce37660	0.027766407
55	0xbd35e099	-0.044403646
56	0xbd900a58	-0.07033223
57	0xbd47e4eb	-0.048802298
58	0x3d66a51a	0.056309797
59	0x3d23dda3	0.04000629
60	0x3d2e3ad8	0.042536587
61	0x3d6e9a9c	0.058252916
62	0x3d208399	0.039188
63	0x3ccbd85e	0.024883445

aux_proj.weight f4 [16, 8, 1, 1]
0	0xbf1617c5	-0.5863002
1	0xbf3e0cf5	-0.7423852
2	0x3edf52f3	0.43617973
3	0x3e31d24b	0.17365377
4	0xbe94712c	-0.28992593
5	0xbc2d0baa	-0.010561863
6	0x3efc863f	0.49321172
7	0xbc94dc5f	-0.018171487
8	0x3e71cf23	0.23614173
9	0x3eb0a594	0.34501326
10	0xbd299379	-0.041400407
11	0xbe8a2798	-0.26983333
12	0xbeba1147	-0.36341307
13	0xbe7f6a7c	-0.24942964
14	0xbde39178	-0.1111173
15	0xbeebb9fd	-0.46040335
16	0xbee27fd7	-0.4423816
17	0x3c730ae4	0.0148341395
18	0x3d806a08	0.06270224
19	0x3e9d3c8d	0.3071026
20	0xbea32e79	-0.31871393
21	0x3e652ab1	0.22379567
22	0xbaf15ef2	-0.0018415137
23	0x3e9ba53b	0.30399498
24	0xbed53b46	-0.41646785
25	0xbf15b5e1	-0.5848065
26	0x3e85dae9	0.26143578
27	0x3a8935b1	0.0010468272
28	0x3e3f144d	0.18660088
29	0x3f27dcc9	0.65571266
30	0x3d16c14b	0.036805432
31	0x3e775d9b	0.24156801
32	0x3ef268b3	0.47345504
33	0x3e861f73	0.2619587
34	0xbebff2c0	-0.3748989
35	0xbefa2f14	-0.48864043
36	0x3b943018	0.004522335
37	0xbdaac86f	-0.08339011
38	0xbe9253ce	-0.28579563
39	0xbec3d6c6	-0.38249797
40	0xbe512af7	-0.20426546
41	0xbf1b44f5	-0.60652095
42	0xbbe43c63	-0.0069652065
43	0x3f142399	0.5786682
44	0x3e8df86b	0.2772859
45	0x3e8821cb	0.26588282
46	0x3db31772	0.08744706
47	0xbd3cbe2d	-0.046079803
48	0xbebadd22	-0.36496836
49	0xbf154a85	-0.5831683
50	0xbcb0114b	-0.02149262
51	0xbd687368	-0.056750685
52	0xbe87f09c	-0.26550758
53	0x3f2f0721	0.6837025
54	0xbe1ce74a	-0.15322605
55	0x3e7665c0	0.24062252
56	0x3ed87d23	0.42282972
57	0x3e85552e	0.2604155
58	0xbe79aded	-0.24382754
59	0xbe28a2a8	-0.16468298
60	0xbe002254	-0.12513095
61	0xbdd7979a	-0.105269626
62	0xbebb2c0c	-0.36557043
63	0xbc816f68	-0.015800193
64	0x3cc429b4	0.023945667
65	0x3f268fe8	0.65063334
66	0x3d09cd33	0.03364296
67	0x3db6e4a2	0.08930327
68	0xbe8be49b	-0.2732285
69	0xbe955eb2	-0.2917381
70	0x3e00a82d	0.12564154
71	0x3cbbe4c6	0.022936236
72	0xbe582fc9	-0.21111979
73	0xbf3cb9ed	-0.737212
74	0x3e837854	0.2567774
75	0x3dc619c9	0.09672887
76	0xbdc92e28	-0.09823257
77	0x3def0efe	0.116727814
78	0x3e5bf450	0.21479917
79	0xba97088c	-0.0011522933
80	0xbefc65a1	-0.49296287
81	0xbf0ea4f3	-0.5572044
82	0x3e964e7a	0.29356748
83	0x3d1034e7	0.0352067
84	0x3cf0de1b	0.029402783
85	0x3d9bc8f9	0.07606692
86	0x3d496819	0.04917154
87	0x3dd184ae	0.10230385
88	0x3f0ec309	0.5576635
89	0x3f4dba09	0.8036199
90	0xbe51ad4b	-0.20476262
91	0xbeb7f62d	-0.35930005
92	0xbe1390f9	-0.14410771
93	0xbec9b674	-0.39397013
94	0xbc8fc8ec	-0.017551862
95	0xbef8929a	-0.48549348
96	0xbe2604ff	-0.16212843
97	0xbeff7a93	-0.49898204
98	0x3ee85426	0.453767
99	0xbb2a2f86	-0.0025968268
100	0xbe33898c	-0.17532939
101	0x3f2e083e	0.67981327
102	0x3dd8ff66	0.105955884
103	0x3f08b30f	0.5339822
104	0xbd7da567	-0.061925318
105	0xbe43da8a	-0.19126335
106	0xbd9f299d	-0.07771609
107	0x3ef317e3	0.47479162
108	0x3eb7f32a	0.35927707
109	0x3e053874	0.13009816
110	0x3eb5190c	0.35370672
111	0x3def1d15	0.11675469
112	0x3ebf6283	0.37379846
113	0x3f48b48e	0.78400505
114	0xbeda0705	-0.4258348
115	0x3d48862a	0.048956074
116	0xbe863895	-0.26215044
117	0xbe07115f	-0.1319022
118	0xbd0947a0	-0.033515573
119	0xbf0d52ab	-0.55204266
120	0xbdbb6488	-0.09150034
121	0xbf06e255	-0.52689105
122	0x3ea6de96	0.32591695
123	0x3cbf1d3c	0.02332937
124	0xbd1add06	-0.03780844
125	0x3f08d938	0.5345645
126	0x3e3fa1d7	0.18714081
127	0x3e611e9e	0.21984336

aux_proj.bias f4 [16]
0	0x3e94e1d3	0.2907854
1	0x3e19437d	0.14967151
2	0xbc28c497	-0.010300777
3	0xbdf47b72	-0.11937608
4	0xbe9da858	-0.307925
5	0x3ea8d47b	0.3297461
6	0xbec4f017	-0.38464424
7	0xbe2caed2	-0.16863564
8	0x3e7b414f	0.24536632
9	0x3e07fb8d	0.13279553
10	0x3d7f5dd2	0.062345333
11	0x3e078e7f	0.13237952
12	0xbe5f8fee	-0.21832249
13	0xbcb270ec	-0.021782361
14	0x3d65cf9f	0.056106206
15	0xbeab4897	-0.3345382

head.weight f4 [1, 16, 1, 1]
0	0x3e965f39	0.29369524
1	0xbea76747	-0.32695982
2	0x3d24ef2c	0.040267155
3	0x3e986cd8	0.2977054
4	0xbed63160	-0.41834545
5	0x3df7679d	0.120803095
6	0x3d85d40d	0.06534586
7	0xbd3af303	-0.04564191
8	0xbea50a37	-0.32234356
9	0x3e668295	0.2251075
10	0x3eae9078	0.34094596
11	0xbef14919	-0.47126082
12	0x3ddc8713	0.10767951
13	0x3e8baff1	0.2728267
14	0xbed85bd9	-0.42257574
15	0x3e88a3ab	0.2668737
