experiments/sweeps_phase3/p3_tv0.005_time0.001_run09.pt (torch, 63477 bytes, 9 tensors)

encoder.0.weight f4 [8, 1, 3, 3]
0.33404493 -0.15694681 0.3213522 -0.24545534 0.09121279 0.3090425 0.34557572 -0.29876128
-0.23102656 0.2705449 -0.15583293 0.25604096 0.39464527 0.09070292 -0.07982105 0.12915349
-0.04736291 -0.045563776 -0.25295302 -0.113360055 -0.051105276 -0.114317544 0.27206886 0.18819852
0.16054787 0.42693636 0.14911102 -0.0934196 0.0265352 0.0073716827 0.04361829 -0.059751008
-0.15652819 0.3817774 0.052535035 -0.025689075 0.13020553 -0.3323965 0.036750875 0.16971785
0.11145873 0.21709001 -0.026852509 0.09972364 -0.10756386 0.0062322565 0.21050313 0.05724296
-0.028582012 -0.18351835 0.043260906 0.13814953 -0.21616064 -0.26231718 0.20841877 0.0045048846
-0.23889071 0.19421613 0.38869587 0.22223136 -0.20392813 0.15536731 0.14301933 0.2064243
0.36445796 -0.19825068 -0.092753015 0.22512189 0.07125949 0.11805039 -0.15953961 -0.2725811
00000000: f007 ab3e aab6 20be 4788 a43e a558 7bbe
00000010: c5cd ba3d d23a 9e3e 4def b03e 3df7 98be
00000020: 3a92 6cbe dc84 8a3e ab92 1fbe cd17 833e
00000030: f20e ca3e 74c2 b93d 3879 a3bd d040 043e
00000040: 9cff 41bd 15a1 3abd 0f83 81be 5129 e8bd
00000050: c453 51bd 511f eabd 9c4c 8b3e 1db7 403e
00000060: a966 243e 6797 da3e 8fb0 183e c652 bfbd
00000070: 5960 d93c 288e f13b 18a9 323d 79bd 74bd
00000080: ed48 20be 5478 c33e fa2e 573d e571 d2bc
00000090: 9954 053e e02f aabe 1688 163d 84ca 2d3e
000000a0: 7a44 e43d d84c 5e3e cbf9 dbbc e83b cc3d
000000b0: 714a dcbd f537 cc3b 228e 573e 9877 6a3d
000000c0: d324 eabc 3cec 3bbe 5932 313d 1277 0d3e
000000d0: 3759 5dbe 704e 86be bb6b 553e b69d 933b
000000e0: c49f 74be 98e0 463e 2503 c73e 9e90 633e
000000f0: 89d2 50be 9c18 1f3e a973 123e e460 533e
00000100: 3c9a ba3e 3a02 4bbe 4bf5 bdbd 5a86 663e
00000110: 7ff0 913d 67c4 f13d 5a5e 23be c08f 8bbe

encoder.0.bias f4 [8]
0.13205104 0.08164636 -0.21912152 -0.036524154 -0.20650354 0.29873472 0.1414288 -0.05516059
00000000: 6338 073e 3536 a73d 6461 60be 5a9a 15bd
00000010: aa75 53be c2f3 983e b6d2 103e 12f0 61bd

encoder.2.weight f4 [8, 8, 3, 3]
-0.040271606 0.100008145 0.14644502 0.11723692 0.08987102 -0.006321053 -0.047242995 -0.064242944
0.11786561 0.0022700853 0.13418078 0.024029626 0.08064607 0.0035281968 -0.050582465 -0.059248168
0.023402177 0.100953974 0.25683197 0.27639768 0.11314704 0.15126306 0.16850199 -0.047225907
0.035862513 -0.08086483 -0.042013653 -0.04637777 0.068295114 0.43771088 -0.06084111 -0.15255809
0.09628256 0.032362785 -0.072762474 0.033871926 -0.2365411 0.24402502 0.0008245142 0.12541124
0.24551778 0.2710155 -0.13146804 -0.3236491 0.19019239 -0.1501144 -0.14541277 -0.043902915
-0.15914933 -0.112716876 -0.11825007 0.059700962 0.07826978 -0.06480112 0.14303134 0.046116278
0.033990044 0.11824043 0.16223484 -0.06754853 -0.02316768 -0.06794425 -0.027296223 -0.09180359
-0.17732057 0.12811117 -0.008717396 0.25305808 0.049340818 -0.00846612 0.39656818 0.21656607
0.03171769 -0.07899966 0.10615472 0.057327334 0.07949843 0.06877345 0.07385049 -0.050565362
0.038178075 -0.016147377 0.043832943 -0.046875846 -0.017024543 0.15443528 -0.04002685 0.0893356
0.13996017 0.14671317 0.083374895 0.06788931 0.17677234 0.13083251 0.20410953 -0.072344534
0.12421159 -0.19008365 -0.1427673 0.03159342 0.1093556 0.23693046 -0.12793486 0.037235517
0.079579465 -0.0056759072 -0.06631231 0.074143626 -0.027369477 0.03247369 0.089596905 0.24521615
0.34941038 0.14028576 0.017529087 -0.15223412 0.11225342 -0.23291245 0.055139206 0.054995235
-0.10610041 -0.07280417 -0.07634535 -0.12402245 -0.06958227 0.092215545 0.1291377 -0.03136361
0.11661641 -0.035137262 0.09519618 -0.04844414 0.16560315 -0.035155427 -0.056809954 -0.16994283
-0.056204896 0.17053276 -0.03961995 0.05404899 0.1512689 0.02437438 0.2806646 0.23257995
0.050804235 0.12452221 -0.040390488 -0.07091212 0.062119614 0.15158434 0.009084403 0.0075651533
0.06966345 0.09138209 -0.028563747 0.064310536 0.09975 -0.07870094 0.1175945 -0.058620308
0.002929274 0.06410709 -0.15320136 -0.121099554 -0.11805433 -0.08455741 -0.04032197 0.08597307
0.0646164 -0.032569848 0.0236758 -0.112963736 -0.18814652 -0.19632275 0.11482236 -0.068661906
-0.17575453 0.100056484 0.03666711 -0.116964504 0.07963864 -0.08233375 -0.026216418 0.060663633
-0.1062094 -0.145422 0.027315756 0.2987401 -0.0704703 0.16650881 0.028427627 -0.063368
0.05367884 0.12933733 0.134071 0.02759733 -0.024498742 -0.016503626 0.0110923955 -0.09628263
-0.0636987 0.05759587 -0.09753338 -0.07811928 0.08424833 0.118092865 0.114145406 0.15858339
0.17663768 0.009274527 -0.050097212 -0.00027507232 0.09451704 -0.0059470693 -0.11815381 -0.16987152
-0.04945895 -0.02226511 0.13495134 0.10117706 0.053997908 0.008106552 0.112127356 0.11522245
0.11159069 -0.05132677 0.056104768 0.10111596 -0.01890558 -0.013135791 0.16981064 0.12164202
0.06432387 0.01313452 0.22126527 0.29985064 0.011194656 -0.069638 0.0100701805 0.080838904
0.11312541 -0.16910401 -0.048189815 -0.051979627 -0.14126301 0.31396163 -0.05567546 -0.03181228
-0.020997949 -0.033099156 -0.07780422 0.026501805 -0.032274272 0.14224644 0.07826003 -0.026146067
00000000: d7f3 24bd 12d1 cc3d aff5 153e e919 f03d
00000010: 4c0e b83d d620 cfbb df81 41bd ce91 83bd
00000020: 8663 f13d b6c5 143b b066 093e c7d9 c43c
00000030: c429 a53d 5239 673b 8f2f 4fbd 35ae 72bd
00000040: ecb5 bf3c f5c0 ce3d 7b7f 833e ff83 8d3e
00000050: a3b9 e73d b4e4 1a3e c98b 2c3e f46f 41bd
00000060: 92e4 123d 769c a5bd 8216 2cbd 9ef6 3dbd
00000070: 4fde 8b3d a41b e03e 8734 79bd 3038 1cbe
00000080: ca2f c53d d78e 043d 7e04 95bd 4abd 0a3d
00000090: d537 72be b2e1 793e 3624 583a ce6b 003e
000000a0: 0369 7b3e 8bc2 8a3e 8f9f 06be 56b5 a5be
000000b0: cbc1 423e 97b7 19be 16e7 14be 8bd3 33bd
000000c0: 0bf8 22be 1bd8 e6bd 182d f2bd ff88 743d
000000d0: e84b a03d 73b6 84bd cf76 123e 6ce4 3c3d
000000e0: 2539 0b3d 0a28 f23d e420 263e e256 8abd
000000f0: 25ca bdbc 5b26 8bbd 549c dfbc 8503 bcbd
00000100: 8693 35be 932f 033e 69d3 0ebc d490 813e
00000110: 9919 4a3d 7bb5 0abc fc0a cb3e 7fc3 5d3e
00000120: 69ea 013d 93ca a1bd a567 d93d 11d0 6a3d
00000130: 13d0 a23d 18d9 8c3d ed3e 973d a01d 4fbd
00000140: 9d60 1c3d 8147 84bc 2c8a 333d e300 40bd
00000150: 0e77 8bbc 4824 1e3e 32f3 23bd 95f5 b63d
00000160: b851 0f3e fa3b 163e 75c0 aa3d 8d09 8b3d
00000170: cf03 353e f5f8 053e 1702 513e 5f29 94bd
00000180: a562 fe3d 4aa5 42be 9731 12be 1a68 013d
00000190: d4f5 df3d e69d 723e 5b01 03be 4584 183d
000001a0: 8ffa a23d f6fc b9bb c0ce 87bd 9dd8 973d
000001b0: f435 e0bc 2203 053d 957e b73d f119 7b3e
000001c0: ebe5 b23e 12a7 0f3e 2999 8f3c 43e3 1bbe
000001d0: 1fe5 e53d 9a80 6ebe a6d9 613d af42 613d
000001e0: 2c4b d9bd 5a1a 95bd f35a 9cbd 7bff fdbd
000001f0: 2681 8ebd 81db bc3d ac3c 043e 2177 00bd
00000200: 96d4 ee3d 17ec 0fbd 37f6 c23d 5d6d 46bd
00000210: df93 293e 23ff 0fbd 8eb1 68bd 7e05 2ebe
00000220: 1b37 66bd 24a0 2e3e 8748 22bd 7962 5d3d
00000230: 3ce6 1a3e c8ac c73c 45b3 8f3e 7029 6e3e
00000240: 1a18 503d 8005 ff3d 7f70 25bd 603a 91bd
00000250: 2371 7e3d ed38 1b3e bfd6 143c 1be5 f73b
00000260: b6ab 8e3d 8826 bb3d 85fe e9bc 3eb5 833d
00000270: ba49 cc3d f52d a1bd 63d5 f03d d91b 70bd
00000280: 10f9 3f3b 944a 833d d1e0 1cbe 0b03 f8bd
00000290: 78c6 f1bd 6f2c adbd a628 25bd a612 b03d
000002a0: 9a55 843d f667 05bd c0f3 c13c 8859 e7bd
000002b0: 7ba9 40be d508 49be fc27 eb3d 9d9e 8cbd
000002c0: fff8 33be 6aea cc3d 4030 163d 168b efbd
000002d0: 9519 a33d 999e a8bd d0c3 d6bc 6e7a 783d
000002e0: 5084 d9bd 81e9 14be 4bc5 df3c 76f4 983e
000002f0: bc52 90bd 4981 2a3e 0ee1 e83c 15c7 81bd
00000300: 58de 5b3d 0171 043e e949 093e cc13 e23c
00000310: 96b1 c8bc 9d32 87bc e1bc 353c d42f c5bd
00000320: 7774 82bd a6e9 6b3d 95bf c7bd 00fd 9fbd
00000330: 638a ac3d acda f13d 11c5 e93d af63 223e
00000340: 82e0 343e 30f4 173c bc32 4dbd 9537 90b9
00000350: 2692 c13d a2df c2bb a0fa f1bd cdf2 2dbe
00000360: 7895 4abd 5265 b6bc af30 0a3e eb35 cf3d
00000370: e92c 5d3d 58d1 043c 07a3 e53d bff9 eb3d
00000380: a989 e43d 053c 52bd 1dce 653d e215 cf3d
00000390: e0df 9abc 8037 57bc d7e2 2d3e 741f f93d
000003a0: 3cbc 833d 2b32 573c 5d93 623e 0686 993e
000003b0: ca69 373c 5e9e 8ebd 66fd 243c de8e a53d
000003c0: 4cae e73d 9a29 2dbe af62 45bd 97e8 54bd
000003d0: 40a7 10be 94bf a03e f30b 64bd 984d 02bd
000003e0: e403 acbc fb92 07bd d257 9fbd 501a d93c
000003f0: 0732 04bd 0da9 113e cb46 a03d 4730 d6bc

encoder.2.bias f4 [8]
0.083836004 0.03467036 0.11909845 -0.042877983 0.07981344 0.12832958 -0.017752752 0.075960815
00000000: 36b2 ab3d 8202 0e3d e3e9 f33d d3a0 2fbd
00000010: 3b75 a33d d468 033e 386e 91bc 5891 9b3d

cell.conv.weight f4 [64, 24, 3, 3]
0.0071924743 0.029605228 -0.03798389 0.037506208 -0.0448453 -0.0071559777 0.04834843 0.016190471
0.004400861 -0.007656908 -0.024993394 -0.009282265 0.022851476 -0.0015039605 0.025480334 0.00053820055
-0.005945014 0.016968649 0.04517276 -0.0037391407 0.08860241 0.0009949729 0.037282147 0.06001908
0.04324014 0.022594573 0.03796795 0.08308786 0.050218374 -0.029786663 0.025043825 0.030935112
-0.011494221 -0.024777532 -0.0154725155 0.07351649 0.06070233 0.047201395 -0.022216853 -0.026512565
-0.022349969 -0.023998573 -0.03816859 -0.025832824 0.05207313 0.03118944 0.0538146 -0.009005156
0.017489098 -0.009460377 0.100046165 -0.02207654 0.08832006 0.0076941014 0.013596709 0.037397824
0.065082066 0.04579746 -0.016090881 0.0816765 0.01469981 0.0069877035 0.036202665 0.20048521
0.21513088 0.24610855 0.28982902 0.17301561 0.20152251 0.18606843 0.20547354 0.24624613
0.044197474 -0.017105786 0.032545768 -0.05895861 0.031228827 0.03269043 0.02942281 0.047499597
-0.016208278 0.0019027243 0.050603762 0.0074353837 0.0026556985 0.05383215 0.026751414 -0.045391943
0.057535227 0.058656745 0.053603463 -0.016468085 0.026786389 -0.058075517 -0.048497964 -0.0047374913
-0.06639697 -0.07844937 0.018283745 -0.048227914 -0.018811055 -0.03690966 0.040248435 -0.01790548
0.06355011 -0.039709136 0.0482529 -0.065427944 0.03166408 0.004383518 0.049653392 0.07699305
0.064274326 -0.037492786 0.03935855 0.071693026 0.0024365543 -0.02912174 -0.022760268 0.06990221
-0.0532567 0.043011982 0.054232184 0.03568737 -0.047398288 -0.04582297 -0.02131893 0.052009054
0.050430164 -0.061688486 -0.01331775 -0.018726842 -0.0043790652 -0.020594448 -0.017034302 -0.005571958
-0.07744415 -0.043357823 -0.046758235 0.05048566 0.03181725 -0.06640456 0.013897401 -0.074940614
0.038341284 0.0054949326 0.03692699 -0.043953273 0.025822043 0.00195453 0.066857494 -0.01683411
0.05062726 0.035354476 0.098767884 0.029333526 0.018036386 0.073155865 0.026953388 0.08660795
0.036150843 0.033195827 0.0446479 -0.034468066 -0.056289107 -0.049682807 -0.0167728 -0.054605354
0.037946086 -0.023475043 -0.04690784 0.056587502 -0.0034677524 0.06431315 0.010838285 -0.039649382
-0.0070148823 0.054790653 -0.01160343 0.021823905 -0.03576496 0.056120887 0.049644344 0.012550705
-0.027900618 0.04974394 -0.043367803 0.066422924 0.016615998 -0.02553277 0.019822638 0.041419234
0.02021227 0.024548851 0.044117335 -0.014676381 0.058886886 0.067959584 -0.0039279624 -0.06475824
-0.025663957 -0.012816119 0.046842236 -0.03497867 -0.03382857 -0.036305513 -0.05894425 0.07067565
-0.003040538 -0.022382384 -0.0039059585 0.061782897 0.038873635 0.025193963 -0.03561004 0.0680584
0.043197382 0.08875557 0.093722455 0.019024452 0.049919307 0.03908528 0.09571432 0.10879019
-0.015771339 0.060585678 0.110664204 -0.0048766886 0.026934894 0.037240654 0.10104233 0.036378637
-0.017739365 0.013453269 0.01588836 0.034042545 0.08288366 0.035661828 0.11232656 0.12117249
0.13010408 0.12575078 0.040178336 0.039697934 0.026081294 0.04880687 0.008441984 0.014441154
0.059281114 -0.007312623 0.09922753 0.008986507 0.037213955 0.07334127 -0.0042806487 0.07292412
00000000: d9ae eb3b aa86 f23c ff94 1bbd 1ca0 193d
00000010: b5af 37bd b17c eabb 0109 463d e1a1 843c
00000020: 1935 903b cde6 fabb f2be ccbc a414 18bc
00000030: 0533 bb3c 8a20 c5ba 22bc d03c 0716 0d3a
00000040: 64ce c2bb d601 8b3c 1207 393d 5f0c 75bb
00000050: 2e75 b53d c069 823a 2ab5 183d 91d6 753d
00000060: 931c 313d 4118 b93c 4884 1b3d f829 aa3d
00000070: c8b1 4d3d 2903 f4bc b528 cd3c a26b fd3c
00000080: 4252 3cbc 40fa cabc 6f80 7dbc d08f 963d
00000090: 02a3 783d 4056 413d 1e00 b6bc e130 d9bc
000000a0: 4817 b7bc a898 c4bc ab56 1cbd 5c9f d3bc
000000b0: a24a 553d ff80 ff3c b36c 5c3d 5d8a 13bc
000000c0: 4c45 8f3c b2ff 1abc 01e5 cc3d dcd9 b4bc
000000d0: 26e1 b43d cd1e fc3b bbc4 5e3c 762e 193d
000000e0: bf49 853d 1e96 3b3d 06d1 83bc 0246 a73d
000000f0: 79d7 703c 1bf9 e43b 3f49 143d ff4b 4d3e
00000100: 454b 5c3e e103 7c3e 7864 943e 012b 313e
00000110: eb5b 4e3e b988 3e3e a867 523e f227 7c3e
00000120: 6908 353d 6f21 8cbc b64e 053d 957e 71bd
00000130: 99d3 ff3c 66e6 053d 1b08 f13c f08e 423d
00000140: 39c7 84bc d564 f93a e445 4f3d 85a4 f33b
00000150: 3a0b 2e3b 1a7f 5c3d c825 db3c e7ec 39bd
00000160: 0faa 6b3d 0e42 703d 4e8f 5b3d 14e8 86bc
00000170: 216f db3c 98e0 6dbd cda5 46bd f53c 9bbb
00000180: 22fb 87bd 10aa a0bd cbc7 953c a28a 45bd
00000190: a419 9abc 952e 17bd 8bdb 243d 83ae 92bc
000001a0: 8f26 823d 0ca6 22bd d5a4 453d 16ff 85bd
000001b0: 32b2 013d 9da3 8f3b 5b61 4b3d 88ae 9d3d
000001c0: 42a2 833d 0992 19bd 6e36 213d cbd3 923d
000001d0: 99ae 1f3b b790 eebc be73 babc e428 8f3d
000001e0: b323 5abd 552d 303d 9122 5e3d eb2c 123d
000001f0: b524 42bd deb0 3bbd 09a5 aebc 7207 553d
00000200: dc8f 4e3d 11ad 7cbd b132 5abc 0969 99bc
00000210: 437e 8fbb b0b5 a8bc 858b 8bbc f994 b6bb
00000220: 0a9b 9ebd f997 31bd 9085 3fbd 0dca 4e3d
00000230: ce52 023d 1dff 87bd edb1 633c 777a 99bd
00000240: c00b 1d3d d60e b43b c140 173d 5908 34bd
00000250: c088 d33c 9217 003b 95ec 883d b0e7 89bc
00000260: 885e 4f3d dbcf 103d d146 ca3d dd4c f03c
00000270: 0bc1 933c bed2 953d 5acd dc3c 825f b13d
00000280: e812 143d 59f8 073d b7e0 363d 632e 0dbd
00000290: 688f 66bd 3380 4bbd 1c67 89bc dda9 5fbd
000002a0: 5b6d 1b3d bc4e c0bc 6f22 40bd 4cc8 673d
000002b0: 3b43 63bb 9db6 833d 1093 313c 6467 22bd
000002c0: 19dd e5bb 2a6c 603d 501c 3ebc 0cc8 b23c
000002d0: 477e 12bd 04df 653d de57 4b3d 79a1 4d3c
000002e0: d68f e4bc 4dc0 4b3d 70a2 31bd be08 883d
000002f0: 461e 883c 1a2a d1bc 1663 a23c 37a7 293d
00000300: 3494 a53c ac1a c93c 61b4 343d 3475 70bc
00000310: 6033 713d 652e 8b3d 23b6 80bb f89f 84bd
00000320: 383d d2bc b3fa 51bc a5dd 3f3d cb45 0fbd
00000330: d48f 0abd 17b5 14bd 876f 71bd 65be 903d
00000340: c343 47bb 435b b7bc 1cfb 7fbb 1010 7d3d
00000350: f639 1f3d 9263 ce3c d5db 11bd 3462 8b3d
00000360: bdef 303d 7bc5 b53d 8ff1 bf3d 2bd9 9b3c
00000370: 3078 4c3d e317 203d df05 c43d 64cd de3d
00000380: e532 81bc b028 783d eaa3 e23d a1cc 9fbb
00000390: 91a6 dc3c a889 183d 48ef ce3d c401 153d
000003a0: 2552 91bc 1a6b 5c3c 4e28 823c 3270 0b3d
000003b0: e9be a93d 2312 123d 780b e63d 4829 f83d
000003c0: 013a 053e d0c4 003e 0a92 243d 4d9a 223d
000003d0: 70a8 d53c b6e9 473d 3f50 0a3c 979a 6c3c
000003e0: c1d0 723d ba9e efbb ce37 cb3d 243c 133c
000003f0: a96d 183d f333 963d af44 8cbb 3e59 953d

cell.conv.bias f4 [64]
0.02892264 0.07681155 -0.004337603 0.010828844 0.0815786 0.013897695 0.08839847 -0.028030233
0.023260273 -0.02111335 0.0021185847 0.012718815 -0.013005931 0.02648381 0.06157325 -0.019210286
0.0041009746 0.08065012 0.03864328 0.05169867 0.010335843 0.037514158 0.11297677 0.017751785
0.092212096 0.07719184 -0.018303182 0.02270653 -0.018819623 0.02717415 0.0676696 -0.061847825
0.047215633 0.017957121 -0.019275382 0.059784267 0.075507134 0.06002244 0.097230695 0.015223316
0.07231062 0.06562482 -0.024003519 0.042141028 0.12001621 0.06821987 0.06344178 0.0997956
0.0022455319 0.01933466 -0.038885158 0.007119778 0.007375859 -0.06470993 0.01502219 -0.03354467
0.02801355 0.020496104 -0.05134372 -0.025564594 -0.060655013 -0.032439917 -0.03896147 -0.04946883
00000000: 2cef ec3c 604f 9d3d 7422 8ebb 776b 313c
00000010: ae12 a73d 28b3 633c 420a b53d a99f e5bc
00000020: 548c be3c e7f5 acbc f4d7 0a3b 9462 503c
00000030: d416 55bc 93f4 d83c 3b34 7c3d e45e 9dbc
00000040: 7861 863b e42b a53d 6a48 1e3d fcc1 533d
00000050: ab57 293c 72a8 193d 5d60 e73d 316c 913c
00000060: b2d9 bc3d c116 9e3d 8ef0 95bc 0b03 ba3c
00000070: 9c2b 9abc 539c de3c 5c96 8a3d 2554 7dbd
00000080: 2e65 413d d01a 933c 68e7 9dbc 59e0 743d
00000090: 7ca3 9a3d 17da 753d e320 c73d 376b 793c
000000a0: 9717 943d 4e66 863d 07a3 c4bc 129c 2c3d
000000b0: 0fcb f53d dcb6 8b3d c4ed 813d a361 cc3d
000000c0: c629 133b b963 9e3c 0b46 1fbd 074d e93b
000000d0: 31b1 f13b a486 84bd a21f 763c 2366 09bd
000000e0: ac7c e53c 72e7 a73c cb4d 52bd d76c d1bc
000000f0: 6471 78bd b8df 04bd 1096 1fbd d49f 4abd

aux_proj.weight f4 [16, 8, 1, 1]
0.066787235 0.04531265 -0.38499767 0.17106111 0.28602138 0.055689845 -0.08982188 -0.30035216
-0.3614515 0.018782077 0.31940264 0.061723106 0.004913644 0.49482033 -0.15841742 0.35370752
-0.29512325 -0.0006278715 0.20427158 -0.50393 -0.034815207 0.19900449 -0.3217451 0.024077324
-0.25429752 -0.43109113 0.34516886 -0.027943987 -0.24441424 0.35487637 -0.17013702 0.4302721
-0.5340853 -0.009580597 0.39096192 -0.21109037 -0.43969762 0.37436152 0.03045273 0.32999378
0.4771918 -0.018502008 -0.28908798 0.4195322 0.3488644 -0.06456687 -0.22923815 -0.27671242
0.41964307 -0.01018443 0.23660584 0.45563006 0.36281103 -0.2896064 -0.01091986 -0.324931
-0.43890437 0.11365371 0.22837488 -0.54053634 -0.25717095 -0.12927936 0.084858745 0.6371859
0.11120492 0.10674076 0.120455384 0.09853251 0.32619753 -0.20638748 0.28225216 -0.077717274
-0.1311271 -0.09640305 0.33745986 0.37390968 0.095972195 -0.28750664 0.033573285 0.271677
-0.46404153 -0.48050663 -0.13409667 -0.35833246 -0.40552253 -0.13693768 -0.40536097 0.10309604
-0.04471348 -0.33014065 -0.22770146 0.19392402 -0.061820608 0.33409503 0.07624911 0.1942716
0.16590163 0.2420485 -0.2095619 -0.16653359 0.23660481 -0.06629919 0.012369864 -0.26945913
0.32926172 -0.12277901 -0.0510507 -0.094155 0.011781791 0.023467667 0.38286355 -0.5023464
0.26002318 0.3215301 0.021379799 0.1310113 -0.059943546 -0.38555312 -0.14173755 -0.36805952
0.012910577 0.10737129 -0.22008188 -0.03713684 0.26936933 -0.2259199 -0.1988842 -0.4648733
00000000: bfc7 883d c299 393d 6a1e c5be a52a 2f3e
00000010: 6571 923e 091b 643d 89f4 b7bd c2c7 99be
00000020: 2c10 b9be dfdc 993c be88 a33e 5ed1 7c3d
00000030: a202 a13b 1759 fd3e 2d38 22be 2719 b53e
00000040: 651a 97be be97 24ba 922c 513e 8e01 01bf
00000050: 649a 0ebd d5c7 4b3e c6bb a4be cf3d c53c
00000060: 4933 82be fab7 dcbe f9b9 b03e caea e4bc
00000070: ba47 7abe 5bb2 b53e 6638 2ebe a04c dc3e
00000080: d0b9 08bf f0f7 1cbc 292c c83e 1328 58be
00000090: 0c20 e1be 50ac bf3e 0178 f93c f2f4 a83e
000000a0: 7c52 f43e 8691 97bc 5703 94be edcc d63e
000000b0: 5b9e b23e a33b 84bd 68bd 6abe 40ad 8dbe
000000c0: 75db d63e 98dc 26bc cd48 723e 5848 e93e
000000d0: 5ec2 b93e 4a47 94be 36e9 32bc 5b5d a6be
000000e0: 13b8 e0be 47c3 e83d 1bdb 693e 9760 0abf
000000f0: e9ab 83be cf61 04be 6cca ad3d 9d1e 233f
00000100: 68bf e33d e69a da3d 50b1 f63d 6acb c93d
00000110: 5d03 a73e 3d57 53be 5b83 903e 3c2a 9fbd
00000120: 2f46 06be f66e c5bd 8ac7 ac3e 1771 bf3e
00000130: 128d c43d 1234 93be 2484 093d 3f19 8b3e
00000140: da96 edbe f704 f6be a350 09be 5a77 b7be
00000150: a6a0 cfbe 6439 0cbe 798b cfbe 0424 d33d
00000160: 7b25 37bd 3208 a9be 922a 69be 0594 463e
00000170: 9b37 7dbd 810e ab3e 7e28 9c3d 22ef 463e
00000180: 1ee2 293e 90db 773e 6597 56be c887 2abe
00000190: 8848 723e dfc7 87bd f8aa 4a3c 8cf6 89be
000001a0: fe94 a83e 9073 fbbd 8a1a 51bd 56d4 c0bd
000001b0: 6a08 413c 443f c03c b106 c43e c699 00bf
000001c0: c221 853e 989f a43e b024 af3c d427 063e
000001d0: 5d87 75bd 3867 c5be a623 11be 4c72 bcbe
000001e0: e286 533c 7be5 db3d 255d 61be cd1c 18bd
000001f0: c7ea 893e 8c57 67be 4da8 4bbe e003 eebe

aux_proj.bias f4 [16]
0.3244448 -0.13231418 0.42558897 0.25241593 0.086165264 -0.36838323 -0.10670133 0.23626924
0.090447426 0.31555986 0.31066135 -0.24306758 -0.23276302 -0.020426527 -0.14610448 -0.047094103
00000000: a11d a63e 5e7d 07be cce6 d93e a93c 813e
00000010: 6a77 b03d ba9c bcbe 3a86 dabd 90f0 713e
00000020: 803c b93d 1091 a13e 010f 9f3e b5e6 78be
00000030: 6e59 6ebe 8855 a7bc 6a9c 15be bfe5 40bd

head.weight f4 [1, 16, 1, 1]
0.29600456 -0.18323217 -0.17625192 -0.2218953 -0.13753073 0.34647742 0.1782599 -0.2828717
0.27932972 -0.060710207 -0.18897898 -0.097019434 0.4167604 0.5583059 0.22254382 0.4888056
00000000: e98d 973e 37a1 3bbe 627b 34be 8638 63be
00000010: dbd4 0cbe 7d65 b13e c389 363e 8fd4 90be
00000020: 4e04 8f3e 44ab 78bd b583 41be 20b2 c6bd
00000030: 9f61 d53e 23ed 0e3f 87e2 633e ba44 fa3e
