experiments/sweeps_phase3/p3_tv0.001_time0.0005_run05.pt (torch, 63493 bytes, 9 tensors)

encoder.0.weight f4 [8, 1, 3, 3]
0	0x3d43f10b	0.0478373
1	0xbdbba3fb	-0.09162136
2	0xbe967860	-0.29388714
3	0xbde0617b	-0.10956093
4	0xbe566d08	-0.2094003
5	0xbd6e9ec0	-0.058256865
6	0xbea03a83	-0.3129464
7	0x3d6a5a56	0.057215057
8	0xbe0ea1eb	-0.13928954
9	0x3e2cabbf	0.16862391
10	0x3ec42fae	0.38317627
11	0x3e1e202c	0.1544196
12	0xbe06d172	-0.13165835
13	0x3e3c7313	0.18403272
14	0x3e016216	0.12635073
15	0xbe70239b	-0.23451082
16	0x3d8828b5	0.06648389
17	0x3e5dbf72	0.21655062
18	0xbe24679c	-0.16055149
19	0x3ea12e64	0.31480706
20	0x3e4ce032	0.20007399
21	0x3e98c2a2	0.29835993
22	0xbdd9028b	-0.10596188
23	0xbe2391c1	-0.1597357
24	0xbe6749f8	-0.2258681
25	0x3e85a772	0.26104313
26	0x3ea22087	0.3166544
27	0x3e84f773	0.2597004
28	0xbd9c5975	-0.0763425
29	0xbe8e3578	-0.27775168
30	0xbd8ac058	-0.06774968
31	0x3e34b55a	0.17647305
32	0xbe25eb4d	-0.16203041
33	0xbe5c2dfe	-0.2150192
34	0x3e2f7e3d	0.17138
35	0xbd79f302	-0.061022766
36	0xbd66a915	-0.056313593
37	0x3cbb3d09	0.022856252
38	0x3e8f0542	0.279337
39	0xbe090eb1	-0.1338451
40	0x3ed6c121	0.4194422
41	0x3e03ed0d	0.12883396
42	0x3c9fd83a	0.019512285
43	0xbe0ebe4c	-0.1393978
44	0x3d9daadc	0.076986045
45	0x3dee9fc8	0.116515696
46	0x3e259465	0.1616989
47	0x3e6c9c3d	0.23106475
48	0x3e9283f0	0.28616285
49	0x3dfc79de	0.12327932
50	0xbd21e5b1	-0.03952569
51	0xba9a479c	-0.0011770609
52	0xbe9b5ab3	-0.30342636
53	0xbc1e671f	-0.009668141
54	0xbdf8a9c8	-0.12141758
55	0x3e71ca40	0.23612309
56	0x3d136631	0.03598613
57	0x3dcfb16b	0.10141262
58	0x3e3dea6b	0.18546455
59	0x3ebae918	0.3650596
60	0x3e54d78c	0.2078535
61	0x3dca7e3c	0.098873585
62	0x3ea96d1d	0.3309106
63	0xbdfca82c	-0.12336764
64	0xbea437e6	-0.32073897
65	0xbe936226	-0.2878582
66	0x3dfc0027	0.123047166
67	0xbd68c97e	-0.056832783
68	0x3e93c423	0.28860578
69	0xbe5b3eb4	-0.21410638
70	0x3d5ad6a6	0.05342736
71	0x3e60fc5c	0.21971267

encoder.0.bias f4 [8]
0	0xbea6ddd8	-0.32591128
1	0xbe9bda98	-0.3044021
2	0x3d7dc7da	0.06195817
3	0x3e8a8335	0.27053228
4	0xbdd4b15e	-0.103853926
5	0xbe636db5	-0.22209819
6	0x3e4c5f55	0.19958241
7	0x3eb85939	0.3600557

encoder.2.weight f4 [8, 8, 3, 3]
0	0xbdea7410	-0.114479184
1	0x3cb519b9	0.022106992
2	0x3d88858e	0.066660985
3	0xbdc27e36	-0.09496729
4	0x3df0874d	0.117445566
5	0xbdde6ba0	-0.108603716
6	0x3ddb8e48	0.10720497
7	0x3db40721	0.08790422
8	0x3c3615d6	0.0111136045
9	0x3c49f4ff	0.012326478
10	0xbd4f6452	-0.050632782
11	0x3dbecd64	0.09316519
12	0x3cacb662	0.02108306
13	0xbd9c6029	-0.076355286
14	0x3d91fc85	0.071282424
15	0xbc943746	-0.018092763
16	0xbdc201a4	-0.09472969
17	0xbdd99f88	-0.10626131
18	0xbdafd176	-0.085848734
19	0x3d6cd75c	0.05782257
20	0x3e008023	0.1254888
21	0x3d343448	0.04399517
22	0xbd3ba0a2	-0.04580749
23	0x3c748526	0.014924323
24	0xbd252df2	-0.04032702
25	0xbdab8692	-0.083752766
26	0x3cdf5aae	0.02726492
27	0xbca528fb	-0.020161143
28	0x3e27e85d	0.16397233
29	0x3d9af7b8	0.0756678
30	0x3e51cd09	0.20488371
31	0xbc8b0d32	-0.016974065
32	0x3d85c1ea	0.06531127
33	0x3d2b7389	0.04185823
34	0x3d40b7da	0.047050335
35	0x3cd7ebc0	0.026357532
36	0xbe11338e	-0.14179823
37	0xbd668c9a	-0.05628643
38	0x3e021484	0.12703139
39	0xbdd5e271	-0.10443581
40	0xbda2ed16	-0.07955377
41	0xbd404295	-0.046938498
42	0xbe954f90	-0.29162264
43	0xbe2f746a	-0.17134252
44	0x3dbc37b5	0.09190313
45	0x3dd8bf7c	0.10583398
46	0x3d0afc65	0.03393211
47	0x3db59fa6	0.08868341
48	0x3d71e3d3	0.05905516
49	0x3d216eab	0.03941218
50	0xbdbefa85	-0.093251266
51	0xbb7cb449	-0.0038559607
52	0xbe00da23	-0.12583213
53	0xbd97b896	-0.07408254
54	0x3d6d75a0	0.057973504
55	0xbda65089	-0.081208296
56	0x3ca38aad	0.019963587
57	0xbd90ac97	-0.07064169
58	0xbdaac1d2	-0.083377495
59	0xbd9992b5	-0.07498685
60	0x3dee955e	0.11649583
61	0x3c90c896	0.017673772
62	0x3d6ad96a	0.05733625
63	0xbcdc80b2	-0.026916835
64	0xbc27e4ff	-0.010247468
65	0x3df15e44	0.11785558
66	0x3e0cb852	0.13742188
67	0xbcb86b1c	-0.022512011
68	0x3e0cafd6	0.13738951
69	0x3c8a5afb	0.016889086
70	0x3daebfb0	0.08532655
71	0x3e32ed85	0.17473419
72	0x3dcdc91f	0.100481264
73	0xbc405fde	-0.0117416065
74	0xbd9bdede	-0.07610868
75	0xbd8ce617	-0.06879824
76	0xbdc8c452	-0.0980307
77	0x3c226b5a	0.00991329
78	0x3c053d10	0.008132234
79	0x3d8800e2	0.066407934
80	0x3d053514	0.032521322
81	0x3db75722	0.08952166
82	0x3df71bf8	0.120658815
83	0x3ccf6cb0	0.02532038
84	0x3dd2aca4	0.10286835
85	0x3d606942	0.05478788
86	0x3d4021a6	0.04690709
87	0x3e11e38b	0.14246957
88	0x3d040752	0.032233544
89	0x3df70ba4	0.12062767
90	0x3d1f68c7	0.038918283
91	0xbd80d494	-0.06290546
92	0xbd8312d9	-0.06400079
93	0x3dd65cb5	0.10466901
94	0xbca49213	-0.020089185
95	0x3dfc2ef5	0.12313644
96	0x3de1f7b9	0.110335775
97	0x3de54fd3	0.11196866
98	0x3dfa3b07	0.1221829
99	0xbe012937	-0.12613378
100	0x3d62ae59	0.055342052
101	0xbdbc4a18	-0.0919382
102	0xbd3541fc	-0.04425238
103	0x3cdad4d3	0.02671281
104	0x3d8dab51	0.06917442
105	0xbd4e5b35	-0.05037995
106	0xbdab16bc	-0.083539456
107	0x3dd360e1	0.103212126
108	0x3e83cf36	0.25744027
109	0xbe0b5ef9	-0.13610448
110	0x3d1c8054	0.03820832
111	0x3e6f4f0d	0.23369999
112	0x3e97175a	0.29510003
113	0xbe074f12	-0.13213757
114	0x3ec21fcf	0.37914893
115	0x3d47248d	0.048618842
116	0xbdf04d07	-0.11733442
117	0xbd3a449b	-0.045475584
118	0xbded9e2b	-0.11602434
119	0x3dbbbecc	0.09167251
120	0x3dbd1208	0.09231955
121	0x3e2d506f	0.16925214
122	0x3da0709f	0.07833981
123	0x3d8d8978	0.06910986
124	0x3e0b3c1e	0.13597152
125	0x3e6803b6	0.22657666
126	0xbc806e99	-0.015677737
127	0xbc5ab118	-0.0133478865
128	0x3dbe1549	0.092814036
129	0x3c66dffb	0.014091487
130	0x3dba4cac	0.09096655
131	0x3c7a4783	0.015275839
132	0xbb79d456	-0.0038120947
133	0x3dcb3088	0.09921366
134	0xbd38dbc1	-0.04513145
135	0x3d9bef04	0.07613948
136	0x3d1de0f4	0.03854461
137	0xbba1b02a	-0.0049343305
138	0xbc2b70ab	-0.010463874
139	0x3d0594cc	0.032612607
140	0x3c4f275c	0.012643661
141	0xbe3202c4	-0.17383868
142	0xbe45fd4c	-0.19334906
143	0xbe303891	-0.17209078
144	0xbd3d452e	-0.046208553
145	0xbdb0e852	-0.086380616
146	0xbd62a83d	-0.055336226
147	0xbb094cdd	-0.0020950355
148	0xbda8cbe8	-0.08242017
149	0xbd78ae5b	-0.060713153
150	0xbd165411	-0.036701266
151	0x3d10e081	0.035370354
152	0xbd24fd42	-0.040280588
153	0xbd0d55fb	-0.034505825
154	0x3e05d06b	0.13067786
155	0x3dfad71c	0.1224806
156	0x3d9f00bc	0.07763812
157	0x3d5edf86	0.054412387
158	0xbd4a08f7	-0.049324956
159	0x3d006848	0.03134945
160	0x3e24b6ae	0.16085312
161	0x3dcc03df	0.09961676
162	0x3e095041	0.1340952
163	0x3e13b885	0.14425857
164	0x3c445203	0.011982444
165	0x3de80d91	0.113307126
166	0xbc338563	-0.010957095
167	0x3996c3b5	0.00028756043
168	0x3cf0d689	0.029399173
169	0x3ddb9a0c	0.107227415
170	0x3d86eb37	0.065878324
171	0x3c86a20d	0.016434694
172	0x3d86ef9b	0.0658867
173	0xbdd409f1	-0.10353459
174	0xbcff75fe	-0.031184193
175	0xbd823621	-0.063579805
176	0x3dc199df	0.09453177
177	0xbdd28d86	-0.102809
178	0x3be44ada	0.006966931
179	0x3de56abc	0.112019986
180	0x3d83e476	0.0644006
181	0x3d64850b	0.055790942
182	0xbe188a7a	-0.14896575
183	0x3db0e08d	0.0863658
184	0x3e62f830	0.22164989
185	0xbd3ef501	-0.046620373
186	0x3e0f7e50	0.14013028
187	0x3ddc60b6	0.10760634
188	0x3d28e77e	0.041236393
189	0xbe4c4fd9	-0.19952334
190	0xbe611e09	-0.21984114
191	0xbd395998	-0.04525146
192	0x3d54f66e	0.051992826
193	0x3d84968a	0.064740255
194	0x3e1729fc	0.1476211
195	0x3caa6b86	0.020803224
196	0x3dfe9269	0.12430269
197	0x3e3bed29	0.18352188
198	0xbd38b37d	-0.04509305
199	0x3d98427c	0.07434556
200	0x3cf7d078	0.030250773
201	0xba1d15a8	-0.0005992302
202	0x3da3a831	0.07991064
203	0xbd2be4d7	-0.041966286
204	0x3d720272	0.059084363
205	0x3b340bc6	0.0027472838
206	0x3e0dbcab	0.13841502
207	0x3db939c7	0.09044223
208	0x3c5f5926	0.0136320945
209	0xbd459000	-0.048233032
210	0xbcdd55ff	-0.027018545
211	0xbd65426d	-0.05597155
212	0xbd867562	-0.06565358
213	0x3cb15743	0.021648055
214	0x3cbe6183	0.023239857
215	0xbdf11cd1	-0.117730744
216	0xbcd4ef0a	-0.025992889
217	0xbdb23a95	-0.0870258
218	0xbc40b24e	-0.011761261
219	0x3d52f845	0.0515063
220	0x3da052bd	0.07828281
221	0x3c215bf1	0.009848581
222	0x3dedd3de	0.11612676
223	0x3dd24ef1	0.10268963
224	0x3dc1937b	0.09451958
225	0x3c90cf31	0.017676922
226	0x3d5a3ce8	0.05328074
227	0xbced63a5	-0.028978178
228	0xbb87f956	-0.004149596
229	0x3d931c13	0.07183089
230	0xbab6b5b3	-0.0013939649
231	0x3da877e5	0.08225993
232	0x3c3bdf2a	0.011466781
233	0x3d5130d2	0.05107195
234	0xbdefd25d	-0.117100455
235	0x3d0f3989	0.03496698
236	0xbd8d3a8e	-0.06895934
237	0xbd43c928	-0.04779926
238	0xbd60a7ad	-0.054847408
239	0xbdb4afe6	-0.088226125
240	0xbd77923f	-0.060442206
241	0xbbaaaa20	-0.0052082688
242	0xbd87e5e2	-0.066356435
243	0xbca93738	-0.020656213
244	0xbdcbf836	-0.09959452
245	0x3dcd091c	0.10011503
246	0x3d9b3878	0.0757913
247	0xbdc44821	-0.0958407
248	0xbd2cb316	-0.042162977
249	0x39aae7ff	0.00032597777
250	0x3c3b823d	0.011444625
251	0xbd723fb2	-0.059142776
252	0x3d8d4266	0.0689743
253	0x3d359862	0.044334777
254	0xbd301a82	-0.04299403
255	0x3b297ee7	0.0025862993

encoder.2.bias f4 [8]
0	0x3e1be363	0.1522346
1	0xbd287b29	-0.04113308
2	0xbd8740e1	-0.066041715
3	0xbddd62ab	-0.10809835
4	0x3e0a8f85	0.13531311
5	0x3d5d516c	0.054032728
6	0xbcfdf5de	-0.031001028
7	0x3bee3f77	0.007270749

cell.conv.weight f4 [64, 24, 3, 3]
0	0xbb0593b0	-0.0020382218
1	0x3d70f3bd	0.058826197
2	0xbb7f2d26	-0.0038936823
3	0x3ba656c3	0.005076261
4	0x3dc35bb3	0.095389746
5	0x3d8e0a02	0.069355026
6	0x3a807390	0.0009800065
7	0x3d63332d	0.055468727
8	0x3ce856d9	0.028361725
9	0x3d27ce53	0.04096825
10	0x3d88c147	0.0667749
11	0x3d88739e	0.06662677
12	0x3ccd8bf1	0.025091143
13	0x3d7d6900	0.061867714
14	0x3d411c37	0.04714605
15	0x3d99c24c	0.07507762
16	0x3d662aa4	0.05619301
17	0x3cf9f88a	0.03051402
18	0x3ce7fb04	0.028317936
19	0x3ca5a3f9	0.02021979
20	0x3d2a5432	0.0415842
21	0x3d6ca756	0.05777677
22	0x3d88c49b	0.066781245
23	0x3db8fdee	0.09032808
24	0x3bb494e2	0.0055109123
25	0x3cdfe1a2	0.02732927
26	0x3d2cc645	0.042181272
27	0x3c990e3a	0.018683542
28	0xbd899bdf	-0.06719183
29	0xbcaa2736	-0.02077065
30	0x3c7e9616	0.015538713
31	0x3b0e90db	0.002175382
32	0xbd16713a	-0.036729075
33	0xbce5c25c	-0.02804678
34	0xbd361d44	-0.044461504
35	0x3c9102fd	0.01770162
36	0xbcba9723	-0.022777146
37	0xbc807852	-0.015682373
38	0x3dc1357c	0.094340295
39	0x3d35c49f	0.044376966
40	0x3de4cd47	0.11171966
41	0x3cc9064c	0.024539135
42	0x3d08e89b	0.033424955
43	0xbbb5afe8	-0.0055446513
44	0xbcaff486	-0.021478903
45	0x3d1e95e9	0.038717184
46	0x3c93407d	0.017975086
47	0x3d8dfc7c	0.06932923
48	0x3db9f896	0.09080617
49	0xbc13f54e	-0.009030653
50	0x3c1be63a	0.0095153395
51	0x3dca372b	0.09873804
52	0x3d2a4d4c	0.041577622
53	0x3d14d209	0.036333118
54	0x3c8b152c	0.016977869
55	0x3c07689c	0.008264687
56	0x3db4986b	0.08818134
57	0xbc0b5464	-0.008504007
58	0xbcd6107e	-0.026130911
59	0x3d026c6f	0.03184169
60	0x3ccf5d2b	0.02531298
61	0x3e022e59	0.12712993
62	0x3d6ffade	0.058588855
63	0xbdd2d942	-0.10295345
64	0x3db73d81	0.08947278
65	0x3e4e4264	0.20142514
66	0xbdd7b626	-0.10532789
67	0xbc321ede	-0.010871617
68	0x3e2130d9	0.1574129
69	0xbe2626c4	-0.16225725
70	0xbdee2e95	-0.116299786
71	0x3cd4743f	0.025934337
72	0x3c8e43db	0.01736634
73	0x3ca9276e	0.020648684
74	0xbd92d079	-0.07168669
75	0xbcfac8a4	-0.030613251
76	0xbd978814	-0.07399002
77	0xbbd79d07	-0.0065799984
78	0xbd3c0963	-0.04590739
79	0xbcd21a79	-0.025647389
80	0xbda1fc42	-0.079094425
81	0xbcc9f289	-0.024651783
82	0x3d182c90	0.037151873
83	0x3c14982a	0.009069482
84	0x3cacc972	0.02109215
85	0x3d5e8fe7	0.054336455
86	0x3d99c059	0.075073905
87	0x3d0fdc2b	0.035122078
88	0x3da06748	0.07832199
89	0xbd047fc2	-0.0323484
90	0x3d315f33	0.04330368
91	0x3bf271e6	0.0073988317
92	0x3d5f0a45	0.054453153
93	0x3cfaa9e6	0.030598592
94	0x3d58ab34	0.052897647
95	0x3d223583	0.039601814
96	0x3cd3b30b	0.02584221
97	0x3da76359	0.08173246
98	0x3db79037	0.08963054
99	0x3cdb18ae	0.026745167
100	0xbc3fde6e	-0.011710746
101	0xbd2485dd	-0.040166724
102	0xbd688d0e	-0.056775145
103	0xbc47fa9b	-0.012205745
104	0x3ccca753	0.02498213
105	0xbd3a8693	-0.045538496
106	0x3d475fde	0.04867541
107	0x3c69469c	0.014238026
108	0x3c919dd3	0.017775452
109	0x3dfa27b4	0.12214604
110	0x3d2632d4	0.040575817
111	0x3dd90561	0.10596729
112	0x3ca5581e	0.02018362
113	0x3da97864	0.08274916
114	0xbcfcbd70	-0.03085205
115	0x3d1ebf2f	0.038756546
116	0x3d59511d	0.05305587
117	0xbc81b836	-0.015834909
118	0x3bc3bfbe	0.005973785
119	0x3d18f0d1	0.037339035
120	0xbd5b9b60	-0.053614974
121	0x3daa32b4	0.08310452
122	0x3dccd584	0.100016624
123	0xbd4660ce	-0.048432164
124	0xbb4550ca	-0.0030107968
125	0xbd2832b8	-0.041063994
126	0x3d491488	0.049091846
127	0x3c9c234d	0.019059801
128	0x3d90653f	0.07050561
129	0x3cb49a61	0.02204627
130	0x3c5aa47f	0.013344883
131	0x3d9f0007	0.07763677
132	0xbd35902b	-0.044326942
133	0x3ce3b43d	0.027795905
134	0x3c2bc6df	0.010484426
135	0xbdc15e8f	-0.09441864
136	0x3c931477	0.017954094
137	0xbd25eed4	-0.040510967
138	0xbdda99fe	-0.10673903
139	0xbd4a97eb	-0.049461287
140	0xbdb4cbbf	-0.08827924
141	0xbda9e4f2	-0.08295621
142	0xbd97ae1d	-0.07406256
143	0x3cbd5457	0.023111505
144	0xbe27e1a5	-0.1639467
145	0xbcc8eb81	-0.02452636
146	0xbd2c69c1	-0.042093042
147	0xbdade4ab	-0.084908806
148	0x3c7d3a18	0.015455745
149	0xbde8a144	-0.11358884
150	0xbe26950e	-0.16267797
151	0xbe349a8c	-0.1763708
152	0xbe2f12e8	-0.17097056
153	0x3d8c8f4c	0.06863269
154	0x3d2d9cc7	0.042385843
155	0xbc39dc70	-0.01134406
156	0x3daa71e8	0.08322507
157	0x3b76ef28	0.003767917
158	0x3d6920d9	0.05691609
159	0xbc0bb6af	-0.008527442
160	0x3b9ce8b3	0.004788482
161	0x3bea83f2	0.0071568424
162	0x3cb6e051	0.02232376
163	0x3dd49a5b	0.103810035
164	0x3c950da4	0.01819498
165	0xbc0e8f80	-0.008701205
166	0x3dcee444	0.10102132
167	0x3c24666b	0.010034184
168	0xbbbea003	-0.0058174147
169	0xbcdd1035	-0.026985267
170	0x3d925976	0.071459696
171	0x3bb63ef0	0.005561702
172	0x3c924792	0.017856393
173	0x3d8e8b2d	0.069601394
174	0x3d96128c	0.07327756
175	0xbd898407	-0.06714635
176	0x3d76e437	0.060276236
177	0xbcf4aa7b	-0.029866448
178	0xbc1bb589	-0.009503731
179	0x3cb007b7	0.021488054
180	0x3d248364	0.040164366
181	0x3cd4f569	0.025995927
182	0x3d938830	0.0720371
183	0x3c1f175c	0.009710159
184	0x3d09b0d1	0.03361589
185	0x3d81d9da	0.0634038
186	0x3c9a9294	0.018868722
187	0xbc519b32	-0.012793349
188	0xbc3b25e6	-0.01142261
189	0x3de3ef42	0.11129619
190	0x3dbbd225	0.09170941
191	0x3c9f3634	0.019435026
192	0xbb2de0a9	-0.0026531613
193	0x3d7010bf	0.05860972
194	0x3c76361a	0.015027547
195	0x3bf4e92f	0.0074740867
196	0x3d060b4c	0.032725617
197	0x3c28c7f1	0.010301576
198	0xbb99eefb	-0.004697678
199	0x3d5ab6c6	0.053396963
200	0x3c9b4a60	0.018956363
201	0x3de34e79	0.11098952
202	0x3ccfe518	0.025377795
203	0x3e022c8d	0.12712307
204	0x3dc1359b	0.094340526
205	0x3d7f143b	0.062275153
206	0xbc37e2e3	-0.011223528
207	0xbd241313	-0.040057253
208	0xbcd9c6ef	-0.026584117
209	0x3ce514ed	0.02796408
210	0x3cf645dd	0.03006261
211	0x3d26063f	0.0405333
212	0x3cfeea6d	0.031117642
213	0xbd7d08a7	-0.06177583
214	0x3c5c6ec7	0.013454146
215	0xbda943b6	-0.08264868
216	0x3de44937	0.11146777
217	0x3e222e06	0.15837869
218	0x3e27f27b	0.16401093
219	0x3e50a7f9	0.20376576
220	0x3df1e841	0.11811877
221	0x3e637079	0.22210874
222	0x3e0ab358	0.13544977
223	0x3e3dd761	0.18539192
224	0x3e644918	0.22293508
225	0x3d7be7a3	0.061500203
226	0x3b2f4ee0	0.0026749894
227	0x3c0431ec	0.008068543
228	0x3da53a3a	0.080677465
229	0x3c9babea	0.019002873
230	0x3d19b87a	0.037529446
231	0x3dcf54dc	0.101236075
232	0x3dde1c93	0.10845294
233	0x3cd3dbcc	0.025861643
234	0x3cc28a82	0.023747686
235	0xbd1cbb6b	-0.038264673
236	0x3ce7be0b	0.028288862
237	0xbb5f5e80	-0.0034083426
238	0x3d0e20b2	0.03469915
239	0x3d965e30	0.073421836
240	0x3cafb592	0.021448884
241	0xbc3797ab	-0.011205594
242	0x3db9e087	0.09076028
243	0xbd6d4342	-0.05792547
244	0x3d1b308c	0.037888095
245	0x3d3ecbe2	0.046581157
246	0x3c1d96d3	0.009618479
247	0x3ba28b86	0.00496048
248	0xbc588889	-0.013216146
249	0x3d036125	0.032075066
250	0x3cefd890	0.02927807
251	0xbd855233	-0.06509819
252	0x3e132ae5	0.14371832
253	0x3e046d51	0.12932326
254	0x3dda6749	0.10664231
255	0x3e0f6102	0.1400185

cell.conv.bias f4 [64]
0	0x3d0ba723	0.03409494
1	0x3df3e4a9	0.11908848
2	0xbbe7fcb9	-0.0070796874
3	0xbcb3ddd9	-0.021956371
4	0x3d3d26f3	0.046179723
5	0xbcb59013	-0.022163427
6	0x3dada8aa	0.08479436
7	0x3ddfdf21	0.1093123
8	0x3d5a924c	0.053362176
9	0x3d2407ec	0.040046617
10	0x3dc04a56	0.093891785
11	0xbc0e83de	-0.008698432
12	0xbcbfdc54	-0.02342049
13	0x3d5975c5	0.05309083
14	0x3d18674b	0.037207883
15	0x3daabc9d	0.083367564
16	0x3c4ccffd	0.01250076
17	0x3e06fb48	0.13181794
18	0xbd0cfda5	-0.03442158
19	0xbd58a08a	-0.052887477
20	0x3dcef082	0.10104467
21	0xbd7adb51	-0.061244313
22	0x3dbe4da9	0.09292156
23	0x3ddbfdb7	0.10741752
24	0xbd9189b3	-0.07106342
25	0xbd55c2cc	-0.052187726
26	0x3d443c5b	0.047909122
27	0x3db768cf	0.089555375
28	0xbc26c17b	-0.010177965
29	0x3d8636bf	0.06553411
30	0x3dba5b97	0.090995006
31	0x3d96ff56	0.0737292
32	0x3da56504	0.08075908
33	0x3dd0c48f	0.101937406
34	0x3db4b810	0.0882417
35	0x3d8bfb1b	0.06835004
36	0xbd1af791	-0.037833754
37	0x3cb5c89e	0.022190388
38	0x3c672e3e	0.014110146
39	0x3e04dd8e	0.12975141
40	0x3d947ffb	0.07250973
41	0x3dc40731	0.09571684
42	0x3de81638	0.11332363
43	0xbbfa9a79	-0.007647809
44	0x3ca0c021	0.019622864
45	0x3d132907	0.0359278
46	0x3d9f0460	0.07764506
47	0x3c98b494	0.018640794
48	0x3d77af2f	0.060469802
49	0x3cfcb5f9	0.03084849
50	0xbc99bc6f	-0.01876661
51	0xbd884e8c	-0.066556066
52	0x3cd74345	0.026277194
53	0xbd2faa91	-0.042887274
54	0xbd3faa40	-0.046793222
55	0xbd701f21	-0.058623437
56	0x3b39d4c7	0.0028355585
57	0xbd15d189	-0.03657678
58	0x3d3ce9fe	0.04612159
59	0xbd37260c	-0.04471402
60	0x3d841c9c	0.06450769
61	0xbd3699c7	-0.044580247
62	0xbd133dd9	-0.035947654
63	0x3cc6a7e9	0.024249988

aux_proj.weight f4 [16, 8, 1, 1]
0	0x3e337d11	0.17528178
1	0x3e10ba75	0.14133628
2	0x3e70e364	0.23524243
3	0x3db47195	0.088107266
4	0x3f00d191	0.5031977
5	0xbe005218	-0.12531316
6	0x3e29d84c	0.16586417
7	0x3eb119b7	0.3458993
8	0x3ee7f009	0.4530032
9	0xbe23399d	-0.15939946
10	0xbe2eb60a	-0.1706163
11	0x3e83fd94	0.25779402
12	0x3efc3644	0.4926015
13	0xbdd3e1be	-0.10345791
14	0xbed2c09c	-0.41162574
15	0x3ce91ec3	0.028457051
16	0xbd57c0cd	-0.052674104
17	0x3dcb268a	0.0991946
18	0x3b27eae2	0.0025622179
19	0x3e4561d4	0.192756
20	0xbc7d73ad	-0.015469474
21	0x3dbf8f81	0.09353543
22	0xbe2d404c	-0.16919059
23	0xbec15a85	-0.37764373
24	0x3d144ba0	0.036204934
25	0xbe9d656e	-0.30741447
26	0xbeb6dd95	-0.3571593
27	0x3e8ce2a3	0.2751666
28	0x3e045a6b	0.12925117
29	0x3e8c0d85	0.27354065
30	0x3e1ba1c6	0.1519843
31	0x3f0af689	0.5428243
32	0x3ef77d2e	0.48337692
33	0x3e3c689d	0.18399282
34	0x3de5e7f5	0.11225883
35	0xbe8fdb66	-0.28097075
36	0x3e48d7a7	0.19613515
37	0x3dfdd179	0.12393469
38	0x3dd374a8	0.10324985
39	0x3d1c9d52	0.03823597
40	0x3e532b88	0.20622075
41	0xbecbcf71	-0.39806703
42	0xbc82a45e	-0.015947517
43	0xbea5d0b7	-0.323858
44	0x3ee74c77	0.45175526
45	0xbec2dab9	-0.38057497
46	0xbec5c085	-0.38623443
47	0x3f2c5d36	0.6732973
48	0x3ed3a447	0.4133627
49	0xbea1daa5	-0.31612125
50	0xbe82a5ae	-0.2551703
51	0xbe8f68df	-0.28009698
52	0x3ed15dfc	0.40892017
53	0xbddb547b	-0.10709473
54	0xbedc0b4f	-0.42977378
55	0x3f17c087	0.5927815
56	0xbe4c09cc	-0.19925612
57	0x3eed0f1e	0.46300596
58	0x3ebaec49	0.36508396
59	0xbe8a8fa8	-0.27062726
60	0xbe552bc2	-0.20817474
61	0x3ec238c1	0.37933925
62	0x3ea1d823	0.31610212
63	0xbf0b931c	-0.54521346
64	0x3e55d627	0.20882474
65	0xbda2e29e	-0.0795338
66	0xbe61cd74	-0.2205103
67	0xbdc32e38	-0.095303
68	0xbdfdf0c7	-0.1239944
69	0xbec46ea5	-0.38365665
70	0x3e1c8b5d	0.15287538
71	0x3e4ce783	0.2001019
72	0xbc5fba25	-0.01365522
73	0x3e3df987	0.18552218
74	0xbde35fb6	-0.1110224
75	0x3e06be29	0.13158478
76	0xbd1810ac	-0.037125275
77	0xbd6e103e	-0.05812096
78	0xbdcfa640	-0.101391315
79	0xbf134fe3	-0.5754377
80	0x3e6fcc40	0.23417759
81	0xbef472bf	-0.47743794
82	0xbe7d0788	-0.24709904
83	0xbd6346de	-0.055487506
84	0x3e2fc2ac	0.17164105
85	0xbe680989	-0.22659887
86	0x3e3dcd8e	0.18535444
87	0x3e66c5b2	0.22536352
88	0x3eb66621	0.35624793
89	0xbe077d4c	-0.1323139
90	0xbe062157	-0.13098656
91	0x3debddae	0.115168914
92	0x3e28f324	0.16499001
93	0xbdc0bf61	-0.09411503
94	0x3de2ecd2	0.11080326
95	0x3ddc9100	0.10769844
96	0xbe915e56	-0.28392285
97	0x3defec2c	0.11714968
98	0x3df2edc0	0.118617535
99	0x3df1b90f	0.11802875
100	0xbee5d5e3	-0.44889745
101	0xbc788e94	-0.015170712
102	0x3eaeb40c	0.3412174
103	0xbeec2330	-0.46120596
104	0x3ca0f3ba	0.019647468
105	0xbec8b791	-0.3920255
106	0xbe8f61bc	-0.28004253
107	0x3e3c3365	0.1837898
108	0x3d2c95f1	0.042135183
109	0x3e5715e7	0.21004449
110	0xbe16ba3f	-0.14719485
111	0x3f19e0c2	0.6010858
112	0x3e84ab29	0.25911835
113	0xbe860412	-0.2617498
114	0xbd341b6b	-0.04397146
115	0xbbb55d56	-0.005534808
116	0xbcac0e4d	-0.021002913
117	0xbde3786c	-0.11106953
118	0xbe9c337b	-0.30508026
119	0x3f28c939	0.6593204
120	0xbd71f516	-0.059071623
121	0x3e1c5f04	0.1527062
122	0xbe720da9	-0.23638023
123	0x3d96868f	0.07349884
124	0xbf0140cd	-0.50489503
125	0x3e26df7c	0.1629619
126	0xbe1d6bd0	-0.15373158
127	0xbf15d190	-0.5852289

aux_proj.bias f4 [16]
0	0x3e3c31c2	0.18378356
1	0xbcacee9d	-0.021109873
2	0xbe081656	-0.1328977
3	0x3e20f828	0.15719664
4	0x3e48b703	0.19601063
5	0xbe997404	-0.29971325
6	0xbc8c0060	-0.017090023
7	0xbdcc5db4	-0.0997881
8	0x3d7276d4	0.059195355
9	0xbe49a296	-0.19690928
10	0xbea8cdcc	-0.3296951
11	0x3ce75ad1	0.028241547
12	0xbe52c2eb	-0.20582168
13	0x3e2b520f	0.16730522
14	0xbe3d83be	-0.18507287
15	0x3cb0ca1f	0.021580754

head.weight f4 [1, 16, 1, 1]
0	0xbe3d6058	-0.18493783
1	0xbeb154c9	-0.34634998
2	0x3e5b7e7b	0.21434967
3	0xbeb7ce2d	-0.35899487
4	0xbd733cc9	-0.05938414
5	0xbe863891	-0.26215032
6	0xbe88fc14	-0.2675482
7	0x3e54b7d6	0.20773253
8	0xbf39a407	-0.7251591
9	0x3f1b4488	0.60651445
10	0xbe509400	-0.20368958
11	0xbdbc535c	-0.09195587
12	0x3efa5926	0.4889614
13	0xbeb0673a	-0.34453756
14	0xbdcce99b	-0.10005494
15	0x3e4646b9	0.19362916
