experiments/sweeps_phase3/p3_tv0_time0.001_run03.pt (torch, 63413 bytes, 9 tensors)

encoder.0.weight f4 [8, 1, 3, 3]
000000 d8 f7 82 3e d0 6d 1b be ce 49 06 bd fb 89 b5 3d
       0.25579715 -0.15178609 -0.03278523 0.08864208
000010 6d 38 96 3e 98 6c 73 be 4f 46 92 3e f7 b2 33 be
       0.29339924 -0.23771894 0.28569266 -0.17548738
000020 eb b4 6e 3d 86 8e a2 bd f3 b0 a7 3e 1c 41 82 3e
       0.058278006 -0.079373404 0.3275219 0.254403
000030 d2 55 04 be e2 39 24 be 46 3a 35 3d ac 3e 18 3e
       -0.12923363 -0.16037706 0.044245027 0.14867657
000040 27 92 1d be aa 91 e8 bd a9 68 df 3d fd 4f 8f bc
       -0.15387784 -0.11355908 0.10908634 -0.017494196
000050 56 e8 83 3d 9b 1c 29 bc dd 37 8e be 91 23 48 3e
       0.06440799 -0.0103217615 -0.27776995 0.19544818
000060 fc 7e c0 bd b8 c8 74 3e af 54 a7 bc bc d8 bb 3d
       -0.0939922 0.23904693 -0.020426122 0.09172198
000070 28 14 81 3e 0b b2 c1 bc 84 7a 75 3c ce 80 4c 3c
       0.2521069 -0.023644468 0.014982823 0.012481881
000080 d0 d8 58 3e 33 1c 42 3e 82 52 aa 3d 48 35 89 be
       0.21176457 0.1895607 0.08316518 -0.26798463
000090 c6 f4 79 3e fc 06 fe 3d f1 23 11 be bc 0b df bd
       0.2440978 0.12403676 -0.14173867 -0.1089091
0000a0 a5 29 9f 3e fb d1 14 be 92 f8 46 3e 5a 5b 07 3e
       0.3108646 -0.14533226 0.1943076 0.13218442
0000b0 56 82 d0 3d f9 de 7f be 2a 7a bd 3e 89 c3 0b 3e
       0.101811096 -0.24987401 0.37007266 0.1364881
0000c0 e5 78 78 3e 85 29 8b be e9 8e be bd 75 c4 b8 3e
       0.24264868 -0.27180114 -0.09304602 0.36087385
0000d0 7f 5e 0d 3d 34 3c 44 3d 36 5b 28 3e 89 b7 17 3e
       0.034513947 0.047908977 0.16441044 0.14816107
0000e0 ca fe db 3d 09 0a 95 bd 55 68 cc 3d e8 7f 84 3e
       0.107419565 -0.07277305 0.09980837 0.25878835
0000f0 4d 82 84 3e 8e 5a 92 be af a0 0f be 39 73 cb 3e
       0.25880662 -0.28584713 -0.1402614 0.39736345
000100 51 8c bc 3e e0 cc 73 bc a3 31 e2 bd 96 2c 64 3e
       0.36825803 -0.014880389 -0.11044624 0.22282633
000110 3c 88 bd bd 93 66 66 be 18 af 01 bd 0a af 59 bd
       -0.092545 -0.22500066 -0.031661123 -0.053145446

encoder.0.bias f4 [8]
000000 c0 6b eb bd ca 30 64 3d ed c0 21 bd 0f b2 e3 bd
       -0.11495161 0.05571059 -0.03949063 -0.11117946
000010 d9 e7 78 3d 87 22 6b bc 5f e4 56 be f9 e4 5d bd
       0.060767982 -0.014351494 -0.20985554 -0.054173443

encoder.2.weight f4 [8, 8, 3, 3]
000000 9d 82 1d 3e 5f 23 82 bb d2 13 37 be a4 13 f1 3c
       0.15381856 -0.0039715017 -0.17878655 0.02942831
000010 94 b8 a2 bd 17 cd bd bd 80 1e 0c 3e df fe b7 3d
       -0.07945362 -0.092676334 0.1368351 0.0898416
000020 c9 64 8d bd e2 1d 32 3e 8c 6a 8c bb 6f 0d 32 3e
       -0.06903989 0.17394212 -0.0042851623 0.17387937
000030 50 fa 9a bb 84 b6 d1 3d 91 18 a1 3c e4 87 46 be
       -0.0047295466 0.1023989 0.019665034 -0.19387776
000040 7b 6b be bd d0 8f 0d 3e 8d af 51 bd 48 a1 34 3c
       -0.09297844 0.13824391 -0.05119281 0.011024781
000050 73 db 38 3d 17 28 44 be a2 e6 f0 bb a9 c1 cd 3d
       0.045131158 -0.19155918 -0.0073517123 0.10046703
000060 58 bf d1 3c a8 9e ca 3c 6d 46 c2 3d 68 2b 9a 3d
       0.025603935 0.024733856 0.09486089 0.0752781
000070 a1 7f 98 3d 63 70 07 be 42 bc 99 3d 1a e0 e1 3c
       0.07446218 -0.13226466 0.075066105 0.02757268
000080 d7 9a 49 3d 01 c5 75 3c c8 07 bf 3b 47 20 0a bc
       0.049219932 0.015000583 0.005829785 -0.008430547
000090 39 b0 20 bd a1 69 74 3d 3b 79 32 3d 30 90 21 bc
       -0.03923056 0.059671048 0.043572646 -0.009861037
0000a0 2b 38 b4 bd d3 b9 e7 bc f6 40 0c bd 64 20 3a bd
       -0.08799776 -0.02828685 -0.03424164 -0.045441046
0000b0 ad 54 a0 3d 1b 8b a1 3c a4 1b d1 bd 74 46 9d 3d
       0.078286506 0.019719651 -0.1021035 0.076794535
0000c0 26 9e 01 bd 3a f5 65 bd f1 02 47 3d b2 39 59 3d
       -0.031644963 -0.05614207 0.04858679 0.05303354
0000d0 0b a9 2d bd 4f 01 29 bc 85 91 a3 3d 8b 1a a4 3c
       -0.04239754 -0.010315253 0.0798674 0.020032188
0000e0 d7 b9 51 bd d9 e5 d1 bd 12 78 f9 3c ee 63 c0 bd
       -0.05120262 -0.10248918 0.030452762 -0.0939406
0000f0 e4 de 29 bd f6 d5 27 3d a7 f7 20 be 92 0d c8 bc
       -0.04147233 0.040975533 -0.15719472 -0.024420533
000100 b0 13 38 3d d6 76 c3 3d 5a ea cd 3d 3e 73 9b ba
       0.04494065 0.095441505 0.10054465 -0.0011859906
000110 0b 69 d6 3d 9e 0b 94 bd 6b 5f 46 be e6 6c 3b be
       0.10469254 -0.07228778 -0.19372337 -0.1830326
000120 8d 26 39 3c a2 de 06 3d bd 4b 1b be 42 c6 af 3a
       0.011300695 0.032927163 -0.1516561 0.0013410526
000130 93 76 c3 bd e2 1c c9 bd 60 43 59 3e ca 4d d4 bd
       -0.095441006 -0.09819962 0.21217108 -0.103663996
000140 81 76 08 be aa 02 11 3e 0f ec ca 3d 6f 21 8d 3c
       -0.13326456 0.14161173 0.09908306 0.017227856
000150 a4 0e e9 3d a8 82 f7 3d dd 63 8a bc 91 08 26 be
       0.113797456 0.120854676 -0.016893322 -0.16214205
000160 3f a3 67 bc 42 2d 0d 3e a1 85 73 bd db 67 a6 bd
       -0.014138042 0.13786796 -0.05945361 -0.081252776
000170 b3 90 94 3d 96 29 ab 3b 06 4e e6 bc f0 71 33 3e
       0.07254162 0.0052234633 -0.028113376 0.17523932
000180 95 45 6c bd 8b 34 13 3e dc 58 b8 bc c9 96 d2 3d
       -0.057683546 0.14375512 -0.022503309 0.10282666
000190 b5 43 1d bd 55 58 60 bd c1 ba 28 bd 56 26 a5 bd
       -0.03839465 -0.05477174 -0.041193727 -0.080639526
0001a0 55 88 18 bd eb 65 14 bd ae cf a6 bd 1e 0b 06 3c
       -0.03723939 -0.03623001 -0.081450805 0.0081813615
0001b0 e8 13 66 ba 60 8b b2 bd 74 c3 02 3e cb db 10 3e
       -0.000877677 -0.0871799 0.12769872 0.14146344
0001c0 46 bc 20 bd bc b3 37 3d 5a 57 f4 3d d3 bf a5 bd
       -0.03924205 0.044849142 0.119307235 -0.08093228
0001d0 c1 f1 60 bd 8f d0 94 bd 1a de ed 3b 3f d7 62 bc
       -0.054918054 -0.07266342 0.0072591426 -0.013845264
0001e0 83 62 d1 3d a2 97 e5 3d 90 db f0 bd d4 6d e9 3c
       0.10223868 0.11210562 -0.11760628 0.028494753
0001f0 2f b9 c5 3d c8 80 77 bd da a8 19 bd 7d e2 03 bd
       0.096544616 -0.06042555 -0.037514545 -0.032198418
000200 1b c4 a3 3d 4f ec 45 3b 84 6e c4 bd 5c 6c 2b 3d
       0.079963885 0.0030200665 -0.09591392 0.041851386
000210 54 d4 fb 3c f6 dd 3d 3d 46 22 26 3c 54 4b dc 3d
       0.030740894 0.046354257 0.010140007 0.10756555
000220 37 34 07 3b 80 10 dc 3d 05 42 ee 3d 74 7f f9 3c
       0.0020630488 0.107453346 0.11633686 0.030456282
000230 05 41 d7 3d df be 04 bd 1a d3 b9 bd cc 7d 49 be
       0.10510448 -0.03240859 -0.090734676 -0.19676894
000240 27 56 33 3d b6 26 1d bd e7 24 1b 3d 03 ce ff 3c
       0.043783333 -0.038366996 0.03787699 0.031226164
000250 ec 33 0a 3d 7f 91 59 3e 10 2c b3 bd 6a f7 f0 3d
       0.033740923 0.21246909 -0.08748639 0.117659405
000260 de 6f bf bb 7a 48 a2 bc 1a 11 cb bd 05 9f ec ba
       -0.005842193 -0.01980995 -0.09915371 -0.0018052763
000270 a5 48 e3 bc ed 4a d1 3d 8f 7d bc 3d 61 5e b8 3d
       -0.0277446 0.10219369 0.09203636 0.09002376
000280 0a 3d 2f 3e b1 87 9f 3d f0 df 62 3e 8c c3 a2 3d
       0.17113128 0.07789553 0.22155738 0.07947454
000290 21 cf 3b be ef f5 4e 3e c7 ba fa bd ac 1f 99 bd
       -0.18340732 0.20211004 -0.12242656 -0.07476744
0002a0 88 4b af b9 aa 57 c9 bd b6 81 32 3d 2b ef a5 3b
       -0.00033434876 -0.09831174 0.043580733 0.0050639114
0002b0 9d ca 76 3d 26 fe 84 bd bf 89 24 3c c6 bf 09 3e
       0.06025182 -0.064937875 0.010042607 0.13452062
0002c0 64 3c f4 3d d7 d6 b6 3c b4 e4 8f 3d b6 14 0b 3e
       0.11925581 0.02231924 0.070260435 0.1358212
0002d0 75 a2 19 3d ab 65 e0 3d e4 27 82 3d 95 14 b5 3c
       0.037508447 0.109568916 0.06355265 0.02210454
0002e0 0a 5d 88 bd 50 48 b9 bd 92 62 77 3c 8c b5 e2 3d
       -0.06658371 -0.09046996 0.015099185 0.110697836
0002f0 70 a1 dc 3d 85 d0 b6 bc 0a 0c d8 3d 18 cb c6 3c
       0.10772979 -0.022316227 0.10549171 0.024266765
000300 19 0d 7a 3a 29 49 86 3d be 9b a3 3d 97 06 d7 3d
       0.0009538695 0.06556923 0.0798869 0.10499304
000310 28 5e 35 3c 5a 87 84 bd 87 c8 d2 bd 5a 50 59 3c
       0.011069812 -0.06471129 -0.10292154 0.013263786
000320 24 db ce 3c 1f fd 46 3d d3 ca 01 3e 45 e3 b9 3d
       0.025250979 0.04858124 0.12675028 0.09076551
000330 c3 4d 09 3e b4 e2 a0 3d fb 70 d1 3c af 2f 13 be
       0.1340857 0.0785574 0.025566569 -0.14373659
000340 e0 e1 27 bd 8f fa 1a bd 8f 87 94 bd 21 25 c4 3d
       -0.040986896 -0.037836608 -0.07252418 0.09577394
000350 ea 8c c6 3c 70 e8 95 3d a1 97 48 3e 46 90 66 3e
       0.024237115 0.073197246 0.19589092 0.22515973
000360 65 54 05 bd 7d 27 a6 bd 7a ef f4 bc ba 0e 82 bd
       -0.032551188 -0.081130005 -0.029899348 -0.06350465
000370 4f 46 80 3d 6c 1a 83 3d b4 ed a3 3c 19 16 ba bd
       0.0626341 0.06401524 0.020010807 -0.09086246
000380 e0 76 a8 bd dc 43 8a 3d bc 32 a8 3d e1 ac 3a bd
       -0.082257986 0.067512244 0.08212802 -0.045575026
000390 da ce ce 3d 19 0c 81 3e 0d 69 95 3c 16 c3 44 bd
       0.100980476 0.25204542 0.018238569 -0.04803761
0003a0 e4 2a 8a 3e f3 ad 3d 3e a5 55 8e 3d c8 f0 38 3e
       0.26985848 0.18523388 0.06949929 0.18060601
0003b0 b3 7f f7 3d 31 a4 8b 3c 7b cd 4e 3e 05 da 91 bd
       0.120849036 0.017046066 0.20195572 -0.07121662
0003c0 06 9f 89 3d dd 00 1d 3e 97 46 67 bd 87 e6 44 bd
       0.067197844 0.1533236 -0.056463804 -0.04807141
0003d0 40 8c 12 bc 3d 10 af bd a7 b5 48 3d b5 c3 e6 bb
       -0.008944571 -0.08548019 0.049001362 -0.007042373
0003e0 8f 83 30 3d e7 2d bf bd 8c f2 ca 3c 65 c1 d8 3d
       0.043094214 -0.09334927 0.024773858 0.10583762
0003f0 ec 2e ae 3d ce 9d c3 3d c4 95 f3 3d 0f b2 bd 3d
       0.085050434 0.09551583 0.118938 0.092624776

encoder.2.bias f4 [8]
000000 50 a3 47 3e 27 46 d0 3d a8 2e 62 3d 88 77 34 bd
       0.19495893 0.101696305 0.055220276 -0.044059306
000010 43 b7 fb 3c e6 23 26 bd 70 1d 61 3d 19 14 c4 3c
       0.030727034 -0.04056158 0.054959714 0.023935365

cell.conv.weight f4 [64, 24, 3, 3]
000000 60 65 b0 3d e5 08 a0 3d 93 df 2d 3d 47 e3 9b 3d
       0.08613086 0.078141965 0.042449545 0.07611709
000010 ed de b8 ba 74 7b d9 bb 13 04 0f 3e 22 e4 d8 3d
       -0.0014104523 -0.006637031 0.13966398 0.10590388
000020 3b f6 a0 3d 6b 67 c9 3d 7e 97 aa 3d 17 33 bc 3d
       0.07859465 0.098341785 0.08329676 0.09189432
000030 b5 6a db bb 50 ba 2c bc 30 89 73 3d c7 07 2a 3d
       -0.00669607 -0.010542467 0.059457004 0.041511323
000040 da a3 47 3c 88 ad 74 ba 30 47 77 3d f9 fa a4 3d
       0.012185061 -0.00093337195 0.060370624 0.08055682
000050 ad 91 e6 3c ae b8 20 3d 9c 17 9b 3d fd 19 2f 3d
       0.028145636 0.039238624 0.075728625 0.042749394
000060 bb 11 57 3b 95 26 c3 bc 66 7c d8 bc 90 98 25 3e
       0.0032816965 -0.023822108 -0.026426505 0.16171479
000070 56 f4 db 3c e3 5a e7 3d f2 89 ec 3d 27 11 07 3e
       0.026849907 0.11296632 0.115497485 0.13190137
000080 43 57 92 3d 2a c8 00 3e 3c 3d 48 3d b2 72 82 3d
       0.0714555 0.12576357 0.048886523 0.06369533
000090 91 d6 cf 3d 0b 22 07 3d c3 cc c4 3d 2c dd 8e 3c
       0.10148347 0.03299145 0.09609368 0.017439447
0000a0 b5 05 48 3d 56 bb 63 3d 9d 68 bb 3d 52 0c af bc
       0.048833568 0.05559858 0.09150813 -0.02136818
0000b0 41 67 8f 3d 3a 94 e7 3c 12 e9 36 3d a0 76 29 3d
       0.07002116 0.028268922 0.044655867 0.041372895
0000c0 6f 90 60 3b 97 bd 2d 3b 7b 75 fa bb 3c ed b0 3d
       0.0034265777 0.002651071 -0.0076433993 0.08638999
0000d0 2c ab a0 3d 59 8b 8b 3d 8c 28 49 bc 9b a7 f1 3c
       0.078451484 0.06813688 -0.012277734 0.029498866
0000e0 25 b8 a1 3d 72 cf 6d 3d dd 10 c2 3d be e5 92 3d
       0.07896451 0.058059163 0.09475873 0.07172726
0000f0 cd 59 c9 3d 16 e7 64 3d 52 5a 35 3b 33 0a a5 bc
       0.09831581 0.055884443 0.0027672243 -0.020146465
000100 9a b4 d2 3d ca 12 0a 3d cd 2f 27 3c 5a 83 92 bb
       0.10288353 0.033709325 0.010204268 -0.0044712247
000110 64 63 8a 3d b1 0c 0d 3d cb 01 22 3d ff cb 66 3d
       0.067572385 0.03443593 0.03955249 0.05634689
000120 23 b4 56 bb 22 db 75 bd 8b 07 b1 3c 6c 18 4f 3c
       -0.0032761178 -0.060023434 0.021610042 0.0126401
000130 4d 35 a0 bc ae e9 e0 3c 1a a0 5a bd 73 02 f2 bc
       -0.019556666 0.027455177 -0.05337534 -0.029542184
000140 b1 2c 47 bc f4 ea dc 3c 72 9a b0 3d d4 08 8b 3c
       -0.012156651 0.026967503 0.08623208 0.016971983
000150 df 94 b5 3c 88 e3 b4 3d 03 2f ca 3d db d4 c2 bc
       0.022165714 0.08832461 0.09872248 -0.023783138
000160 8c 07 6a 3d b0 d3 d7 3d 2b a9 97 bc 90 1e 06 3c
       0.057136104 0.10538423 -0.018513283 0.008185998
000170 b8 5d 03 bc 15 83 dd 3c 31 4f 1d bd c0 13 3e bd
       -0.00801795 0.027040044 -0.0384056 -0.046405554
000180 0a 37 53 bc 01 8f 2b 3d 63 15 f7 bb c9 31 10 bd
       -0.01289154 0.041884426 -0.0075403913 -0.03520373
000190 4c 83 70 bd 68 03 de 3c 19 0f 9b 3c 75 dc c2 bd
       -0.058718964 0.027101234 0.018928098 -0.09514705
0001a0 81 2e cd bd 28 ec 82 bc f3 2f c3 bd 47 69 4b bd
       -0.100186355 -0.015981749 -0.0953063 -0.049660947
0001b0 45 15 49 3c a3 f2 20 bd a0 71 5d 3d 87 1c 4e bc
       0.012273137 -0.039293896 0.05406344 -0.012580044
0001c0 f0 7b 7f 3d 6f 31 9d 3c 57 7d ff 3b 58 42 0b bd
       0.062374055 0.01918861 0.007796924 -0.033998817
0001d0 6e 21 46 3c f2 85 2e bd 30 74 2c bd 73 5f 93 3c
       0.012092931 -0.04260821 -0.042102993 0.01798985
0001e0 84 9b 19 bd bf bc 40 3d 34 19 7f bd fc 15 19 3c
       -0.037501827 0.047055002 -0.062279895 0.00934362
0001f0 57 f8 97 bd 5a bb 7f bd 9d f3 1c 3d e7 f8 fd bc
       -0.07420414 -0.06243453 0.038318265 -0.031002475
000200 ec 1c e4 3a b4 0d b9 bc df 45 08 bd 46 84 78 3c
       0.0017403639 -0.022589542 -0.03326976 0.015168255
000210 2c 44 88 3c 2a ce c5 bc 15 fe 8d 3d 71 3c 9a bc
       0.01663407 -0.024146158 0.06933228 -0.018827649
000220 17 4b 8f 3d 4d f6 db 3c 8e 12 2e 3d f5 2b dd 3d
       0.06996744 0.026850844 0.042498164 0.107994
000230 a7 70 6a bc b6 e3 aa 3d f7 41 12 bc ba e4 28 3d
       -0.014309085 0.08344214 -0.00892686 0.041233756
000240 c0 1b dc bc c5 c1 40 bd 91 59 f6 3b e2 4c aa 3c
       -0.026868701 -0.047059793 0.0075180014 0.020788614
000250 c0 b0 a9 3c 60 97 44 bd 4e c6 63 bc f3 d4 84 3d
       0.020714164 -0.047995925 -0.01390226 0.06485929
000260 3d 57 28 bd 66 64 10 bd d9 e4 56 3d 5a 77 d4 bc
       -0.041098822 -0.035251997 0.05246434 -0.025935818
000270 72 b5 73 bc 0e b9 96 3d 4e 75 21 bb 85 71 23 3c
       -0.014874803 0.07359515 -0.002463657 0.009975796
000280 b3 09 2d bd 81 1b eb bc de 0e 11 be af b3 01 be
       -0.042245578 -0.028699638 -0.14165828 -0.126662
000290 ed 31 74 bd 72 2b 38 be e1 e4 11 be 4f a1 25 be
       -0.059617925 -0.17985323 -0.14247467 -0.16174816
0002a0 a5 1b 2e be ff 15 12 be d5 64 d8 bd 19 18 46 be
       -0.17002733 -0.14266203 -0.10566107 -0.1934513
0002b0 22 5f d3 bd 35 7c cc bd 77 2a 1b be 0f b2 01 be
       -0.103208795 -0.09984628 -0.15152918 -0.1266558
0002c0 04 3a 5b be e0 39 b8 bd 5b b8 b0 bd db f5 02 be
       -0.2140885 -0.08995414 -0.08628913 -0.12789099
0002d0 d8 97 f8 3c e6 f2 2f bb 46 9f 35 3d e7 47 4a bd
       0.030345842 -0.002684766 0.044341348 -0.049384978
0002e0 6b e1 29 bd 78 75 db 3b 2f ad a1 3d 94 9a f1 bc
       -0.04147474 0.006697353 0.0789436 -0.029492654
0002f0 8b b8 3a 3d 20 1c 64 bd 6f 05 0a 3c d8 60 27 3d
       0.04558615 -0.055690885 0.008424147 0.04086384
000300 ff 69 05 bd 47 45 80 3c f4 f5 1a bd 94 fa b0 3c
       -0.03257179 0.015658034 -0.037832215 0.02160386
000310 ae c4 59 bd 82 b7 de bc 91 51 e6 3b 56 95 2f 3d
       -0.053166084 -0.027187113 0.0070287664 0.042867027
000320 6b 49 ff 3c c7 a2 51 3d 7f 0b a7 3c 1a a2 f0 3c
       0.031162938 0.051180627 0.020391224 0.029374171
000330 46 5e 7d bc 1f 81 cb b9 78 ba 60 3d 6f 90 da bb
       -0.015464371 -0.0003881538 0.05486533 -0.00667005
000340 f4 5c 17 3d ae ca 8d 3d 4f 1f 46 bc e9 a0 36 bb
       0.03695388 0.06923424 -0.0120924255 -0.0027866906
000350 d0 fd 77 bc 2c 9c 85 ba 5b 8c df bc cb 88 71 b7
       -0.015136197 -0.0010193638 -0.027288606 -1.4396569e-05
000360 d5 02 ca bd d1 46 24 3c 16 74 29 bc 20 43 49 bc
       -0.098638214 0.01002665 -0.010342618 -0.01228407
000370 fb 16 aa bd 5a 32 b2 bd 19 b2 72 bc 00 8d bf bd
       -0.083051644 -0.0870101 -0.01481297 -0.093530655
000380 da a6 b2 bd 15 56 80 bd 02 bf 44 bb 29 fe d7 bb
       -0.08723231 -0.06266419 -0.0030021076 -0.0065915775
000390 41 6a b5 bc 85 63 8a 3c 12 24 d5 3c f3 35 34 3d
       -0.022145392 0.016893158 0.026018176 0.043996762
0003a0 00 67 ee 3c 6b 2a 9e 3c 81 35 ee bc 43 40 bd bc
       0.029101849 0.019307336 -0.029078247 -0.023101931
0003b0 ec 35 9f bc 93 87 c3 bc 9a be 9a 3d a8 ea e2 bc
       -0.019434892 -0.023868358 0.075558856 -0.027699783
0003c0 6b 59 ae 3a b5 ef 55 3d 0a ca 8e 3d 18 03 e0 bc
       0.0013301795 0.052230556 0.0697213 -0.027345225
0003d0 92 60 c7 bd da 63 a1 bb d4 f0 b9 bc 5d ee 51 be
       -0.09735216 -0.0049252333 -0.022697844 -0.20501085
0003e0 c4 be 23 bd ac 1c 03 bd 6e e0 9a bd b6 0d ea bd
       -0.03997685 -0.032009766 -0.07562338 -0.114283964
0003f0 5e 45 01 3d 79 6a 01 3d 7b c4 a4 3d bc bb 6a 3d
       0.031560294 0.03159568 0.08045288 0.057307944

cell.conv.bias f4 [64]
000000 8a a1 af 3c 52 3c 0f 3d ae ec 65 3d 49 c9 aa 3c
       0.021439333 0.034969635 0.05613392 0.020847933
000010 6d 78 84 bc f2 35 8f 3d 77 a1 a0 3d 24 a0 9e bc
       -0.016170705 0.06992711 0.07843297 -0.01936347
000020 6c d6 be 3d 6d fe 7b 3c cd fb 2d 3d 68 91 82 3d
       0.093182415 0.015380484 0.042476464 0.0637539
000030 6d 0c ab 3c 8a b8 f0 3c 17 e1 54 bb 68 4f ce 3d
       0.020879949 0.02938487 -0.0032482797 0.10073739
000040 f5 ea 53 bc a4 11 8e 3d b3 3b 9e 3d b2 fa 72 3d
       -0.012934436 0.069369584 0.077262305 0.059321113
000050 33 3c ec 3c 34 d2 4b 3b 7a ef b1 3d d3 d7 8e bc
       0.028837299 0.0031100633 0.08688255 -0.017436897
000060 69 01 8f bd e4 ce ef 3c 28 ff 20 ba 98 92 87 3d
       -0.06982691 0.029273458 -0.0006141537 0.066197574
000070 b8 f2 cb ba b3 f0 3c 3d 44 20 bd 3d b5 2e d3 3d
       -0.0015560007 0.046127986 0.0923467 0.10311643
000080 5b 95 cd 3d 3e fc 9b 3d f7 ef ad 3d cb 6f da 3c
       0.10038253 0.07616471 0.08493035 0.026664635
000090 ca ef c3 3c 1a 6f a9 3d c5 4a c3 3d d3 7e 50 3d
       0.023918051 0.08273144 0.095357455 0.0509022
0000a0 47 23 0d bd 36 32 9e bc 10 c9 b0 3d c3 ef c1 3c
       -0.03445747 -0.019311052 0.086321 0.023673898
0000b0 72 06 38 3d dc f6 a5 3d 72 4f d2 3d 1a cf 0e 3e
       0.04492802 0.08103725 0.10269059 0.1394619
0000c0 a3 87 81 3c a5 44 58 bd f5 1e 81 3b 87 45 0f 3d
       0.015811747 -0.05279984 0.003940458 0.034978416
0000d0 a1 86 77 3c 37 89 8b 3c cb 35 20 3d a3 9e 60 bb
       0.015107782 0.017033203 0.0391138 -0.0034274242
0000e0 00 15 b7 3c 54 96 15 3b 74 79 0b be 3b 15 a1 bd
       0.02234888 0.0022825198 -0.1362055 -0.078653775
0000f0 90 dc bf bc 2c c8 80 bd 91 a5 f3 3b 9a 30 d3 bc
       -0.023420602 -0.0628818 0.0074355085 -0.025780011

aux_proj.weight f4 [16, 8, 1, 1]
000000 a0 f6 47 3e 24 b4 2b 3e 99 ca a5 3d 4a d5 54 3d
       0.19527674 0.16767937 0.08095283 0.05196122
000010 91 be c7 3d 45 f8 95 be c0 65 f8 bd 75 d8 46 3e
       0.097531445 -0.29290977 -0.12128782 0.1941851
000020 73 ac 44 3e b7 3f 4a be 53 f8 f2 b9 08 97 63 3d
       0.19206409 -0.19750868 -0.00046342853 0.055563956
000030 fa 4d ac be 50 5f e9 3c ef 62 27 3c b6 3c a2 3d
       -0.3365324 0.028487831 0.010216459 0.07921736
000040 b8 e8 08 3f 91 de c3 3d a4 a3 5f be 46 4a 56 be
       0.534801 0.095639355 -0.21839768 -0.2092677
000050 1f c1 b0 3d 7e 30 e2 be c8 a4 41 3e 38 af 91 bc
       0.08630585 -0.44177622 0.18910515 -0.017783746
000060 cf d4 38 3e 3c fd 6c 3e fd 80 e6 3d f9 46 9b be
       0.1804993 0.23143476 0.11255071 -0.30327585
000070 89 f8 2a 3e 7c a7 82 bd da 27 82 be c8 6c 65 bd
       0.16696371 -0.06379601 -0.2542103 -0.056011945
000080 27 47 17 bf e1 f6 b6 be dc 24 cb 3e 6d 15 1e 3e
       -0.59092945 -0.3573523 0.3967656 0.15437861
000090 18 f8 04 3d 7e 4a ee 3e b2 ec 57 3e 6f ba c6 3e
       0.032463163 0.46541208 0.21086386 0.38814113
0000a0 7f 55 d9 be a9 97 bd be 43 ce f0 3d 1b bd 68 be
       -0.4244804 -0.3702977 0.11758091 -0.22728388
0000b0 60 c2 b7 3e 85 94 bd 3e 6e 1d 6d bc b3 7f c3 3e
       0.35890484 0.37027374 -0.014472349 0.38183364
0000c0 05 9a bc bd 87 bf ea be cb b7 42 bd 5a 92 e3 bd
       -0.092090644 -0.4584925 -0.04753856 -0.11111899
0000d0 94 f9 86 be fa 41 8b 3e e7 ba 18 bd fd 70 f5 3d
       -0.26362288 0.27198774 -0.03728762 0.119844414
0000e0 09 67 f4 be b1 bf 46 3d b1 0b 92 be 1d 3a 88 3e
       -0.4773486 0.048522655 -0.28524545 0.26606837
0000f0 ee cd 4f 3e d0 53 39 be 75 8d 21 3e 59 c7 32 be
       0.202934 -0.18098378 0.15776618 -0.17458858
000100 05 5d dd be 8d b4 c2 be 1d 24 a1 3d 20 dc 77 3d
       -0.4323503 -0.38028374 0.07868216 0.060512662
000110 86 cd 14 be 17 17 0a bc 8e 10 6a 3d a5 32 15 be
       -0.14531526 -0.008428357 0.057144694 -0.145701
000120 46 f5 9b 3e 8e c2 b1 3e 9e 32 be be a6 35 96 bd
       0.30460566 0.34718746 -0.37147993 -0.073344514
000130 50 58 6c 3d d5 1e c3 3d 36 25 24 3e 65 a5 ed 3d
       0.05770141 0.09527365 0.1602982 0.11603812
000140 ce 91 94 3c cf 0d bd be 0e 12 70 be 16 c0 d1 bd
       0.018135931 -0.36924598 -0.23444387 -0.102417156
000150 9c 49 05 3e 87 1e ec 3e 28 57 d0 bd 45 df 82 be
       0.13016361 0.4611704 -0.10172874 -0.25560966
000160 61 00 79 3e 29 66 c6 3e d2 0c 58 3e 42 09 88 be
       0.24316551 0.38749817 0.2109864 -0.26569563
000170 ab b4 18 3e ed b5 1f 3c 35 c2 49 3d 4f c6 69 3e
       0.1491267 0.009747964 0.049257476 0.22829555
000180 82 7f a1 3a bd 45 bd 3e ea ef 8c 3e cc 3b 09 bd
       0.0012321325 0.3696727 0.2752679 -0.033504292
000190 61 7b a2 be 66 55 0c bf 72 67 1c 3e e8 91 3d 3d
       -0.31734756 -0.5481781 0.15273836 0.046281725
0001a0 af 44 76 be d3 0a 0b bf 31 03 9e 3d e0 69 ab bd
       -0.24049638 -0.5431339 0.077154525 -0.083698034
0001b0 be 29 27 3e e8 d4 07 3f a3 01 2b be 1b cb 5d 3e
       0.16324517 0.53059244 -0.16699843 0.2165951
0001c0 f4 77 0f 3f cf 8b 92 bd 7f 9c 62 3e 5f a9 4d 3e
       0.5604241 -0.071555726 0.22130011 0.20084141
0001d0 b2 54 d8 bd 62 25 0e bf 92 44 70 be 90 73 ba be
       -0.10563029 -0.5552579 -0.23463657 -0.36416292
0001e0 6b aa dd be 0a ec 47 be be 43 17 3e 7d 69 d1 3e
       -0.4329408 -0.19523636 0.14771935 0.40900794
0001f0 2b d2 0b 3e 5b 6e bf bd 7b 7c 42 3e 1c 09 5d be
       0.13654391 -0.093472205 0.18992798 -0.21585506

aux_proj.bias f4 [16]
000000 a4 dd 58 3e 56 b0 c7 be 79 c2 c9 3c 04 2d 1e be
       0.21178299 -0.3900172 0.024628865 -0.1544686
000010 ba 46 ae 3d f4 45 ad be 71 e6 57 3e 45 7b cc be
       0.08509584 -0.33842432 0.21084 -0.39937797
000020 65 7b 35 3e b5 ac 54 be 48 a9 9a be 2f d8 b0 3e
       0.17722853 -0.20769008 -0.30207276 0.34539935
000030 20 0c 9c 3e d2 62 db 3c ef 87 92 be c3 ab 1d be
       0.30478 0.02678052 -0.28619334 -0.15397553

head.weight f4 [1, 16, 1, 1]
000000 97 18 c2 be 38 fd 5f 3d ff f7 cb be d6 5e 92 be
       -0.37909386 0.054684848 -0.39837644 -0.2858798
000010 2f 93 a6 3e 81 fe b9 3e 2e 7f 28 3e 64 07 a4 3d
       0.32534167 0.36326984 0.16454765 0.08009222
000020 b4 13 96 3e 63 41 3e be aa 46 09 3e 48 31 a6 bc
       0.29311907 -0.1857963 0.13405862 -0.020287171
000030 8a 02 08 bf 63 15 ab 3e ec e7 b1 be df 5d d4 3e
       -0.53128874 0.33414754 -0.34747255 0.41477868
