experiments/sweeps_phase3/p3_tv0.001_time0_run04.pt (torch, 63413 bytes, 9 tensors)

encoder.0.weight f4 [8, 1, 3, 3]
0.121951394 -0.15141834 0.024677183 -0.0795974 0.23936673 0.34056857 -0.19300246 -0.3223116
0.15364039 0.25557652 0.15722854 -0.1258392 -0.29382908 -0.4155532 -0.15216807 -0.23852174
-0.27714205 -0.13079117 0.31818497 -0.07935426 -0.31832027 0.32549822 -0.21075061 0.17339283
-0.28151155 0.041199062 -0.21693917 0.040876344 -0.23219284 -0.037584476 -0.22447892 -0.22297353
0.19211419 0.32768762 0.052660853 -0.058811624 -0.24034217 0.3121023 -0.05875131 0.33947805
0.32651898 -0.23993847 -0.28581145 0.25650576 -0.21626441 0.14815797 -0.18325879 0.0020930562
0.3007997 0.10875853 0.12361889 -0.0065257885 0.023498723 -0.30801117 0.2826938 -0.2539207
0.0024588525 -0.049844142 0.164893 -0.20797132 -0.08709922 0.35857314 0.25488487 0.34914535
0.43364426 -0.11646569 0.08965426 0.116821244 -0.20602715 -0.05616557 -0.14558494 0.1632444
00000000: a7c1 f93d 690d 1bbe ce27 ca3c f603 a3bd
00000010: 8d1c 753e 015f ae3e 70a2 45be 0706 a5be
00000020: e853 1d3e edda 823e 8500 213e fedb 00be
00000030: c470 96be 64c3 d4be f2d1 1bbe 0b3f 74be
00000040: 90e5 8dbe 1fee 05be 24e9 a23e 7c84 a2bd
00000050: e0fa a2be b4a7 a63e 02cf 57be e48d 313e
00000060: 4822 90be 59c0 283d 4d25 5ebe f46d 273d
00000070: f6c3 6dbe 2ef2 19bd cddd 65be 2c53 64be
00000080: 95b9 443e acc6 a73e e8b2 573d 75e4 70bd
00000090: 421c 76be dfcb 9f3e 37a5 70bd 11d0 ad3e
000000a0: 7f2d a73e 6eb2 75be e155 92be b954 833e
000000b0: 6b74 5dbe b9b6 173e 31a8 3bbe a82b 093b
000000c0: 6b02 9a3e cbbc de3d e72b fd3d 48d6 d5bb
000000d0: 6580 c03c a4b3 9dbe 3ebd 903e e501 82be
000000e0: b324 213b 5f29 4cbd b6d9 283e 6ff6 54be
000000f0: 1361 b2bd e696 b73e 4580 823e 2ec3 b23e
00000100: 9f06 de3e 9085 eebd a79c b73d fa3f ef3d
00000110: c8f8 52be de0d 66bd 3814 15be 8a29 273e

encoder.0.bias f4 [8]
-0.13209966 0.22441867 0.28644714 0.33951473 0.21890017 -0.03993987 -0.13744637 0.008507045
00000000: 2245 07be 02ce 653e 33a9 923e e0d4 ad3e
00000010: 5e27 603e fd97 23bd bebe 0cbe 2261 0b3c

encoder.2.weight f4 [8, 8, 3, 3]
0.024920933 -0.42618197 0.053564124 0.07037048 -0.07730499 0.07253673 -0.042331286 -0.18584889
0.05353373 0.16529915 0.23306495 0.27850726 0.047457833 0.21685895 0.1540317 0.29419965
0.4149446 0.27569085 0.03837817 0.06490592 0.12009391 0.06204877 0.2655166 0.1656539
-0.027136128 0.08270379 0.2193385 0.20971906 0.23954405 0.39011407 0.11706973 -0.003881778
0.19064036 0.24191926 0.05759713 0.37128237 0.05634915 0.15361626 -0.13881968 0.08485114
0.14532469 0.017189896 -0.0013237413 0.12750353 -0.125037 -0.11516464 0.11982674 -0.105912365
-0.028632889 0.15418813 0.20282629 -0.11566622 -0.11047008 0.0874263 -0.00034843187 0.02699226
-0.27066752 -0.11696091 -0.08647052 -0.14179574 -0.044454016 0.04656822 0.085511126 -0.20574842
-0.26986623 0.08100818 -0.11756544 0.044412896 -0.03202754 0.010902576 0.31872064 0.04020199
0.1440006 0.12001943 -0.109229416 -0.06005977 -0.032321908 0.091806255 0.020175852 -0.0060648
-0.00052668614 -0.089425586 -0.07564353 -0.042231224 0.055584226 -0.019701794 0.004016291 -0.112736806
0.06585931 0.00824175 -0.08028342 -0.06078792 -0.08205431 -0.040046472 -0.10588594 0.034497205
0.06869086 0.06113544 0.033323336 -0.13189678 0.04477384 0.07886593 -0.14527294 0.00038886062
-0.042444408 -0.13387297 -0.17348571 0.024755929 -0.052655634 -0.06643574 0.12607862 0.0173932
0.016085504 0.13165596 -0.04053035 -0.06796894 -0.07697228 0.00261386 0.12253658 -0.0019658448
0.1217894 0.008633408 0.08174473 0.11616162 -0.031857748 0.043076716 0.008477778 0.04120049
0.096228786 0.12896654 0.09574219 0.10587649 -0.0038549847 -0.02235267 0.09668568 -0.020620186
-0.13792138 -0.051421385 -0.13444193 0.027820367 0.002390325 0.08694113 -0.0064662243 0.17767833
0.05420124 0.056047674 0.11219009 -0.08477123 0.04454885 -0.064492874 0.01554204 0.056219716
-0.05285174 0.046590634 0.1666998 0.065443486 0.0013816733 0.012699491 -0.038336292 0.020650396
0.043958407 0.041662782 0.10444711 0.08874366 0.02373367 0.079421625 0.15529467 0.03889101
0.13456829 0.14721519 0.13501593 -0.0038870214 0.043462828 0.0016297437 0.11934183 0.16645508
0.15359586 0.19030005 0.18973713 0.0036488192 0.09516124 0.052580666 0.045418736 0.045029745
0.022412762 0.031565584 -0.024417546 -0.05098324 -0.07913035 0.08756986 -0.05476899 -0.07341994
0.10659668 0.0013721819 0.07310235 0.016682921 -0.1038944 -0.12768841 0.06470459 0.043996017
0.09662559 -0.11590295 -0.094306566 -0.054973822 -0.04758108 -0.023674268 0.09074238 0.03549888
-0.002242341 0.06950578 0.06514494 -0.06301874 -0.096890144 0.0052790237 -0.11358392 -0.04910554
0.104229584 -0.11916154 0.0042676185 0.06274842 -0.010149223 0.05063922 0.07618687 0.0912511
0.09330855 -0.029139562 -0.07096335 -0.04735355 0.029942187 -0.11877102 -0.081031285 0.04553635
0.035667572 0.07364958 -0.01623187 -0.1258998 0.028045926 -0.08051884 -0.051355846 -0.101566344
-0.03123385 -0.1437431 -0.007203309 -0.09638176 -0.12652628 0.09545695 0.019787792 -0.15912344
-0.053560257 -0.101152234 -0.062223308 -0.0065961354 -0.048466533 -0.08436212 0.024209375 0.011041937
00000000: fc26 cc3c 8634 dabe 0e66 5b3d 661e 903d
00000010: 1452 9ebd 238e 943d 9263 2dbd 2c4f 3ebe
00000020: 2f46 5b3d 2e44 293e 94a8 6e3e 8198 8e3e
00000030: 2563 423d 4610 5e3e 7cba 1d3e 56a1 963e
00000040: 9e73 d43e 5a27 8d3e 6e32 1d3d 65ed 843d
00000050: ccf3 f53d da26 7e3d cbf1 873e 2da1 293e
00000060: 964c debc 9b60 a93d 469a 603e 98c0 563e
00000070: 094b 753e 08bd c73e 41c2 ef3d 6e65 7ebb
00000080: 3a37 433e afb9 773e f8ea 6b3d b918 be3e
00000090: 5ece 663d 954d 1d3e bf26 0ebe 6fc6 ad3d
000000a0: ffcf 143e d3d1 8c3c 6381 adba 4990 023e
000000b0: b309 00be 70db ebbd b967 f53d 95e8 d8bd
000000c0: 858f eabc 7ee3 1d3e b2b1 4f3e 69e2 ecbd
000000d0: 233e e2bd 8f0c b33d bcad b6b9 df1e dd3c
000000e0: ef94 8abe 3489 efbd 7517 b1bd e732 11be
000000f0: 6a15 36bd 51be 3e3d 7520 af3d b7af 52be
00000100: e82b 8abe 9ee7 a53d 26c6 f0bd 4cea 353d
00000110: 4f2f 03bd b8a0 323c 5a2f a33e d8aa 243d
00000120: e574 133e bfcc f53d acb3 dfbd 3c01 76bd
00000130: fa63 04bd eb04 bc3d d447 a53c 3bbb c6bb
00000140: 4f11 0aba c324 b7bd ffea 9abd a6fa 2cbd
00000150: 49ac 633d a865 a1bc 179b 833b 8ee2 e6bd
00000160: 3fe1 863d 6808 073c a26b a4bd c1fc 78bd
00000170: 170c a8bd c507 24bd bada d8bd f14c 0d3d
00000180: cbad 8c3d 2869 7a3d 0d7e 083d f30f 07be
00000190: c664 373d 7684 a13d 6ec2 14be fddf cb39
000001a0: 30da 2dbd ff15 09be 3da6 31be f2cc ca3c
000001b0: 6fad 57bd 760f 88bd c11a 013e 2f7c 8e3c
000001c0: bfc5 833c d2d0 063e 2703 26bd 4d33 8bbd
000001d0: a5a3 9dbd 4b4d 2b3b 75f4 fa3d 67d5 00bb
000001e0: b96c f93d 2373 0d3c c869 a73d 25e6 ed3d
000001f0: 457d 02bd 3671 303d 61e6 0a3c d8c1 283d
00000200: 9913 c53d ce0f 043e 7b14 c43d c6d5 d83d
00000210: e9a3 7cbb f21c b7bc 2403 c63d aaeb a8bc
00000220: 433b 0dbe 3b9f 52bd 25ab 09be 8ae7 e33c
00000230: 00a7 1c3b 310e b23d 9fe2 d3bb 4ff1 353e
00000240: 1f02 5e3d 3f92 653d ebc3 e53d 8a9c adbd
00000250: db78 363d d714 84bd 0aa4 7e3c a546 663d
00000260: 117b 58bd d2d5 3e3d 5ab3 2a3e 3c07 863d
00000270: 4319 b53a 8711 503c 8406 1dbd 052b a93c
00000280: bb0d 343d 98a6 2a3d 5ee8 d53d 3cbf b53d
00000290: 1d6d c23c cea7 a23d 9105 1f3e 2e4c 1f3d
000002a0: 45cc 093e 94bf 163e 9e41 0a3e 66bd 7ebb
000002b0: 1406 323d 209d d53a 7d69 f43d 3373 2a3e
000002c0: 3c48 1d3e 04de 423e 734a 423e 0721 6f3b
000002d0: e5e3 c23d d35e 573d ff08 3a3d 1c71 383d
000002e0: f89a b73c ea4a 013d 4e07 c8bc cdd3 50bd
000002f0: 180f a2bd d457 b33d 7355 60bd 325d 96bd
00000300: 5c4f da3d c9da b33a afb6 953d 9faa 883c
00000310: 96c6 d4bd c0c0 02be d783 843d 2b35 343d
00000320: a3e3 c53d 875e edbd cd23 c1bd 3b2c 61bd
00000330: 61e4 42bd 8af0 c1bc 24d7 b93d 4667 113d
00000340: 3df4 12bb 0c59 8e3d b66a 853d f80f 81bd
00000350: 576e c6bd a9fb ac3b b09e e8bd e422 49bd
00000360: 5276 d53d f70a f4bd 61d7 8b3b 3e82 803d
00000370: ed48 26bc 126b 4f3d dd07 9c3d dbe1 ba3d
00000380: 8e18 bf3d 17b6 eebc 3c55 91bd ccf5 41bd
00000390: 5149 f53c 383e f3bd bbf3 a5bd 5384 3a3d
000003a0: 2918 123d 97d5 963d b3f8 84bc e1eb 00be
000003b0: 92c0 e53c 10e7 a4bd 825a 52bd 0402 d0bd
000003c0: 22de ffbc 6431 13be bc09 ecbb cd63 c5bd
000003d0: 1b90 01be ef7e c33d 021a a23c 41f1 22be
000003e0: 0062 5bbd e728 cfbd dedd 7ebd 6524 d8bb
000003f0: d884 46bd 0cc6 acbd bd52 c63c 3ee9 343c

encoder.2.bias f4 [8]
0.02220547 0.08652377 -0.03200612 0.09704983 -0.022236591 0.056535933 0.025850475 0.018126417
00000000: 3fe8 b53c 6033 b13d d918 03bd 10c2 c63d
00000010: 8329 b6bc 3992 673d 60c4 d33c da7d 943c

cell.conv.weight f4 [64, 24, 3, 3]
0.020641286 0.06410671 0.07743078 0.10773057 0.052687287 0.10906735 0.050672513 0.045081135
0.09551622 0.09796504 0.07621596 0.019069614 0.04932329 0.050085157 0.11506567 0.069546804
-0.011006069 0.036912456 0.022486333 -0.044714116 0.016131725 0.020670393 0.029815162 0.07407442
0.032010436 0.039359946 0.027826805 0.072939806 0.028162232 0.028899902 0.076006465 0.025998387
0.05574192 0.011642552 0.03290737 0.06504596 -0.033209182 0.09057862 0.059906542 0.009707486
0.039383255 0.08241705 -0.0017370527 0.0607628 0.038729228 -0.07916217 -0.08890817 0.015967121
-0.15548992 -0.09660308 0.043546934 -0.06591842 -0.082579 0.015586643 -0.038506094 0.005559959
0.057724066 -0.014571458 0.029376777 0.019203315 0.07571091 0.038448434 0.060830902 -0.02930759
0.01183172 -0.011284966 0.0039506657 0.0038021537 0.027484482 0.09109166 0.10338609 0.09680659
0.04718364 0.08218765 -0.04137873 0.007807769 -0.021458948 -0.002800336 -0.02724105 -0.0032792205
-0.019622281 -0.09510584 0.006049986 -0.10278796 -0.030799013 -0.08360393 -0.11677805 -0.14859186
-0.042136572 -0.16675629 0.10327831 0.08961873 0.008459606 -0.004216239 0.036234297 -0.013018809
0.06721866 -0.018831389 0.042602673 0.07347693 0.11583628 0.029871823 0.09685153 -0.027465757
0.017458897 -0.006133606 0.07917685 0.015865585 -0.043611325 -0.033587735 0.0033757433 -0.024371471
-0.010143931 -0.06157868 0.06625019 -0.0045007165 0.0029675935 0.035035625 0.039133493 -0.01393237
-0.044239204 0.0024786855 -0.10700907 -0.10297222 0.019017735 -0.101785704 0.010838011 -0.06964803
-0.005974875 -0.035167202 -0.036289144 -0.079498164 -0.09476627 0.01641692 -0.011692658 -0.1056937
-0.022901153 -0.0016393018 0.03425988 0.038529105 -0.055207107 -0.08247613 0.008673078 0.02420762
-0.016951742 0.05452564 -0.039593168 -0.02646659 0.08737372 -0.052765448 -0.022921853 0.006203354
0.017127044 -0.0014441662 -0.06673743 0.038212057 -0.054786455 0.028172217 0.0046874043 0.073192894
0.06294227 -0.016485104 -0.046221122 -0.043066353 -0.0677036 0.023512872 -0.090394646 0.048959102
-0.07611315 -0.0101910075 0.082802705 0.012190448 0.058266412 0.09798172 0.0093661975 0.01650249
0.08395825 0.027449911 0.059882607 0.07250241 -0.06946558 -0.068178184 0.011232143 -0.08953328
-0.07474075 -0.09807559 0.009304078 -0.074188724 -0.03793119 -0.031546053 0.07610553 0.0067849746
-0.034487225 0.061323237 -0.039550845 -0.017456146 -0.044350766 0.020139843 0.08624265 0.05272038
0.07502604 0.11683181 -0.024927534 -0.028561467 0.06605431 0.015812153 -0.036298756 -0.010503844
0.04123907 0.017465247 0.0636237 -0.0057100127 0.049117766 0.060223766 0.0451535 -0.00858063
0.037587296 0.07425886 -0.07072452 0.12909749 -0.03503207 0.022845313 0.1206979 -0.011211641
0.03402232 0.07077526 -0.0020150524 -0.0015521313 -0.050490346 -0.0017438014 -0.05007431 0.0030209753
0.039971627 0.027598718 0.04574855 0.073245816 0.004138996 -0.025035437 0.06323207 -0.010905245
0.03124569 0.037172653 -0.044966344 0.02407946 -0.043056976 -0.020060463 0.046954326 -0.030930556
0.05532371 0.013208104 0.03110732 0.051328406 0.022389773 0.032294415 -0.025863467 0.045300733
00000000: ea17 a93c 614a 833d 0794 9e3d d8a1 dc3d
00000010: a0ce 573d b45e df3d fb8d 4f3d ffa6 383d
00000020: 029e c33d e5a1 c83d 1d17 9c3d e137 9c3c
00000030: 3807 4a3d 1826 4d3d 8da7 eb3d 8e6e 8e3d
00000040: cd52 34bc 8431 173d 4235 b83c 2626 37bd
00000050: ae26 843c f554 a93c ed3e f43c 54b4 973d
00000060: 601d 033d e537 213d 0af5 e33c 7761 953d
00000070: 7bb4 e63c 7dbf ec3c 47a9 9b3d 92fa d43c
00000080: a451 643d 67c0 3e3c e1c9 063d d136 853d
00000090: 5a06 08bd 4981 b93d 9060 753d 260c 1f3c
000000a0: 5650 213d 45ca a83d d1ad e3ba 6ae2 783d
000000b0: 8aa2 1e3d c71f a2bd 7d15 b6bd 7bcd 823c
000000c0: c038 1fbe d6d7 c5bd 455e 323d 3d00 87bd
000000d0: 2e1f a9bd 1e5f 7f3c 91b8 1dbd 5130 b63b
000000e0: 1270 6c3d 20bd 6ebc 91a7 f03c 4550 9d3c
000000f0: 520e 9b3d 1b7c 1d3d d329 793d 7916 f0bc
00000100: d5d9 413c 94e4 38bc 9674 813b 8e2d 793b
00000110: 2327 e13c 448e ba3d 16bc d33d 8942 c63d
00000120: a243 413d 0052 a83d be7c 29bd 50d8 ff3b
00000130: adca afbc d885 37bb 9f28 dfbc 31e8 56bb
00000140: e8be a0bc dac6 c2bd f63e c63b 7e82 d2bd
00000150: 364e fcbc 8a38 abbd 5529 efbd 7728 18be
00000160: 6697 2cbd 29c2 2abe 9483 d33d 068a b73d
00000170: 299a 0a3c 6028 8abb 6a6a 143d d84c 55bc
00000180: f0a9 893d 4944 9abc 2480 2e3d 137b 963d
00000190: 923b ed3d c1b5 f43c 185a c63d deff e0bc
000001a0: f605 8f3c 6bfc c8bb 7927 a23d 8bf8 813c
000001b0: caa1 32bd 4b93 09bd 933b 5d3b aea6 c7bc
000001c0: bb32 26bc ed39 7cbd 2eae 873d bf7a 93bb
000001d0: f57b 423b 8481 0f3d 714a 203d 9844 64bc
000001e0: 2b34 35bd 7171 223b 9227 dbbd 19e3 d2bd
000001f0: 15cb 9b3c 0675 d0bd ea91 313c a0a3 8ebd
00000200: e2c8 c3bb 7c0b 10bd eda3 14bd efcf a2bd
00000210: d114 c2bd c77c 863c 9092 3fbc f075 d8bd
00000220: 339b bbbc d7dd d6ba 1754 0c3d b2d0 1d3d
00000230: d920 62bd 3fe9 a8bd 8719 0e3c 0f4f c63c
00000240: 61de 8abc 4756 5f3d 722c 22bd 76d0 d8bc
00000250: fef0 b23d 9520 58bd 9cc6 bbbc 8145 cb3b
00000260: 044e 8c3c 2d4a bdba a2ad 88bd 3f84 1c3d
00000270: c367 60bd 6cc9 e63c cc98 993b 28e6 953d
00000280: e0e7 803d c50b 87bc 5c52 3dbd 5866 30bd
00000290: 2fa8 8abd 119e c03c d420 b9bd 5789 483d
000002a0: 36e1 9bbd 2ff8 26bc 7794 a93d 72ba 473c
000002b0: c3a8 6e3d a4aa c83d ae74 193c 3b30 873c
000002c0: 4ef2 ab3d a3de e03c 7747 753d 257c 943d
000002d0: f843 8ebd 01a1 8bbd 0607 383c 395d b7bd
000002e0: ae11 99bd dbdb c8bd 2270 183c 42f0 97bd
000002f0: bc5d 1bbd 6f36 01bd 37dd 9b3d 7e54 de3b
00000300: 7a42 0dbd 132e 7b3d 1100 22bd 3100 8fbc
00000310: 26a9 35bd 50fc a43c fd9f b03d 53f1 573d
00000320: 41a7 993d 8445 ef3d d434 ccbc bdf9 e9bc
00000330: 7b47 873d 7d88 813c 01ae 14bd 5118 2cbc
00000340: 4dea 283d 4713 8f3c 244d 823d 0f1b bbbb
00000350: b62f 493d 32ad 763d e0f2 383d c595 0cbc
00000360: 23f5 193d 0715 983d 04d8 90bd 2232 043e
00000370: ca7d 0fbd 1826 bb3c 7630 f73d 08b1 37bc
00000380: fd5a 0b3d 9ff2 903d f80e 04bb e270 cbba
00000390: f7ce 4ebd 4490 e4ba b81a 4dbd 8efb 453b
000003a0: 4ab9 233d b516 e23c d562 3b3d e701 963d
000003b0: 6aa0 873b 1e17 cdbc d17f 813d eaab 32bc
000003c0: f6f6 ff3c 5a42 183d a12e 38bd 4a42 c53c
000003d0: 835c 30bd d755 a4bc 2e53 403d 1462 fdbc
000003e0: 1d9b 623d ce66 583c c7d4 fe3c bc3d 523d
000003f0: c26a b73c 2647 043d 9fdf d3bc 438d 393d

cell.conv.bias f4 [64]
-0.016668325 0.03965675 0.06315572 0.07318967 0.00051415415 0.07808104 -0.0043730675 -0.0017300475
-0.03583728 0.09880042 0.08267813 -0.0046100677 0.09260312 0.029701114 0.12126428 0.074376546
0.06199518 0.11305573 0.00959768 0.16288656 0.018106937 0.06365851 0.050085545 -0.01314568
0.025596905 0.017874997 0.039704867 0.028232187 0.051178884 0.09424578 0.10756931 -0.016985413
0.038982064 0.093795404 -0.02109176 0.15769656 -0.0027070341 0.07332155 0.03487953 0.08017552
-0.0051147514 0.07977817 0.14465733 0.04703484 0.07644683 0.030280199 0.05968294 0.03391236
0.059655063 0.003325159 -0.033728465 -0.047812227 0.061434828 -0.012239076 -0.045709573 0.0099369725
0.012504937 0.01144054 0.054410476 0.036511663 -0.023784153 0.03565619 0.0026621234 -0.050697908
00000000: 038c 88bc 1e6f 223d c957 813d 77e4 953d
00000010: 4dc8 063a f4e8 9f3d f34b 8fbb c3c2 e2ba
00000020: 1dca 12bd e057 ca3d 2753 a93d 0d10 97bb
00000030: b4a6 bd3d c04f f33c 6859 f83d bb52 983d
00000040: a8ee 7d3d c389 e73d 963f 1d3c bccb 263e
00000050: 0055 943c 655f 823d 8026 4d3d fa60 57bc
00000060: 9ab0 d13c 966e 923c 92a1 223d 3047 e73c
00000070: f3a0 513d ee03 c13d 4c4d dc3d fe24 8bbc
00000080: a8ab 1f3d ce17 c03d a0c8 acbc 357b 213e
00000090: 7f68 31bb 9c29 963d d7dd 0e3d 1033 a43d
000000a0: a599 a7bb bd62 a33d 0d21 143e 9ba7 403d
000000b0: 2890 9c3d 2e0e f83c 1976 743d b0e7 0a3d
000000c0: de58 743d e9ea 593b dc26 0abd c1d6 43bd
000000d0: 16a3 7b3d 6886 48bc f639 3bbd afce 223c
000000e0: 82e1 4c3c 1a71 3b3c 85dd 5e3d 418d 153d
000000f0: fcd6 c2bc 3a0c 123d 0577 2e3b 9ca8 4fbd

aux_proj.weight f4 [16, 8, 1, 1]
0.13585635 -0.012474236 -0.035058144 0.3148278 0.2904119 -0.51542544 -0.3172452 -0.24525024
-0.010499846 -0.21238425 0.21694534 -0.24323714 -0.07523257 0.23126552 -0.2581043 0.28811163
-0.32734662 -0.2371322 0.17102297 -0.17850943 -0.66354376 0.34771746 0.20318832 0.19310983
0.12453067 -0.020010114 -0.013547262 0.39883798 0.6457158 0.039127387 -0.18166134 0.24669412
0.36281505 -0.16872674 0.09186562 -0.2082562 0.27690002 -0.50646883 -0.016258283 0.22712766
0.084403075 0.14288478 -0.02402256 0.37226322 0.4783738 -0.37878945 -0.06529941 0.42567757
-0.19844148 -0.1964706 0.42362195 -0.18584059 -0.2790709 0.50530845 -0.35779583 0.021172013
-0.30606598 0.07964674 0.40624395 0.22172093 -0.5741319 0.502703 0.09938077 0.086608805
0.06393076 -0.14229152 -0.10967808 0.29578567 0.23922169 -0.20565346 -0.03695138 -0.176238
-0.28150794 -0.024876116 -0.19760242 -0.28339666 -0.35464057 0.40353882 0.16659757 0.17810673
-0.103141695 -0.37919137 0.026717843 -0.19564405 -0.69749695 0.5053685 0.053930536 -0.19465639
-0.027564226 0.08172704 0.14549963 0.08845516 0.7735747 -0.20362338 0.2023759 0.23943453
-0.55800354 -0.24560681 0.33724865 -0.46756044 -0.43184438 0.14783007 0.29989457 -0.20672621
0.37632456 0.35067105 -0.18474032 0.21449812 0.15167663 -0.41554222 -0.056321207 0.21645354
0.4897674 0.15177175 -0.009657966 -0.11409234 0.32905674 -0.46871746 0.16186787 -0.039290912
-0.05963444 0.18796782 0.382478 0.09614096 -0.37924153 0.43604255 -0.08256324 -0.030299624
00000000: ed1d 0b3e bd60 4cbc 2199 0fbd 1c31 a13e
00000010: deb0 943e ecf2 03bf f66d a2be e122 7bbe
00000020: 8c07 2cbc 427b 59be eb26 5e3e 2813 79be
00000030: 8913 9abd ded0 6c3e 3f26 84be 5e83 933e
00000040: fa99 a7be c9d2 72be a520 2f3e 2dcb 36be
00000050: 01de 29bf 0608 b23e 9910 503e 95be 453e
00000060: f009 ff3d 40ec a3bc 56f5 5dbc 7e34 cc3e
00000070: a14d 253f 0a44 203d 6e05 3abe 629d 7c3e
00000080: e5c2 b93e b4c6 2cbe 0b24 bc3d 1d41 55be
00000090: d7c5 8d3e f1a7 01bf 1730 85bc 2794 683e
000000a0: 85db ac3d 6350 123e f6ca c4bc 4999 be3e
000000b0: 69ed f43e b1f0 c1be b2bb 85bd 69f2 d93e
000000c0: 3e34 4bbe 972f 49be fae4 d83e ff4c 3ebe
000000d0: 62e2 8ebe e55b 013f 0431 b7be ee70 ad3c
000000e0: aeb4 9cbe d41d a33d 35ff cf3e d00a 633e
000000f0: 4ffa 12bf 25b1 003f 2588 cb3d f55f b13d
00000100: 21ee 823d deb4 11be e79e e0bd 3871 973e
00000110: 88f6 743e d296 52be 555a 17bd bc77 34be
00000120: cf21 90be ffc8 cbbc 4a58 4abe 5e19 91be
00000130: 7393 b5be a49c ce3e 8e98 2a3e 9c61 363e
00000140: f43b d3bd 5f25 c2be 61df da3c ea56 48be
00000150: 298f 32bf d45f 013f 44e6 5c3d 0154 47be
00000160: 5fce e1bc 8260 a73d dbfd 143e fb27 b53d
00000170: fe08 463f a682 50be a13b 4f3e 532e 753e
00000180: 52d9 0ebf 5a80 7bbe dbab ac3e 1564 efbe
00000190: b51a ddbe c460 173e c88b 993e 09b0 53be
000001a0: 9dad c03e 288b b33e 912c 3dbe 65a5 5b3e
000001b0: 1e51 1b3e f3c1 d4be 11b1 66bd ffa5 5d3e
000001c0: cbc2 fa3e 0e6a 1b3e 723c 1ebc 3fa9 e9bd
000001d0: 207a a83e bcfb efbe b1c0 253e 82ef 20bd
000001e0: 3e43 74bd a37a 403e 28d4 c33e 8de5 c43d
000001f0: f22b c2be f840 df3e ea16 a9bd eb36 f8bc

aux_proj.bias f4 [16]
0.25572932 0.14265454 0.163204 -0.02106537 -0.28493053 0.0013003723 -0.30203715 0.27579203
-0.25660586 0.2778837 -0.27076304 -0.01721389 -0.0011457744 -0.21547768 0.23249477 -0.33791876
00000000: f4ee 823e 0814 123e f31e 273e 4891 acbc
00000010: 6ae2 91be 4171 aa3a 9da4 9abe 9d34 8d3e
00000020: d861 83be c646 8e3e 74a1 8abe 2504 8dbc
00000030: cf2d 96ba 2ea6 5cbe 1c13 6e3e b003 adbe

head.weight f4 [1, 16, 1, 1]
0.3776857 -0.08899357 -0.46454158 0.37639502 0.46111214 0.48028585 -0.07577194 -0.23396862
0.0052854707 -0.33666024 -0.35654896 0.11596135 -0.23914887 0.17250577 0.26184794 -0.34829032
00000000: 0560 c13e 4342 b6bd 65d8 edbe d9b6 c03e
00000010: e416 ec3e 07e8 f53e 522e 9bbd 7895 6fbe
00000020: be31 ad3b bb5e acbe 968d b6be 257d ed3d
00000030: 71e3 74be 5aa5 303e ef10 863e 1c53 b2be
