experiments/convlstm_phase1_lead3_seed1.pt (torch, 42341 bytes, 3 tensors)

cell.conv.weight f4 [64, 17, 3, 3]
000000 de 3f 24 3d 23 d3 d4 bc 0d 76 5e bc 0b 41 31 3d
       0.04009997 -0.025979584 -0.01357795 0.04327492
000010 a3 cc 2a bd 3c 24 66 3d 1e a7 6c bc 92 ba 55 3d
       -0.041699063 0.0561869 -0.014444141 0.05217988
000020 94 e0 4f 3c 95 ec 98 bc c8 73 57 39 70 d3 b4 bb
       0.012687821 -0.018667499 0.0002054713 -0.0055183694
000030 89 1c 40 3c 0f cf 71 bd 19 78 a3 bc 7d 6d 86 bc
       0.011725553 -0.059035357 -0.019954728 -0.01640963
000040 b0 07 de bb b8 29 25 bc fb b7 87 3d 4f 75 1f 3d
       -0.0067758188 -0.010080747 0.06626888 0.038930234
000050 ec e9 61 bd 5d e6 1b bd 1d 71 de 3c 0f 7d 46 bd
       -0.055154726 -0.03806149 0.027153546 -0.04845911
000060 83 e6 a2 bc 63 80 01 3d ea 7d 1f 3d 18 cc 98 3c
       -0.019885307 0.03161658 0.03893844 0.018652007
000070 08 c3 e0 bd 19 73 02 3e bb f3 95 bd 26 1f a0 bd
       -0.10974699 0.12739219 -0.073218785 -0.07818441
000080 e2 ab d5 3d e6 bc 29 3c 44 1d ce bc 37 c3 06 3d
       0.10433175 0.010359978 -0.02516044 0.032901015
000090 7e 03 97 3d 5d c9 e2 3a 07 57 2d 3d e4 af f6 bc
       0.07373713 0.0017302443 0.042319324 -0.030113168
0000a0 8c 5b 1d 3e 72 0e 32 bb 67 3d 8b 3d 37 ef 70 3c
       0.15366954 -0.0027169255 0.06798821 0.014705471
0000b0 21 ae 2b bd c1 70 2c 3c 19 10 82 bd b4 fc 15 bb
       -0.04191411 0.0105249295 -0.06350727 -0.0022886219
0000c0 64 77 58 bd 50 f6 c2 bc 98 85 d6 bd ce a8 83 bd
       -0.052848235 -0.023799092 -0.104747 -0.06428681
0000d0 9a 24 c7 3c 9e 0f 4b bd 8c 26 b3 3d 5f 33 71 3d
       0.024309445 -0.04957544 0.087475866 0.058886882
0000e0 d8 12 47 bb 6d b5 62 bd e4 17 d4 3c f2 d2 99 3c
       -0.0030376222 -0.055348802 0.025890298 0.018777344
0000f0 a6 a7 5e bd 70 e2 06 3d bd 63 20 3d d4 de ac 3d
       -0.0543591 0.03293079 0.039157618 0.084409386
000100 ec 43 99 bc a8 4d 36 38 62 9d 5c 3c 29 c9 85 3d
       -0.018709145 4.3464504e-05 0.013465257 0.06532509
000110 d4 c6 09 bd c6 4b 39 bd ef 28 97 3d b1 f5 57 bb
       -0.033636883 -0.04523828 0.07380854 -0.003295284
000120 65 4f a8 3c c3 c7 63 bb 96 bf a9 3c 99 76 2f bd
       0.02054567 -0.0034756518 0.020721238 -0.042837713
000130 1a 26 2c bd 80 8f 67 3c 79 21 f7 bd 78 fd 8d bc
       -0.042028524 0.014133334 -0.12066931 -0.017332777
000140 d3 75 af bd 33 0c a9 bd 2b a3 8f bc 7a d0 1c bd
       -0.08567395 -0.0825428 -0.01753386 -0.038284756
000150 57 00 f1 3c e3 40 20 bd 8c a1 b9 bd 78 0f 69 3d
       0.029419107 -0.03912438 -0.09064016 0.056899518
000160 a0 ab 14 bb e5 84 59 3d 05 e6 86 3d f8 5e 98 bd
       -0.0022685304 0.053105254 0.065868415 -0.07439989
000170 7e 8f 83 bd 89 fc b7 bb 4c f2 35 bd cb a6 10 be
       -0.06423853 -0.0056148213 -0.044420525 -0.14126126
000180 74 62 54 3d f8 30 0c bc 8a 20 31 bd 4b 6b 10 3c
       0.051851705 -0.008556597 -0.043243922 0.008814643
000190 93 fb f8 3d fa db 3f 3c 2a ed aa 3d 3e 89 a9 3d
       0.12157359 0.011710161 0.08346017 0.0827813
0001a0 86 fa dc bc 14 58 4e bd e6 4f ec 3d c2 53 d9 3c
       -0.026974928 -0.050376967 0.11538677 0.026529197
0001b0 38 b1 89 3d 00 6f 1d 3d 56 6d 7f 3d e5 88 37 3d
       0.06723255 0.038435936 0.06236013 0.044808287
0001c0 91 b9 6c 3d 63 01 30 bd 4a f3 2c bc 97 51 f9 3c
       0.057794157 -0.042970072 -0.0105560515 0.030434413
0001d0 78 e4 6d 3d 14 52 5d 3d cf af 69 bd fe a4 0d bd
       0.058079213 0.054033354 -0.05705243 -0.034581177
0001e0 17 46 23 bd 29 3d 17 3c a5 9f c0 3d dc 9a fb bc
       -0.039861765 0.00923089 0.0940545 -0.030713491
0001f0 bd 55 90 3d 3e 5e 02 bc 3a a1 7c bd d2 1e 0a 3b
       0.07047603 -0.007957039 -0.061677195 0.00210755
000200 b2 5c 6a 3d a0 2a c0 3d 37 f5 c4 bc fb 2e 07 3d
       0.057217307 0.0938313 -0.024042709 0.03300379
000210 c7 03 ac 3d d2 e6 96 3d 7b 70 7b 3d 9e 32 92 3d
       0.08399158 0.07368244 0.061386567 0.07138561
000220 66 43 89 3d 78 ec d7 3c 3f 0f 0d bd f3 70 fe bc
       0.06702308 0.026357874 -0.034438368 -0.031059718
000230 c5 e4 9d bc 41 ed 58 3b a6 ba c3 bc 9d 27 38 3d
       -0.019274125 0.0033100399 -0.023892712 0.044959653
000240 be 7a 20 3c e8 1a 1f bd 88 d4 c8 3c 0d 19 99 3b
       0.009794889 -0.03884402 0.024515405 0.0046721757
000250 8d 64 79 3c cb 44 13 3d e5 a2 31 bd da 0e 4d 3d
       0.015221727 0.035954278 -0.04336824 0.05006299
000260 60 88 de bc d9 35 8e 3c 05 5e 05 bd 00 56 9b bc
       -0.027164638 0.017359661 -0.032560367 -0.018961906
000270 f1 3d d2 bc 4a 7c 6d 3c d7 84 ba 3d 6a 33 50 bc
       -0.025664302 0.014494965 0.091073684 -0.012707571
000280 82 1d 0b bd 31 85 4b 3d f9 a8 c5 bc a5 3a 0e bc
       -0.033963688 0.049687568 -0.024128424 -0.008680974
000290 9f a1 bc bd 52 e1 09 bd 0d f5 b4 bd 42 54 8b bd
       -0.09210514 -0.033662148 -0.08835802 -0.0680318
0002a0 e0 9c db bd 26 48 af bd e2 9a 83 bd 38 74 c1 3d
       -0.10723281 -0.08558683 -0.06426026 0.09445995
0002b0 f5 3d ba 3d 5d d2 65 3d 16 e8 11 3e c1 70 24 3e
       0.090938486 0.05610882 0.1424869 0.16058637
0002c0 8e 5b c6 3d 21 38 5b 3d 79 54 32 3b 4f 19 bf 3d
       0.096854314 0.053520326 0.0027210994 0.09330999
0002d0 ed 5c 46 bd 57 25 28 bd e4 81 21 3e e4 70 99 3a
       -0.048428465 -0.041051235 0.15772206 0.0011706618
0002e0 9b 21 a0 bc 92 1b b1 3e f0 d9 e6 3d eb 41 58 3e
       -0.019547274 0.34591347 0.11272037 0.21118896
0002f0 da 40 ac 3e 94 ab e4 bc e7 37 85 3d 15 eb dc 3a
       0.33643228 -0.027913846 0.06504803 0.0016854728
000300 2e 36 b1 bc ec 27 44 3d 1d ef b7 3d d1 6f 32 bd
       -0.02163228 0.047889635 0.08981154 -0.043563668
000310 c8 d7 56 3d 81 65 5d 3d 85 1a 10 3e 92 6a 92 3c
       0.05245188 0.05405188 0.14072616 0.017873082
000320 9c 19 b7 3d dd 17 92 3b 19 02 16 3e 8d 0f 1c 3d
       0.089404315 0.004458411 0.14649238 0.038100768
000330 84 ba ee 3d ed 0e 9d 3d 0c 6b 73 3d 39 d6 c2 bc
       0.11656669 0.076688625 0.05942826 -0.02378379
000340 e4 d6 a6 bc ea 2e e2 3b b4 e9 47 bc 79 a7 91 bc
       -0.02036614 0.0069025652 -0.012201715 -0.017780052
000350 00 f7 df bd 93 11 11 3d c6 08 0c 3d 83 59 16 3d
       -0.109357834 0.03541715 0.034188055 0.03670646
000360 bd 27 a7 3d 0b 3d 85 bc 98 80 28 3b 73 d0 b8 3d
       0.08161876 -0.01626446 0.0025711413 0.090241335
000370 ff 02 4e bc 98 08 e3 3d 3d 73 3e bd 47 8f a3 bc
       -0.0125739565 0.110856235 -0.04649662 -0.01996578
000380 63 36 7f 3d e0 2a d0 bc 93 85 ac 3c 87 4b e9 3d
       0.062307727 -0.02541107 0.021059787 0.11391359
000390 f7 88 b2 3d a5 8b c1 3d 3b d2 00 3d 9c 7a cc bc
       0.0871753 0.09450463 0.03145049 -0.024960808
0003a0 c1 42 f3 3d d2 9d 22 3d 48 12 ab bd 17 59 aa bc
       0.11877967 0.03970129 -0.08353096 -0.020794434
0003b0 e6 84 c8 bd f6 f2 1b 3c cc 2b ce 3c f5 49 c8 bd
       -0.09790973 0.009518376 0.025167368 -0.09779731
0003c0 37 db ca bd b5 8d 02 bd 30 d0 27 3c 1c cf a8 3d
       -0.09905093 -0.031873424 0.010242507 0.08242628
0003d0 fa 7a 99 3c 54 e2 52 bd cd 5b c1 bc 5c 44 4f bb
       0.018735398 -0.051485375 -0.023603344 -0.0031626439
0003e0 4b 8e 89 bd b3 6f 1b 3e e5 45 e2 3d b4 5d 0b 3d
       -0.06716593 0.15179329 0.110484876 0.03402491
0003f0 03 2e 7d bd ea 5e c6 bc e4 bc 85 bd cf a3 eb bd
       -0.06181146 -0.02421518 -0.06530169 -0.115058534

cell.conv.bias f4 [64]
000000 cb 90 a4 3c c2 c2 88 3d 8e 04 89 3d f7 91 46 3c
       0.020088574 0.06677772 0.06690322 0.012119762
000010 2f 09 fc 3c f3 06 14 3d f3 f1 90 3d e0 ed c9 bb
       0.030766098 0.03613944 0.07077398 -0.00616239
000020 ef 7c 01 bd c0 a5 ed 3b 60 99 6a bd 16 a1 a4 3a
       -0.031613287 0.007252425 -0.057275176 0.0012560214
000030 1f 30 dd bc 7f 04 a2 3d 86 6e ca bc 7c 2a ea bb
       -0.027000485 0.07911014 -0.024710905 -0.007146178
000040 79 86 a9 bc 7e c6 d7 3c 7e da 0c 3e f1 2c 1a 3e
       -0.020694004 0.026339766 0.13755223 0.15056206
000050 0d 0c ac 3d ac 21 b0 bc 50 29 e9 3c c9 95 41 ba
       0.08400736 -0.021500431 0.028462082 -0.00073846855
000060 4e ac 95 3d 96 11 14 3e 8b 91 91 bd 51 e8 f0 3d
       0.07308255 0.14459834 -0.07107838 0.11763061
000070 0d d9 91 bc b5 44 4c bd 99 d6 75 3d 2b 30 8b bc
       -0.017803693 -0.04987021 0.06001911 -0.016990742
000080 ce cb be bc 72 93 fe 3d 85 6f 71 3c 55 4d 1b bb
       -0.023290541 0.12430467 0.014736061 -0.0023697217
000090 f0 8a a4 bc 1b 60 b9 3d 56 dc d2 3d f8 0d b5 3d
       -0.020085782 0.09051534 0.10295932 0.08840555
0000a0 78 20 bf bc 6b f1 28 3d cb 2f 5c 3d e7 49 a6 3d
       -0.023330912 0.04124586 0.053756516 0.081195645
0000b0 25 c6 86 3d 3d 2a 43 3d d3 e3 dd 3a 29 51 4b 3d
       0.06580762 0.047647703 0.0016928859 0.049637947
0000c0 e9 fd a0 bd c2 33 9b bc f4 af bf 3d 59 eb 98 3a
       -0.078609295 -0.018945578 0.09359732 0.0011666819
0000d0 70 7d f8 3d 10 6a 1b 3d 51 fa de 3d 5f 8b c3 3d
       0.121333 0.037942946 0.10887588 0.09548067
0000e0 44 58 a8 bd c5 c8 83 bc 95 a8 00 bd 47 69 7a 3d
       -0.0821996 -0.016086945 -0.031410772 0.061135557
0000f0 0e a3 aa bc 59 9d e2 3c 58 df 89 3c 9f 82 16 bd
       -0.020829704 0.02766292 0.016830131 -0.036745664

head.weight f4 [1, 16, 1, 1]
000000 1e c8 85 be 0f dd 5f 3c fe a3 37 bd 65 ae f4 3d
       -0.2612924 0.013663544 -0.04483413 0.119473256
000010 7c 77 0a 3e 6c 31 5d be 3f 39 ff 3d c3 eb a6 3d
       0.13522142 -0.21600884 0.12462091 0.08150437
000020 b8 9a 9d 3d 5e 45 f1 3d dd c4 f0 bd e9 cd b6 bd
       0.07695526 0.11780809 -0.11756299 -0.08925993
000030 cb 48 06 be 8d 5e 77 3e 33 07 10 3e 4a 7f 92 3b
       -0.13113706 0.24157162 0.14065246 0.0044707404
