experiments/convlstm_phase1_best.pt (torch, 42207 bytes, 3 tensors)

cell.conv.weight f4 [64, 17, 3, 3]
000000 4d 85 9b bd 54 7c 12 bc 38 b7 bf bc b4 29 11 bd
       -0.075937845 -0.008940775 -0.023402795 -0.03544016
000010 f2 dc 54 bd b0 43 80 3d 34 f2 9f bd 23 81 4c 3a
       -0.051968522 0.0626291 -0.078098685 0.00078012253
000020 78 b7 c6 3c 1d 9e 9e 3d 27 94 bc 3c 60 4e 93 3d
       0.024257407 0.077450015 0.023019863 0.07192683
000030 a0 4f 13 bd 7a b0 6f 3c ad 22 32 3d cf 8b 45 3d
       -0.03596461 0.014629478 0.0434901 0.048229035
000040 06 00 e0 3a 3e 12 a5 3c 5b 6c eb 3d bf 72 4c 3d
       0.0017089851 0.0201503 0.114952765 0.049914118
000050 bd b2 25 3e 28 fe a2 3d 51 05 14 3e 81 f4 b5 3c
       0.16181464 0.07958633 0.14455153 0.022211315
000060 9c 7d 42 3e 4a cb 2f 3d ef 3e 8b 3b 6c 2b 7c 3d
       0.18993229 0.04291848 0.0042494456 0.061564848
000070 b0 b5 57 3d 66 05 15 3c d0 9b 27 3c c5 40 df 3c
       0.052663505 0.009095525 0.01023002 0.027252564
000080 ed 6d 3b bd 5c 6b 11 3d d7 aa 64 3d 48 50 85 bd
       -0.04575913 0.035502777 0.055826988 -0.06509453
000090 79 86 e5 bc 3a 18 f0 bc 51 a2 59 bd 31 11 1f 3d
       -0.028018223 -0.029308427 -0.053133313 0.038834754
0000a0 1a a3 82 bd 70 60 c2 bd 73 2b 87 bd 0d 2b 25 bd
       -0.063787654 -0.0949105 -0.06600084 -0.04032426
0000b0 35 4f 3c 3d 23 f6 36 3d 37 c4 83 3d 2e 35 c8 3b
       0.045973975 0.044668328 0.064339094 0.006109855
0000c0 42 b7 66 3d c4 d9 5f 3d 83 89 de 3c 5a 8a 02 ba
       0.056327112 0.054651037 0.02716518 -0.00049797224
0000d0 c7 b9 95 3d 61 06 97 bd 35 8a c5 3c fc 13 3e bd
       0.07310825 -0.073742636 0.024113754 -0.046405777
0000e0 24 bf 99 3d c6 b0 4b bd 2d 82 d4 bb e0 3f ae 3d
       0.0750716 -0.04972913 -0.0064852447 0.08508277
0000f0 ab 5c f3 3c ad cd 54 bb a0 db 76 bd da 98 87 bd
       0.029707273 -0.0032471225 -0.060268044 -0.06620951
000100 86 1d 0b bd a7 0c 3a bd 0b 0a 6b bd df ae ad 3b
       -0.033963703 -0.045422222 -0.057382625 0.0053003873
000110 9c 36 68 3d 6a da 9f bc 6a 71 03 3d 9d c5 c9 bc
       0.056692705 -0.019513328 0.032090582 -0.024630362
000120 7d 6c a7 bd 25 67 1b 3d 38 28 92 3d 48 cf 81 3c
       -0.08174989 0.037940163 0.07136577 0.01584591
000130 5a 3e 75 3c 4b 89 83 bd 3b 79 75 3c b0 c7 6d 3d
       0.014968479 -0.06422671 0.014982517 0.058051765
000140 10 c8 f5 3c 6b be 2f ba cc 51 8d 3d a9 05 13 bb
       0.030002624 -0.00067040947 0.06900367 -0.0022433794
000150 65 5f cb 3d 68 f5 9d 3c 3b b7 5a 3d 3c 89 30 3d
       0.099303044 0.019282058 0.0533974 0.043099627
000160 6c f0 81 3c 63 42 90 3d 0b f9 8c bc d8 ba cd bd
       0.015861712 0.07043912 -0.017208597 -0.10045403
000170 0c 31 53 bc 99 e6 33 3d 1e 1b 96 3c 8e 8c 27 bd
       -0.012890112 0.043921087 0.018323477 -0.040905528
000180 c3 6b 80 ba 22 7d ae bc d5 a0 b2 bd 71 66 6f bd
       -0.000979774 -0.021299902 -0.087220825 -0.058447305
000190 0e e0 e7 bc 42 cb 93 bd 1b 8c 9a 3b 7a 19 5a 3d
       -0.02830508 -0.07216503 0.004716409 0.053246953
0001a0 c1 de 85 3d 53 77 c5 3c b1 7a 0b 3d 22 14 97 bd
       0.065366276 0.02410475 0.034052555 -0.07376887
0001b0 21 87 2e 3c 10 42 ab bd fb 85 85 bd c9 31 5f 3d
       0.010652334 -0.0836221 -0.06519695 0.05449084
0001c0 44 a1 80 3d ac 36 b8 bd 03 5a 54 3d 6b 1b 3e bd
       0.06280759 -0.08994803 0.051843654 -0.046412867
0001d0 ee 14 46 3d 01 88 fb bb 21 97 3c 3d 6e 87 60 bd
       0.048359804 -0.007676125 0.046042565 -0.054816656
0001e0 0f 95 69 bd e8 5c 7f 3b 19 0b 7b 3d 0d 06 f4 bc
       -0.05702692 0.0038965289 0.06128988 -0.029788041
0001f0 82 77 85 3d 7a 88 a5 bc 66 53 90 bd c2 9e 3a 3d
       0.06516935 -0.020206679 -0.07047157 0.04556156
000200 60 78 30 3d e9 23 b7 bd 43 4c 56 3d d0 c8 74 bd
       0.04308355 -0.08942396 0.052318823 -0.059761822
000210 1d 4e 09 bd b6 92 d4 bc 54 f7 1f bd ea 7c b2 3a
       -0.03352176 -0.025948863 -0.03905423 0.001361755
000220 e1 95 94 bc 98 ac 37 3c a4 e0 fb bc 9b 57 74 bb
       -0.018137874 0.011210583 -0.030746765 -0.0037283662
000230 25 92 3a 3d bf 79 30 3d 38 9c 82 bd bb f9 8c 3d
       0.04554953 0.043084856 -0.063774526 0.0688357
000240 42 8c b8 3d ef f6 56 3d d3 37 7d 3d 6d bf 5a bd
       0.09011127 0.052481588 0.061820816 -0.053405214
000250 6a 63 fe bc 6a af bb 3c 82 61 c6 3d e8 fb ce bb
       -0.031053264 0.022910792 0.09686567 -0.0063166507
000260 51 27 96 3d 21 4b 30 3d 3a 6f 42 3e 49 fd 21 3e
       0.07331718 0.0430404 0.18987742 0.15819277
000270 19 63 14 3d d0 32 8b 3d 50 16 2c 3e 08 ff be 3c
       0.03622732 0.06796801 0.16805387 0.023314968
000280 f2 86 f7 3d 60 88 02 3e 44 c3 ad bd 6d 69 7d 3d
       0.12086286 0.12747335 -0.084845096 0.06186812
000290 6f 63 07 bd 2e 71 47 bd c6 c3 22 bd 61 1b 89 3d
       -0.03305381 -0.04869192 -0.039737485 0.06694675
0002a0 7e 21 84 3d 85 2c 0a bd 00 39 21 3c 76 c1 43 bb
       0.06451701 -0.033733863 0.00984025 -0.002986995
0002b0 14 93 12 3e bb d2 f4 3c 06 13 55 3d f4 16 d2 3c
       0.14313918 0.02988564 0.052020095 0.02564571
0002c0 ce 95 17 3c 5d 2d 8d 3b 18 7b cc 3c 2c cd f3 bc
       0.009252025 0.0043083862 0.02496104 -0.02976092
0002d0 b7 e5 b4 bd fc db 4c bd 11 67 ff bc d2 cb 71 3a
       -0.08832877 -0.05001448 -0.031177076 0.0009223792
0002e0 95 1c c6 ba ab c8 31 bd 82 1c 83 bd 9f bd 29 bd
       -0.0015114719 -0.043404263 -0.06401922 -0.041440602
0002f0 66 46 7e bd f6 a1 84 3d 3a 92 ab 3c 99 ca e8 bc
       -0.062078856 0.06476204 0.02094375 -0.028416919
000300 05 56 7e bc a8 96 1d bd ee 04 8c bd 6d 65 60 bd
       -0.015523438 -0.038473755 -0.06836878 -0.054784227
000310 67 78 90 bd ac ef 84 3d 1b 8d 93 3d 4e d7 0c 3d
       -0.07054215 0.06491026 0.07204648 0.034385018
000320 0a 30 76 3d 52 a2 64 3d 0f bc e9 3c 24 b1 ea 3d
       0.060104407 0.055818863 0.028532056 0.11459568
000330 58 15 dd bc 5b b6 24 3d b5 5d 23 bc ff 81 b3 3d
       -0.026987717 0.04021297 -0.009971072 0.08765029
000340 7f 6b 2b 3d 40 2e bc 3d c3 e2 19 bd ab a6 83 3d
       0.041850563 0.09188509 -0.037569772 0.06428274
000350 3b 35 72 3d e1 62 d6 bc 50 6b 99 bc 20 c7 c9 3d
       0.059132796 -0.026170196 -0.018727928 0.09852433
000360 bd 26 d2 3d 95 0c 0f bd 63 93 9f 3c c0 4b 1c 3d
       0.10261295 -0.03492411 0.01947946 0.03815818
000370 28 f5 d5 3d 3f ff a6 3d fb 07 b7 bb 15 03 20 bc
       0.104471505 0.08154153 -0.005585668 -0.00976636
000380 27 a9 c1 38 13 bb 90 3d 0e 18 3c 3e 02 b6 19 3e
       9.234464e-05 0.070669316 0.18368551 0.15010837
000390 30 44 eb 3d 04 7f b9 3d 4e b7 3d 3d 72 08 b0 3d
       0.11487615 0.090574294 0.04631739 0.08595361
0003a0 32 39 c4 3c 38 dc c4 3d 1f 85 eb bc c2 94 bb bd
       0.023953054 0.09612316 -0.02875 -0.09159233
0003b0 27 b5 fd 3c e1 ab 06 bd b3 37 91 3c e5 cc bc bc
       0.03097017 -0.03287876 0.017726755 -0.02304692
0003c0 c4 43 28 3d 15 9f 22 bd 7c 06 e1 bd 37 1b 18 bc
       0.04108025 -0.039702494 -0.10987565 -0.009283832
0003d0 ca 32 2c bd b9 4e 16 bd 2d 1f 00 be 3d 2c 32 bd
       -0.042040624 -0.03669617 -0.12511893 -0.04349922
0003e0 3c fa c6 bd 84 00 c0 bd a4 38 00 be 46 22 d4 bd
       -0.09715697 -0.09375098 -0.12521607 -0.103581
0003f0 ae 4a 29 3d 7a c1 94 3d e4 c2 09 bd a2 c1 9f 3d
       0.041330986 0.07263465 -0.033633128 0.078006044

cell.conv.bias f4 [64]
000000 ba e6 4f bd bd fb ab 3d 3d 00 77 bd 83 cf 97 3d
       -0.050757147 0.08397625 -0.06030296 0.074126266
000010 bd f9 19 bd 00 1c bd 3d a8 80 93 3c 38 4e c0 3d
       -0.037591685 0.09233856 0.018005684 0.09389919
000020 08 da fd bc f1 b0 4a bd 7a 67 a2 3d 86 a5 c3 ba
       -0.030987754 -0.04948515 0.07929893 -0.0014926649
000030 2d 27 f8 bc aa 4d af 3d d9 cb 1c bd b0 f7 59 bd
       -0.030292118 0.08559735 -0.03828034 -0.05321473
000040 99 ca 68 3c a1 34 f6 3d b1 45 7d 3d c7 65 ce 3c
       0.014208459 0.12021757 0.06183404 0.025195016
000050 42 e9 02 3e 70 62 c5 3d 09 dc 5b bd 00 c0 9e 3d
       0.12784293 0.09637916 -0.05367664 0.07751465
000060 0f b6 4e bd 76 21 63 3d 09 06 4b bc 05 06 61 bc
       -0.050466593 0.055451833 -0.012391576 -0.013734345
000070 f0 6d 81 3d 26 52 31 3d 7b 03 d7 3a b1 28 5f 3d
       0.06319797 0.043291233 0.0016404236 0.054482166
000080 c6 23 a5 3d c0 8e 0c 3d 19 ec e5 3c 66 d4 a0 3d
       0.08063464 0.034315825 0.028066682 0.07853012
000090 53 76 96 ba 02 44 12 bd 2e b1 c6 3c 16 a3 a6 3c
       -0.0011479355 -0.03570939 0.024254408 0.020341437
0000a0 83 ef ed 3b 67 54 8a 3c a6 64 7b 3c f1 42 21 bd
       0.007261218 0.01688595 0.015343821 -0.03937048
0000b0 f2 4d d7 3c 79 0c 61 3d 93 99 77 bd d8 e2 a9 bb
       0.026282284 0.054943535 -0.060449194 -0.0051845126
0000c0 1d c6 b4 bd 10 e8 9d 3d 8a b3 99 3d 03 41 1e 3d
       -0.088268496 0.07710278 0.075049475 0.03863622
0000d0 16 70 7b bd 23 e5 0b 3c 3f fb 59 bc b3 05 50 3d
       -0.06138619 0.008538517 -0.013304531 0.050786685
0000e0 e7 bd df 3d ed a7 73 bd e1 fd 72 bb 43 05 af bd
       0.10924893 -0.05948632 -0.0037077593 -0.085459255
0000f0 1c 8e e6 3d f3 2f 94 3d 72 77 63 bd 49 da c9 3a
       0.11257574 0.07235708 -0.055533834 0.0015400137

head.weight f4 [1, 16, 1, 1]
000000 d9 9d a1 bd a9 3e 2f bb 09 a8 91 3d 1f d1 48 3e
       -0.07891435 -0.002674023 0.07112128 0.19611023
000010 bf 8b 09 bd bb d8 4d be 70 e3 60 be 1d 59 90 bd
       -0.033580538 -0.20102207 -0.2196176 -0.07048247
000020 9e 87 6e 3e 4c 74 04 3e 94 ae 99 bd 80 a3 74 be
       0.23293921 0.12934989 -0.07504001 -0.23890495
000030 c1 a4 be 3d 29 b4 86 3e d8 23 12 bd ed 96 0a be
       0.09308768 0.26309326 -0.035678715 -0.13534136
