experiments/convlstm_phase1_best.pt (torch, 42207 bytes, 3 tensors)

cell.conv.weight f4 [64, 17, 3, 3]
-0.0028602437 0.039411914 -0.082715034 -0.07068739 -0.03599921 0.018048527 -0.020057335 0.043972112
-0.020147765 0.033218674 -0.014323047 -0.014246642 -0.059999723 -0.02847894 -0.018121837 0.015954439
0.04714528 0.06484859 -0.07370535 -0.060595524 0.016368007 0.049577586 -0.042129286 0.039432965
-0.021404278 -0.0048830337 0.0599789 -0.08068021 -0.060908504 -0.023492035 -0.040425744 0.05709624
-0.06174471 -0.040747017 -0.06312678 -0.078731775 -0.053445037 0.07864577 0.038724076 0.043579068
0.019343402 -0.033527907 0.011423953 -0.06815797 -0.056112833 -0.041301936 0.047635786 0.037937943
-0.029558934 0.001320373 0.04627936 0.08576246 0.03582205 0.008238434 0.048330422 -0.056097742
0.024926819 -0.06129946 -0.062628 -0.047497418 0.044422187 0.038931355 -0.03668736 0.03873947
0.06142993 -0.005804734 0.010005783 0.03426871 0.05892719 0.077256374 -0.059877753 -0.025791867
0.014126216 0.0434229 0.060566258 0.06982351 -0.0016508772 -0.08799727 0.012933416 -0.047547806
-0.07494575 0.072654985 0.067651875 -0.08024191 0.019382827 -0.0012051178 -0.005142126 -0.039320387
0.035709597 -0.044001326 0.061782505 0.07883564 0.100943744 0.0563207 -0.055061344 -0.0098617645
0.07736547 0.048582133 -0.018297529 -0.038330086 0.08999268 0.060386904 -0.021982191 -0.0026581543
-0.06220968 0.004749221 -0.05035698 -0.053166877 -0.034485713 0.00894746 -0.035312377 -0.0031164663
-0.07431313 0.06396555 0.00397095 -0.107982874 -0.040165167 -0.007813773 -0.00064812397 0.01851691
0.022457622 -0.011151551 -0.044203043 0.039255176 -0.07900861 -0.0474839 -0.028411327 -0.055424824
-0.025808768 -0.06740513 -0.038844537 -0.0046265544 -0.04076974 -0.006088466 0.056621023 -0.0016423591
0.016407704 -0.00914092 0.023811184 0.06391296 0.08149308 0.045476895 0.07701655 -0.012759874
-0.05968353 -0.0029341455 0.07583616 -0.003965518 -0.02785065 -0.04475882 -0.08552818 -0.08149578
-0.020589532 0.060591698 0.08031431 -0.05858295 0.07871428 0.0011984096 0.008298937 -0.02026828
0.013804103 -0.0015316536 -0.0820675 -0.06786496 -0.01944701 -0.00038319023 -0.02394782 0.031756654
-0.079720564 0.0061810724 0.07423009 -0.039524816 0.05388014 0.017447678 -0.08634254 0.020924192
-0.029805783 -0.0392916 0.046938393 -0.07405146 0.008329886 -0.032085873 0.055303067 0.015781142
0.016901007 0.020398008 -0.02456423 -0.03128435 -0.070324406 0.028287515 0.0737654 0.06888287
-0.058292568 0.028068546 -0.031286594 -0.047399387 -0.032120995 0.03715959 -0.048231136 0.0060581183
-0.00410325 0.0535948 -0.053159703 -0.062840745 -0.04119044 0.06784939 -0.031801127 0.103987604
0.04586927 0.04863583 0.023674931 -0.022371534 0.037399616 0.009411294 0.024241446 0.04618411
-0.04650061 -0.020418786 0.08086731 -0.046913832 0.024317876 0.097829595 0.036929194 0.018077794
-0.06257445 0.022199685 -0.08633421 -0.038413372 -0.045787066 -0.047259487 -0.02298335 0.06365836
-0.0019925144 0.060285863 0.0564824 -0.031585038 0.04654563 -0.04339043 -0.00681736 0.043819163
0.03622796 0.08319538 -0.0070740576 0.037178814 0.054148413 -0.034647357 0.07327973 -0.028217604
0.08427487 0.021501148 -0.009559896 0.07219005 0.06546365 -0.006653228 -0.041630927 -0.024058282
00000000: ed72 3bbb 636e 213d 8066 a9bd 8dc4 90bd
00000010: e873 13bd 81da 933c 484f a4bc 1a1c 343d
00000020: ed0c a5bc 4e10 083d 37ab 6abc bf6a 69bc
00000030: 45c2 75bd aa4c e9bc 3f74 94bc e2b2 823c
00000040: 691b 413d 56cf 843d d5f2 96bd 0333 78bd
00000050: 3316 863c de11 4b3d c28f 2cbd 7684 213d
00000060: 0658 afbc db01 a0bb 6fac 753d aa3b a5bd
00000070: 327b 79bd 5e72 c0bc 7795 25bd bfdd 693d
00000080: 05e8 7cbd 58e6 26bd 9d48 81bd 203e a1bd
00000090: 2fe9 5abd 0911 a13d 239d 1e3d f77f 323d
000000a0: 0e76 9e3c 8f54 09bd 882b 3b3c 6896 8bbd
000000b0: 92d6 65bd 382c 29bd be1d 433d d164 1b3d
000000c0: 9425 f2bc 5e10 ad3a 6d8f 3d3d 3ba4 af3d
000000d0: 24ba 123d 7ffa 063c 1ff6 453d bfc6 65bd
000000e0: 5433 cc3c 2415 7bbd 1c43 80bd a78c 42bd
000000f0: 0af4 353d 7c76 1f3d 7c45 16bd 47ad 1e3d
00000100: f39d 7b3d a335 bebb 4cef 233c 595d 0c3d
00000110: a35d 713d 9738 9e3d 6042 75bd 7749 d3bc
00000120: a571 673c 36dc 313d 5314 783d a1ff 8e3d
00000130: 3f62 d8ba ea37 b4bd aee6 533c 7dc1 42bd
00000140: 287d 99bd 23cc 943d 118d 8a3d df55 a4bd
00000150: bcc8 9e3c 0bf5 9dba 487f a8bb 6a0e 21bd
00000160: 3a44 123d bc3a 34bd a70f 7d3d 9474 a13d
00000170: 98bb ce3d 89b0 663d 0188 61bd 3d93 21bc
00000180: ca71 9e3d 0ffe 463d b3e4 95bc 0200 1dbd
00000190: 154e b83d 4258 773d ff13 b4bc 6e34 2ebb
000001a0: 94cf 7ebd 5a9f 9b3b 1f43 4ebd 83c5 59bd
000001b0: e440 0dbd 5e98 123c b6a3 10bd a13d 4cbb
000001c0: 7b31 98bd 5f00 833d be1e 823b 2026 ddbd
000001d0: 3b84 24bd 5705 00bc dde6 29ba c6b0 973c
000001e0: 0cf9 b73c ffb4 36bc 400e 35bd 09ca 203d
000001f0: 44cf a1bd 7a7e 42bd dfbe e8bc 2405 63bd
00000200: e96c d3bc b30b 8abd 731b 1fbd 5a9a 97bb
00000210: 2cfe 26bd c181 c7bb 72eb 673d 6d44 d7ba
00000220: 7369 863c ccc3 15bc ac0f c33c cce4 823d
00000230: d8e5 a63d fb45 3a3d daba 9d3d ca0e 51bc
00000240: b876 74bd cb4a 40bb fd4f 9b3d 2df1 81bb
00000250: 0c27 e4bc 0655 37bd 6629 afbd 42e7 a6bd
00000260: 61ab a8bc 002f 783d d47b a43d adf4 6fbd
00000270: f434 a13d f413 9d3a 44f8 073c aa09 a6bc
00000280: 9b2a 623c c4c1 c8ba 0113 a8bd c9fc 8abd
00000290: 564f 9fbc ece6 c8b9 382e c4bc 4413 023d
000002a0: 8944 a3bd 988a ca3b f205 983d c6e4 21bd
000002b0: 6cb1 5c3d 6fee 8e3c 5cd4 b0bd 3669 ab3c
000002c0: 422b f4bc 3bf0 20bd 7942 403d 4ba8 97bd
000002d0: 137a 083c 7a6c 03bd 7885 623d 7447 813c
000002e0: fb73 8a3c b919 a73c ed3a c9bc 0524 00bd
000002f0: 3e06 90bd 38bb e73c 5012 973d 7612 8d3d
00000300: 30c4 6ebd 02f0 e53c 5f26 00bd dc25 42bd
00000310: 4e91 03bd a734 183d 038e 45bd 2e83 c63b
00000320: 8e74 86bb 3986 5b3d fdbd 59bd a6b2 80bd
00000330: 4fb7 28bd 9ff4 8a3d e641 02bd 74f7 d43d
00000340: 6ae1 3b3d 5d36 473d eef1 c13c 8244 b7bc
00000350: 5730 193d d431 1a3c ff95 c63c 8d2b 3d3d
00000360: 6c77 3ebd 4c45 a7bc c39d a53d b828 40bd
00000370: 4836 c73c e25a c83d 1143 173d e217 943c
00000380: 0927 80bd 1ddc b53c fecf b0bd 5757 1dbd
00000390: 388b 3bbd 2a93 41bd 9447 bcbc 505f 823d
000003a0: d894 02bb 4fee 763d 175a 673d 505f 01bd
000003b0: a1a6 3e3d 2aba 31bd 2964 dfbb b97b 333d
000003c0: c563 143d 5762 aa3d 7fcd e7bb d048 183d
000003d0: baca 5d3d 63ea 0dbd af13 963d 9b28 e7bc
000003e0: 4e98 ac3d 2d23 b03c 1ca1 1cbc 60d8 933d
000003f0: ce11 863d 5203 dabb 3185 2abd e015 c5bc

cell.conv.bias f4 [64]
0.037396163 0.066602364 0.035981055 0.061408944 -0.036245257 -0.028772034 0.09001753 -0.057086978
-0.027237596 0.14642064 -0.022047304 0.052689414 -0.029095288 0.10535251 -0.0068519805 0.06397348
0.1270647 -0.024169993 0.08317426 0.016725715 -0.059934143 0.07339181 -0.027586468 0.093149155
0.00893681 -0.023475632 -0.025220914 0.07350079 -0.050108094 0.14453606 0.06854334 -0.015184738
0.046727944 -0.0557798 0.02030425 -0.008585032 0.039687585 -0.02379383 -0.011471599 -0.0069751325
0.014572064 0.07444915 -0.03758208 0.055846255 0.020404834 0.049005434 0.033980835 0.084097765
0.057986893 0.023097495 -0.05647147 -0.06665878 0.03476375 -0.06798787 -0.009516647 0.055850912
-0.056073036 -0.12264591 -0.061155297 -0.05160449 0.037228104 -0.019761715 0.004697085 -0.026882263
00000000: b82c 193d d266 883d df60 133d f287 7b3d
00000010: e875 14bd 54b3 ebbc 1c5b b83d 09d4 69bd
00000020: 6121 dfbc 4bef 153e 8c9c b4bc dbd0 573d
00000030: 3e59 eebc 0fc3 d73d 9486 e0bb 8704 833d
00000040: 401d 023e 2600 c6bc 4457 aa3d 5e04 893c
00000050: 817d 75bd 724e 963d 04fd e1bc fcc4 be3d
00000060: b36b 123c f84f c0bc 179c cebc 9587 963d
00000070: 253e 4dbd 4301 143e 7360 8c3d 68c9 78bc
00000080: cd65 3f3d 5c79 64bd 1955 a63c 3ca8 0cbc
00000090: 738f 223d 47eb c2bc 60f3 3bbc a78f e4bb
000000a0: abbf 6e3c cc78 983d abef 19bd 0bbf 643d
000000b0: 0a28 a73c ecb9 483d 7d2f 0b3d 733b ac3d
000000c0: aa83 6d3d f536 bd3c a14e 67bd 6684 88bd
000000d0: 6f64 0e3d 393d 8bbd b6eb 1bbc edc3 643d
000000e0: d7ac 65bd c72d fbbd fa7d 7abd 3b5f 53bd
000000f0: 7f7c 183d 52e3 a1bc 01ea 993b 3138 dcbc

head.weight f4 [1, 16, 1, 1]
-0.046586633 -0.13167782 -0.21646874 0.123868056 -0.073713265 -0.19497098 0.091073036 -0.1490203
0.09347611 -0.09877778 0.12675664 0.22212629 -0.2610004 -0.17809686 0.29782227 0.046230014
00000000: a0d1 3ebd 8dd6 06be fba9 5dbe 89ae fd3d
00000010: fbf6 96bd 79a6 47be 8084 ba3d c798 18be
00000020: 6770 bf3d 014c cabd 7ecc 013e 1375 633e
00000030: d8a1 85be 065f 36be 297c 983e af5b 3d3d
