experiments/phase3_phys_best.pt (torch, 63253 bytes, 9 tensors)

encoder.0.weight f4 [8, 1, 3, 3]
000000 2d 1a aa be c7 fd 73 bd 4a ed 13 3e 81 49 3c be
       -0.33223096 -0.059568193 0.14445987 -0.18387415
000010 e2 be 9e bd a5 15 99 3e 05 00 c3 3e 5e 4b 5b 3e
       -0.07751252 0.29899326 0.38085952 0.21415469
000020 b7 6c f3 ba 54 7c 94 bd dd 36 e7 bd 69 79 4c 3e
       -0.0018571828 -0.07250276 -0.11289761 0.1996819
000030 51 92 b3 3d 53 e1 b1 3d 65 cb 95 3d f2 ba f4 bd
       0.08768142 0.08685555 0.07314185 -0.119497195
000040 86 81 0e 3d 76 4a 3a 3e 55 8f 24 be 39 bb a7 bd
       0.034791492 0.18192467 -0.16070302 -0.08190007
000050 d1 ff 92 bb 9e 45 cc 3c 1d f6 db 3e 85 c7 b5 bd
       -0.004486062 0.02493554 0.42961207 -0.08875946
000060 bf 84 2f bd ff ec 9a 3e ae cb b1 bd 3a a0 32 bd
       -0.042851206 0.3025894 -0.08681427 -0.043609835
000070 cd 6d c3 bc 39 39 58 3d 23 58 5a be 4a c8 40 3e
       -0.023856068 0.052788947 -0.21322684 0.18826404
000080 ab f9 8c 3e 64 67 a1 3e 18 4f 15 be f5 6a 41 3e
       0.27534232 0.31524193 -0.14580953 0.18888457
000090 c9 0d 7e be 0c e0 7b be 50 88 2e 3e b0 18 27 3c
       -0.24809946 -0.24597186 0.17044187 0.010198757
0000a0 51 bd 59 bd 1d f4 f0 bc 1a ee 97 3e 22 50 86 bd
       -0.05315906 -0.029413277 0.29673845 -0.06558253
0000b0 82 04 14 3e e0 0d 3d be 0a 93 33 3e fc 4e 05 be
       0.14454845 -0.18462324 0.1753656 -0.13018411
0000c0 71 56 9f bd 1d ed 33 bd bf f0 98 3d da 7c 15 3e
       -0.07780159 -0.0439273 0.07467794 0.14598408
0000d0 3c b0 26 be 14 9b 03 be 50 fb 0c 3e f7 5c e7 3d
       -0.16278166 -0.12852126 0.13767743 0.112970285
0000e0 df 7e 87 be f9 4d ac be 24 1b 21 3e 37 9d 68 be
       -0.26463982 -0.33653238 0.1573301 -0.22716223
0000f0 14 b1 fc 3d a6 37 db 3d f0 66 49 3e d5 48 e0 3d
       0.123384625 0.107039735 0.19668174 0.109513916
000100 e0 a6 f2 3b 77 29 b0 3e a7 12 a6 3e de a5 8b 3d
       0.007405147 0.34406635 0.32436106 0.06818746
000110 1d 6e 9d 3e 3e e8 35 be a4 a3 8a 3e cf 8a 03 be
       0.30748072 -0.17764375 0.27077973 -0.1284592

encoder.0.bias f4 [8]
000000 9e 2a 2e 3c 02 fe 64 be 5c 52 64 ba 4f cc 85 be
       0.010630278 -0.22362521 -0.0008709782 -0.26132438
000010 12 12 01 3e 87 a9 b4 3e 8d 8b d9 3d b2 0c d3 3d
       0.1260455 0.3528559 0.1062232 0.10305156

encoder.2.weight f4 [8, 8, 3, 3]
000000 c1 88 8d bd d4 9b 98 3e e6 8f 30 3e 18 bd d1 3e
       -0.06910849 0.29806387 0.17242393 0.4096458
000010 a3 49 b6 3e 43 ef 27 3e 08 03 3f 3e 87 00 1f 3e
       0.35603055 0.16399865 0.186535 0.15527545
000020 92 2a b6 be c2 d5 b8 3e 0d 00 0d 3e ff 28 5c be
       -0.35579354 0.36100584 0.1376955 -0.21500014
000030 70 77 e7 3e 6b e9 8b 3e 04 8b 5c 3e 88 80 a8 3e
       0.4520831 0.2732652 0.21537405 0.32910562
000040 29 39 79 3e 9e bd 3c 3e 9e 91 fd be ac 6b d4 3e
       0.24338211 0.18431708 -0.4952516 0.41488397
000050 c0 ad 57 3e 01 85 d1 be 1f c4 31 3f dc e4 b4 3e
       0.21062374 -0.40921786 0.6943988 0.35330856
000060 8f 7d 84 be 31 87 06 3e 82 77 5e be 4c 0c ff 3d
       -0.25877044 0.13137509 -0.21725276 0.12453517
000070 64 b3 20 3e dd 25 48 3e d6 a8 a9 3e 57 ff ad 3e
       0.15693432 0.19545694 0.33136624 0.3398387
000080 a3 43 ac 3d 3d 4c ff 3d e8 a0 77 3e f7 3b 42 3d
       0.08411338 0.12465713 0.24182475 0.04742047
000090 e8 4f 38 3e 1c a0 e7 3c 57 71 62 3e de 05 52 3d
       0.17999232 0.028274588 0.22113548 0.051275127
0000a0 49 06 ba 3d a3 83 09 3e 71 f9 8b 3e 79 e5 22 be
       0.0908323 0.13429122 0.27338746 -0.1590785
0000b0 c0 f5 23 be 1f c5 a0 3a 33 0a 55 bd 9c e7 f3 3d
       -0.16011715 0.0012265778 -0.05201168 0.1190941
0000c0 8e bc a3 bc 31 cb 92 bd ce a6 bd 3c d7 f9 30 3d
       -0.01998737 -0.07167662 0.023150828 0.043207016
0000d0 dc 6f d5 3d 3f db 5a be b6 09 03 3e 6f 1c 81 3e
       0.10421726 -0.21372698 0.12796673 0.25217006
0000e0 49 ad 50 3e a1 cc 28 3d d9 29 64 3e 00 58 7e 3c
       0.20378603 0.041210774 0.22281589 0.0155239105
0000f0 eb 3d 5a be c7 3a 53 bc 65 44 19 3e cf cd 65 bd
       -0.21312682 -0.012892432 0.14967497 -0.056104477
000100 d7 1c 96 bc b4 2c db bc 35 7f cf 3d 9c dc dc 3d
       -0.018324299 -0.026754715 0.10131685 0.107842654
000110 c2 16 27 3e af c2 02 3e 5b 2b 56 3e eb 67 13 3e
       0.16317275 0.12769578 0.20914976 0.1439511
000120 fe ea 21 3e 7c 07 0c 3e 3c ed c9 bb c0 43 8b 3d
       0.15812299 0.1367473 -0.0061623137 0.06800032
000130 01 8f b5 3d 7a 4e 05 bd ec 0e 38 3e fe f8 55 bd
       0.088651665 -0.032545544 0.17974442 -0.05223941
000140 77 b0 ea bd fe c4 8d 3d 6a d3 da 3c 71 c8 c5 bd
       -0.11459439 0.06922339 0.026712138 -0.09657372
000150 3e 8d 94 3d d9 3c 08 bd 32 b9 6c 3d 8b 62 3b 3e
       0.07253502 -0.033261154 0.057793804 0.1829931
000160 c2 83 7e bd 17 66 27 bb 39 0d 1c 3e 53 81 de 3d
       -0.062137373 -0.0025543028 0.15239419 0.108645104
000170 51 eb e3 3c 96 b4 0a 3d b5 10 2d 3e 20 ec 8b b9
       0.027822169 0.033863626 0.16900904 -0.00026688073
000180 19 4d e3 3d c2 75 e0 bd d8 1a 90 bd 9d 9d bb 3d
       0.110986896 -0.109599605 -0.0703637 0.09160922
000190 5e c9 8c 3d 9e be 87 bc 16 9e 91 bc 30 d1 92 bc
       0.06874345 -0.016570386 -0.017775577 -0.017922014
0001a0 c4 83 45 3d ad d5 b5 3d a0 75 9e 3d 5f 43 e1 3d
       0.048221365 0.08878646 0.07737279 0.10999178
0001b0 e0 8f 09 3d 41 e8 97 3d e4 b4 b7 3d 94 04 97 bd
       0.033584476 0.07417346 0.08970049 -0.0737392
0001c0 87 2e 35 bd 7a 4d 1d 3e 35 cc ad 3c de 19 16 be
       -0.044233825 0.15361586 0.021215538 -0.14658305
0001d0 df 59 70 bd a3 f5 b1 ba 3a 9b 27 be a7 69 b5 3a
       -0.058679458 -0.0013577234 -0.16367808 0.0013840691
0001e0 5c c8 de bc e7 5d 6f bd be d4 b4 3c 24 73 bb bc
       -0.027195148 -0.05843916 0.0220741 -0.022882052
0001f0 06 4e 65 bd b5 1a 43 be 2c 2a a3 bc ee e7 40 bb
       -0.055982612 -0.19053157 -0.01991757 -0.0029435116
000200 31 54 2a b9 5c 19 f1 3d b0 5a 35 3d ff 38 06 bc
       -0.00016243827 0.11772415 0.04427594 -0.0081923
000210 4c 70 b5 bd 38 ce 9f bc 78 5f 78 bd 8a c0 07 3e
       -0.088593096 -0.019507512 -0.06063792 0.13257042
000220 78 8c b6 3b bb 91 98 3d c3 e6 8c 3d 76 da e2 3d
       0.0055709444 0.07449671 0.06879952 0.11076824
000230 eb 07 08 bd 2a f7 f4 3d fc a7 05 3e cb 11 92 bd
       -0.033210676 0.11961205 0.13052362 -0.071323
000240 c4 f0 31 3d a2 71 e8 bd ce 9b a5 bd cf 13 2b bc
       0.043442503 -0.11349799 -0.08086358 -0.010441734
000250 c3 af a4 3d a5 db 0d bd ce fa 83 3d 13 29 37 bd
       0.080413364 -0.034633297 0.064443216 -0.044716906
000260 85 57 03 3e bb ae 1b 3c 9a de e4 bd 16 1a 0a 3d
       0.12826355 0.009502108 -0.111752704 0.033716284
000270 67 30 04 be 42 bb cc bd d3 76 a2 bd bd 3c 1b be
       -0.12909089 -0.09996654 -0.0793282 -0.15159889
000280 f1 f5 e6 bc c4 d9 bd 3d 76 95 1a be ee 52 ef bd
       -0.028193446 0.09270051 -0.15096077 -0.116857395
000290 7a a3 cf bd 39 92 b9 3b db 1e 45 be 85 25 f4 bc
       -0.101386026 0.005663183 -0.19250052 -0.029803047
0002a0 6d 6f 6e bd 75 86 0b 3e 17 82 6a 3d 46 c7 c8 bd
       -0.058211733 0.1362551 0.05725297 -0.098036334
0002b0 4d 87 79 bc e0 b0 64 3d fe fe 80 bd 6a e9 20 bc
       -0.015230012 0.055832744 -0.06298636 -0.009821275
0002c0 f2 23 53 3d 10 c1 4f 3d ea fb d1 bd 8e c2 6b 3d
       0.051547952 0.050721228 -0.10253127 0.05755859
0002d0 16 97 c4 3c 7a 40 5d bd 53 d5 ac bc 42 60 25 3e
       0.023997825 -0.054016568 -0.021097815 0.1615
0002e0 e1 57 31 3e 41 79 70 3d 00 92 82 3d bb 84 1f 3e
       0.1731868 0.058709387 0.063755035 0.15577976
0002f0 59 0c 95 3d ab e2 1d 3e 64 9f 5d 3c 39 02 4e 3e
       0.07277746 0.15418498 0.013526771 0.20118035
000300 a3 6d a1 3d 76 9f 08 3e 08 9d 30 3d 8e 93 a3 3c
       0.0788224 0.1334208 0.043118507 0.01996782
000310 cf e1 d0 3d da 48 29 3e b4 2a 82 bd 81 39 ac 3b
       0.101993196 0.16531697 -0.06355801 0.0052558784
000320 e6 47 c9 bd 15 a2 17 bd 60 2d 0c bd fe 6b 04 3e
       -0.09828167 -0.037019808 -0.03422296 0.12931821
000330 3e 55 c7 3c d6 06 10 3d 0e e2 b4 3d bb 85 f2 bc
       0.024332639 0.03516277 0.08832179 -0.029604783
000340 85 aa 95 3d 40 8f e3 bb d8 ba 77 3d 2e 05 b5 bd
       0.07307915 -0.006944567 0.060480922 -0.088388786
000350 7c 35 4f bc c7 43 74 bc f5 00 b0 3d 9a be 41 bd
       -0.012647029 -0.0149087375 0.085939325 -0.047300912
000360 30 59 f0 bd d5 28 ef bc 46 d6 b8 bd 9f a6 d1 ba
       -0.11735761 -0.029194275 -0.090252444 -0.0015995092
000370 ec 10 61 3c 8c f7 c2 3d ff b0 0f 3d 52 3f bb 3d
       0.013736945 0.09519872 0.035080906 0.09142937
000380 18 ac f7 3d 74 f4 06 bd 2b 22 58 bd cf 10 3d 3e
       0.12093371 -0.032947972 -0.05276696 0.18463443
000390 db 69 e2 bd 5c 6b 05 3d 0d e1 83 bd 02 db df bd
       -0.110553466 0.03257309 -0.064394094 -0.10930444
0003a0 bd e1 28 3e bc 57 a3 bd c8 b6 e9 bd 11 53 70 be
       0.16492362 -0.079757184 -0.11411816 -0.23469187
0003b0 f3 ea 3e bc 80 68 cf bd 72 dc 9c be e3 3b 16 3e
       -0.011652696 -0.10127354 -0.30636936 0.14671282
0003c0 7d fe 29 be c8 f1 f5 bc e8 a7 7e bd fc 66 46 3d
       -0.16600986 -0.030022517 -0.062171847 0.048438057
0003d0 d0 cf 73 3d a2 9f e8 bd 72 c5 17 be 39 60 29 bd
       0.059524357 -0.113585725 -0.14821413 -0.04135153
0003e0 d8 ba be 3d e2 14 8d bd 70 15 4e 3a cd 59 c3 3d
       0.09312981 -0.06888749 0.0007861471 0.095386125
0003f0 bf 54 d8 ba 07 7e d4 3d a2 5c 41 3d e7 6a c4 3d
       -0.0016504748 0.103756 0.047207482 0.095907025

encoder.2.bias f4 [8]
000000 c0 a1 21 3b b3 4c 8e bc 4a d7 a0 3d 53 cf 02 bd
       0.002466306 -0.017370557 0.07853563 -0.031936
000010 04 d3 bc 3c eb f0 be 3d 2c 7d 48 3d f4 13 7f 3d
       0.023049839 0.09323295 0.0489475 0.06227489

cell.conv.weight f4 [64, 24, 3, 3]
000000 18 e7 50 3d 1c d0 8d 3d b6 5b 7c 3d 20 34 6e 3d
       0.05100164 0.06924459 0.0616109 0.05815518
000010 b5 2b 9e 3c 6b f7 c0 3b 70 9c 07 3e 38 95 e2 3d
       0.01930795 0.0058888695 0.1324327 0.110636175
000020 1e 06 2b 3d 07 2d 85 3d 42 54 25 bd 31 83 35 ba
       0.04175388 0.06502729 -0.040363558 -0.0006924151
000030 0e f6 70 bc 5d 56 a8 3d 33 ab b6 3d 83 a9 73 3b
       -0.0147071015 0.082195975 0.089193724 0.0037179894
000040 a1 94 cc bc be be a1 3b b1 6f be 3d 71 e7 eb 3c
       -0.024973216 0.0049360683 0.09298647 0.028796883
000050 06 24 5b bc ed 16 80 3d bf b5 8e 3d 26 9c 73 3d
       -0.013375288 0.06254373 0.06968259 0.059475087
000060 82 ff ba 3d 56 9c ee 3d f4 91 ae 3d c7 26 c1 3d
       0.091307655 0.116509125 0.08523932 0.09431224
000070 1f 43 ac 3d 54 3f ce 3d 52 6a 47 3c 33 d2 49 3d
       0.0841124 0.10070673 0.012171345 0.049272727
000080 ff 06 c2 3d 17 85 f5 3d ed 62 b0 bc 27 98 a6 bb
       0.09473991 0.119882755 -0.021531546 -0.005084056
000090 cc 9b 21 3d bc 6c b3 3c 01 e4 45 3d 54 4e c0 3d
       0.03945522 0.021902435 0.048313145 0.0938994
0000a0 f0 16 bd 3d dd e5 c7 3c 4c 68 d8 3d 7c 6a ab 38
       0.092328906 0.0244016 0.10566768 8.17375e-05
0000b0 29 7c dd bc ee 3c 89 3d cd 00 71 3d ac e5 90 3d
       -0.027036743 0.067010745 0.058838654 0.070750564
0000c0 68 a8 e8 bc 5a 52 00 bd 46 2e 85 3a f1 5a 7d 3d
       -0.028400615 -0.031328537 0.0010160885 0.061854307
0000d0 c5 80 29 3d ee 81 a2 3d 9b 7d 0a 3d 15 aa d8 3d
       0.04138257 0.07934938 0.033811193 0.105793156
0000e0 85 51 ea 3d 3c d5 e8 3b 6b bb e8 3c 71 6e e2 3b
       0.1144133 0.0071054976 0.02840968 0.0069101383
0000f0 c6 c3 71 3d 0d e8 fb 3b b6 70 13 3c 7a be fd 3c
       0.059024595 0.0076875747 0.00899904 0.030974615
000100 e5 49 73 3d fb 3c 80 3d 0d 1b f5 bc 52 78 40 3c
       0.059396643 0.06261631 -0.029920125 0.011747437
000110 7d 16 aa 3d f1 b6 64 3d 28 2d eb 3c 93 2b db 3b
       0.083050705 0.05583853 0.028708056 0.006688544
000120 71 bc eb 3c d4 47 c5 3c 5a eb 88 bd b9 26 01 bd
       0.02877638 0.024082102 -0.06685515 -0.03153107
000130 b1 d0 8f 3c 0b 81 d7 bc 43 48 56 3c 1f 26 c1 bc
       0.017555567 -0.02630665 0.013078752 -0.023577748
000140 7f 60 5b 3d 90 a5 77 bd 7e ee 16 3d d8 09 f9 bc
       0.053558823 -0.060460627 0.036848538 -0.030400202
000150 c0 07 9f 3d 06 c4 f7 bc bd f0 22 bd fe b3 14 3d
       0.0776515 -0.030244838 -0.039780367 0.036304466
000160 90 3b 48 3c 03 2e 68 bd cc 68 93 3d 1a 71 37 bd
       0.012221232 -0.056684505 0.07197723 -0.044785596
000170 bf 7c a3 bc 1b e6 e1 bc e9 77 2f 3d 6f 11 3b 3c
       -0.019956945 -0.027575543 0.042838965 0.011417731
000180 6b 64 b4 bb c5 15 52 3c 55 8a cb bc b0 b0 1a 3d
       -0.005505135 0.012822573 -0.024846235 0.03776616
000190 a0 b7 84 3b 58 c2 27 bd 70 03 f9 bc c8 a3 b4 3c
       0.00405021 -0.040956825 -0.030397147 0.022050753
0001a0 6f 05 89 3c d2 a5 01 bd 4d 1f 57 bd 83 55 1f 3d
       0.016726224 -0.03165228 -0.052520085 0.03889991
0001b0 cb 57 30 3d 8d 7a 5d 3d 3f dd fb bc 05 fe 89 3d
       0.043052476 0.05407195 -0.030745147 0.067379035
0001c0 01 72 d8 3b 48 1d b0 3d 0a 32 d3 3b 50 ad 1e 3d
       0.006605387 0.08599335 0.006445174 0.038739502
0001d0 56 1b 2d 3d 57 d4 43 3b 1d 0e 0d 3d 4a c3 82 3d
       0.042262398 0.0029881203 0.034437288 0.06384905
0001e0 60 35 c1 3c 03 65 94 3b c3 c6 94 bc 3a ce 3b bd
       0.023585021 0.004528643 -0.018161183 -0.04585097
0001f0 d9 0d 2e bc 20 e9 a1 bd e2 2e bd 3d 6f 4c 9c 3d
       -0.010623419 -0.07905793 0.09237458 0.07631766
000200 9e 30 3e 3d 18 fe 89 bc b3 3b a5 bc 58 3b a6 3d
       0.046433084 -0.016844794 -0.020170068 0.08116788
000210 95 5a 4b bc e4 7a f3 bc 20 74 35 3d 23 8b 45 3d
       -0.012411733 -0.029721685 0.0443002 0.048228394
000220 7f b8 7a bd d3 bb 2a 3c 99 0c 1d 3d 15 0e 21 3d
       -0.061211105 0.010420757 0.038342092 0.03932007
000230 a2 81 83 bd 0a 05 32 bd 96 2b 9f 3c 86 cd e0 bc
       -0.0642121 -0.043461837 0.019429963 -0.027441751
000240 ac dd 81 bc ca d4 ee bc 98 8a 3a b8 aa c2 63 bc
       -0.015852772 -0.0291542 -4.447493e-05 -0.013901392
000250 c8 09 15 3d ec b7 6e 3c 7f 63 98 bc 38 aa c9 bc
       0.03638628 0.014570218 -0.018602131 -0.0246173
000260 88 a2 23 bd 76 16 42 bd 78 ca 39 bc c5 46 bb bc
       -0.039949924 -0.0473847 -0.011339776 -0.022860894
000270 ac 2a 22 bd 19 42 c2 3b 4c ef 16 3d 2d 21 44 bd
       -0.039591476 0.0059282896 0.036849305 -0.0478832
000280 f5 50 3c bd 61 8d 2a 3d ed 9c 41 3d 6c d3 05 3c
       -0.045975644 0.041638736 0.047268797 0.008168083
000290 bf 53 6e bd 8a be 94 bc 4a 87 13 bd 6e 47 4e bc
       -0.058185335 -0.018157262 -0.036017694 -0.012590272
0002a0 24 90 a4 3b 7f 55 4e 3b d1 46 99 3c c6 c2 37 3c
       0.0050220657 0.0031484065 0.018710526 0.011215871
0002b0 b6 68 15 bc 91 5f ee bd d5 cd d1 bd 6a 8d 39 bd
       -0.009119203 -0.116393216 -0.102443375 -0.04530088
0002c0 af 3d 0e bd fc ba 0b bb 4e f2 8e bc 1e 46 a8 bd
       -0.034726795 -0.0021321168 -0.017449524 -0.08216499
0002d0 62 10 fb 3b 93 6f 4d 3d 1f 35 08 3d ac 4a 17 bb
       0.007661865 0.050155234 0.033253785 -0.002308528
0002e0 7e e3 1b 3b 03 2c 2a 3c df 58 a0 bc ba 3d 04 3c
       0.002378672 0.01038647 -0.019573627 0.008071357
0002f0 73 27 b8 bc cb a7 15 bc 0a 02 0a 3c 52 de 9a bc
       -0.022479748 -0.009134243 0.008423338 -0.018904839
000300 1d 68 b2 bc a9 a7 3d bd 83 d1 6d 3c b4 34 50 3d
       -0.02177816 -0.04630247 0.0145152835 0.05083151
000310 42 ed 4e bd ae b6 a6 bb 6b 30 58 bd c6 ca 20 bd
       -0.050519235 -0.005087695 -0.05278055 -0.03925588
000320 8b 08 68 bc 88 e9 05 3d a8 7d 36 3d f2 94 d5 bc
       -0.014162193 0.032693416 0.04455343 -0.026072
000330 00 2e 9f 3c 26 0a 29 bd 76 ef 79 bc f3 8e b2 ba
       0.019431114 -0.041269444 -0.015254846 -0.0013622924
000340 a5 92 f4 bc 4e 2b 72 bd 18 1d 83 3c 6b bf 99 3d
       -0.029855082 -0.05912333 0.016005084 0.07507213
000350 7c 70 46 ba 19 2d 26 bc 72 31 1e 3d 18 37 d7 bc
       -0.0007569862 -0.010142588 0.038621373 -0.026271388
000360 9e 96 dd 3d 78 6e 2d 3d b4 1a 15 3e 2b e7 dd 3d
       0.108197436 0.04234168 0.14560968 0.108351074
000370 8e 53 38 3d f8 8a 27 3e b7 6b 1a 3d c9 6b 1e 3e
       0.04500156 0.16361606 0.03770038 0.15470804
000380 86 6d f7 3d 14 0b d2 3d 0a 30 a7 3d 5e 3e bd 3d
       0.12081437 0.10256019 0.081634596 0.09240411
000390 21 77 13 3d 8b 3c 2c bc f7 3d 86 3c e8 ce c7 3d
       0.036002282 -0.010512481 0.016386969 0.09756261
0003a0 e2 30 a1 3c 69 c2 bb 3d 5c 5a 7e 3d 7f a7 19 3d
       0.01967663 0.0916794 0.062097892 0.037513252
0003b0 89 cf 66 3d ec 2b 96 3a eb 40 e3 3d 2b 3a 3b 3d
       0.056350265 0.0011457182 0.110963665 0.04570977
0003c0 5b fe 8c 3d 2c b4 9b 3d f2 d2 fa 3c 2a 8b fa 3d
       0.06884452 0.076027244 0.030618165 0.12233575
0003d0 65 db 74 3d e9 4f b1 3d 69 2c d4 3c 92 04 67 3d
       0.059779543 0.0865782 0.025900083 0.056400843
0003e0 f6 05 c2 3d db 7c f0 3d 8a ab bf 3d 34 df e1 3d
       0.09473793 0.11742564 0.0935889 0.11028901
0003f0 75 24 b7 3d e5 ce d9 3d 16 80 02 3e fc a7 e5 3d
       0.089425005 0.10635165 0.12744173 0.11213681

cell.conv.bias f4 [64]
000000 76 18 a4 bc b1 54 8b 3d 14 d4 c0 3d c2 31 29 3d
       -0.020031195 0.06803263 0.09415451 0.04130722
000010 e5 4d 96 bb 3c 62 47 3d 40 2b 0d 3e 23 32 2e 3d
       -0.0045869225 0.048677668 0.1378603 0.042528283
000020 0e 8f 25 3b 81 6a 16 bd e7 0f 63 3d 34 9d 38 3c
       0.002526227 -0.036722664 0.055435088 0.011267949
000030 e4 4a 0d 3d a4 ff 99 3c 49 9f f0 bc 1d fc ff 3c
       0.03449525 0.018798657 -0.029372828 0.031248147
000040 2f 87 b8 bc 29 e9 f9 3d 1c dd 4e 3c 47 2b da bc
       -0.022525398 0.12202675 0.012625959 -0.026631964
000050 30 b3 54 37 b0 41 25 bc 00 ac d4 bc 40 86 1e 3d
       1.2677905e-05 -0.010086462 -0.025960922 0.03870225
000060 9d 0c ca 3d f3 3c 6d 3c 9d 73 8d 3d 73 72 3b 3b
       0.09865687 0.014479863 0.06906817 0.0028602153
000070 bc 4d 31 bd eb 37 20 3d d4 8b 5a 3d af d2 19 bc
       -0.043287024 0.039115828 0.053356007 -0.00938861
000080 e7 d1 e8 3d 53 a2 a2 bc 9c 9e a2 3d 02 af 59 3d
       0.11368161 -0.019852793 0.079404086 0.053145416
000090 9a a8 69 bc 44 ea b9 3d 19 f0 cc 3d 20 6e 1b 3d
       -0.014261389 0.09077886 0.100067325 0.03794682
0000a0 54 56 4a 3c 5d 00 63 3c 82 61 cf 3d db 07 e0 3c
       0.012349684 0.013855067 0.1012602 0.027347496
0000b0 0e 78 9b bc 13 6b b3 3d 96 04 48 3d 30 cd f1 3d
       -0.018978145 0.08760657 0.0488325 0.118067145
0000c0 e6 38 63 bd 55 7a a0 bd 66 9b b7 3c 52 3b 69 3d
       -0.055474184 -0.07835833 0.022412967 0.056941338
0000d0 c5 85 89 3d e0 71 9d bd b1 60 31 3c 90 53 d5 bc
       0.06714968 -0.076877356 0.010826276 -0.026040822
0000e0 1b fb 58 bd 6c 61 59 bc ad 21 7c 3d e9 98 06 bd
       -0.052973848 -0.013267856 0.061555553 -0.03286067
0000f0 49 dd 2d 3c 2c c2 5e bd 27 f5 38 3d 4d 7c c8 3c
       0.0106118405 -0.054384395 0.04515567 0.024473334

aux_proj.weight f4 [16, 8, 1, 1]
000000 01 93 09 3f 1f e1 9a 3e b8 77 59 be 38 c1 10 bf
       0.53739935 0.3024988 -0.21237075 -0.5654483
000010 9f f9 14 bf e3 28 34 bd f4 2c e0 be b2 46 7b be
       -0.5819339 -0.043984305 -0.43784297 -0.24538687
000020 40 47 fb 3e 0b e2 bc 3e dc 35 1e be ff 99 43 bd
       0.49077797 0.36891207 -0.15450233 -0.047754284
000030 e5 f9 6b be 4b 6a 94 be 54 76 c6 3d bb 9f 8a 3e
       -0.23044546 -0.28987345 0.09690538 0.2707499
000040 59 f0 71 be a9 24 bc 3d 8a f6 c1 3e ae d3 95 3d
       -0.23626842 0.0918668 0.37883407 0.07315765
000050 12 72 dd 3e 28 1c e5 3d 04 47 04 3f 6d cd 17 3e
       0.4325109 0.11187011 0.5167086 0.14824457
000060 69 5f 57 3d cc ba e1 3b 82 c8 72 be f3 94 11 bf
       0.052581225 0.006888723 -0.237093 -0.56867903
000070 c9 d8 c9 be 32 d6 51 3e aa 13 1b 3e 0b b6 55 3e
       -0.39423206 0.20491865 0.1514422 0.20870225
000080 a5 d9 fa 3e 2b 56 80 be 9d 2a f2 be 29 8e 0b bf
       0.48994175 -0.2506574 -0.47298136 -0.54513794
000090 c0 ec c7 be ca 20 ac 3d cd fe 31 be 7e 73 42 3e
       -0.39047813 0.084046915 -0.17382355 0.1898937
0000a0 c8 5f c9 be da d7 bd be 3a 03 db bd 49 59 6b 3e
       -0.39330888 -0.37078744 -0.10693975 0.22983278
0000b0 5b d0 16 3f fc b1 64 be 59 11 e1 bd 7c 4d 0e be
       0.58911675 -0.2233352 -0.10989637 -0.13896745
0000c0 c7 88 d5 3d 21 a6 5f 3e 2d 02 dd 3e 9b 33 e5 3e
       0.10426479 0.21840717 0.43165722 0.44765934
0000d0 5a 5b d6 3e 82 bf 2e 3d e0 4a a4 bd ed 88 43 3e
       0.4186657 0.042663105 -0.08022094 0.19095202
0000e0 07 04 32 3d 4f 36 d4 3e 7c 6f 9b be 67 23 0d bf
       0.043460872 0.41447684 -0.30358493 -0.55132145
0000f0 9c 2c 24 be 86 cd 31 bd 8c 2b df be 4b 68 cc 3d
       -0.16032642 -0.043408893 -0.4358791 0.0998083
000100 26 6f 24 3d 5c 82 87 3e 48 d3 6d bd 51 6b 45 bd
       0.040145062 0.26466644 -0.05806282 -0.048198048
000110 df 8c 22 be 38 d2 92 3e a6 44 81 be 22 41 4c bd
       -0.1587405 0.2867601 -0.25247687 -0.049866803
000120 1f 37 f8 3d be e0 73 be cc 94 97 bd f1 93 3c be
       0.121198885 -0.23816201 -0.074014276 -0.1841581
000130 fd 19 77 be c9 c9 6c 3e d5 b3 5c be 57 ec 95 bb
       -0.24131007 0.2312385 -0.21552975 -0.004575293
000140 07 3e 3c 3d 9f 65 51 3e 7e fe f0 bc 4a a6 2f be
       0.04595759 0.20448922 -0.029418226 -0.17153278
000150 99 dd 1e bf 62 46 9c be 0b 68 12 be de a4 87 3e
       -0.6205688 -0.30522448 -0.14297502 0.2649297
000160 bc 1c cb 3e a7 3f 44 be 17 ed a3 be 3d 80 9b be
       0.3967036 -0.19164906 -0.32016823 -0.30371276
000170 2f 25 84 3b ef b2 73 be bc a3 62 be 99 33 4a 3e
       0.004032753 -0.23798726 -0.22132772 0.19746245
000180 d8 df be 3d 09 c4 82 3e ec c0 80 3d cb 8d 17 bd
       0.093200386 0.25540188 0.06286797 -0.03700046
000190 b0 35 ea 3e 12 5d 18 3e 6a b1 40 be 1b a5 10 3e
       0.45744085 0.14879254 -0.18817678 0.14125483
0001a0 16 31 be be 92 72 7d be 52 89 aa 3e a0 28 8f 3e
       -0.37146825 -0.24750736 0.33307892 0.27960682
0001b0 2e e6 a9 3e 8e 7b aa 3d 3e 2d c9 bc c3 8d 82 3d
       0.33183426 0.083243474 -0.024557706 0.06374695
0001c0 64 69 ff 3e aa ee c5 3e e6 8f a0 be cb 3d 96 3d
       0.49885094 0.3865865 -0.31359786 0.07336005
0001d0 22 a4 d1 bd 2a 72 ce bd 09 71 0a be d2 53 9e 3e
       -0.10236384 -0.10080369 -0.13519682 0.30923325
0001e0 d5 29 01 3e 0d 7d 33 3d 76 79 ee be 3b ad 34 be
       0.12613614 0.04382043 -0.46577042 -0.17644207
0001f0 35 22 bc be 14 38 48 3e 55 79 87 be fb 9a 54 3e
       -0.36744848 0.19552642 -0.26459756 0.20762245

aux_proj.bias f4 [16]
000000 95 40 84 3e 5e 87 18 3d b7 8f 9a 3e 89 f4 03 bb
       0.25830522 0.03723847 0.3018777 -0.0020134768
000010 90 38 66 be c4 57 16 3c 2e 57 be bd 0e a4 14 3e
       -0.22482514 0.009176198 -0.09293972 0.14515707
000020 19 ce aa 3d 4d 2d e9 3d e0 e9 a6 be 9c 36 40 3e
       0.08340091 0.113855936 -0.32600307 0.18770832
000030 8b 98 0a be 4f 78 19 3d c0 eb a7 be a9 48 f1 3d
       -0.13534753 0.03746825 -0.3279705 0.11781437

head.weight f4 [1, 16, 1, 1]
000000 34 24 90 3e 41 ec 5a 3e 2e 89 8d be 4f 47 4a 3e
       0.2815262 0.21379186 -0.27643722 0.19753765
000010 96 73 e0 3e 13 77 10 bf 16 bb e0 be 11 97 a5 3e
       0.43838185 -0.5643169 -0.43892735 0.32341817
000020 db 31 b0 3e 7b 12 38 3e b5 91 71 3e 1a 7c 91 3d
       0.34413037 0.179758 0.23590739 0.071037486
000030 7e 6e bd bc 83 93 bb be 21 9a 45 3e eb 0a 09 3f
       -0.023123976 -0.3663598 0.19297077 0.53532284
