experiments/phase3_phys_lead1_seed0_tv0.005_time0.0005.pt (torch, 63989 bytes, 9 tensors)

encoder.0.weight f4 [8, 1, 3, 3]
0.0049372236 0.18144904 -0.26539463 -0.25287238 -0.14344898 0.09442735 -0.006516334 0.25155592
-0.01947785 0.108187675 -0.08799492 -0.03820871 -0.30212465 -0.22751325 -0.13131937 0.026775356
0.124949686 0.19857553 -0.2183492 -0.14059861 0.1513061 0.27403176 -0.08657114 0.27839616
-0.11021244 0.031556044 0.34903458 -0.34771502 -0.36800915 -0.1490453 -0.21935704 0.09275347
-0.33260465 -0.18010105 -0.373432 -0.35618874 -0.16898328 0.3250695 0.18841368 0.18780261
0.045513052 -0.14902025 0.082723536 -0.28933242 -0.21471106 -0.12926495 0.24544662 0.21797816
-0.10247934 0.050145768 0.25142482 0.37507883 0.19630678 0.08549006 0.27486193 -0.16331577
0.1167126 -0.18067138 -0.19802932 -0.11515802 0.23611476 0.19192147 -0.10930675 0.17771597
0.28424716 0.020708395 0.06419397 0.15286286 0.25085664 0.3223688 -0.23617385 -0.10514431
00000000: 6fc8 a13b c7cd 393e cee1 87be 7d78 81be
00000010: 4ae4 12be 2063 c13d f986 d5bb f0cb 803e
00000020: 0390 9fbc 8091 dd3d ae36 b4bd bc80 1cbd
00000030: 15b0 9abe 3cf9 68be 9678 06be fe57 db3c
00000040: 9fe5 ff3d 6257 4b3e ef96 5fbe 15f9 0fbe
00000050: fcef 1a3e e44d 8c3e 364c b1bd f189 8e3e
00000060: 0fb7 e1bd e940 013d a9b4 b23e b407 b2be
00000070: b26b bcbe 559f 18be 229f 60be 88f5 bd3d
00000080: 284b aabe 696c 38be 7b32 bfbe 5f5e b6be
00000090: f409 2dbe 826f a63e 84ef 403e 544f 403e
000000a0: e56b 3a3d c498 18be f56a a93d 6123 94be
000000b0: 37dd 5bbe 085e 04be 5c56 7b3e ab35 5f3e
000000c0: b0e0 d1bd a665 4d3d c1ba 803e 550a c03e
000000d0: a504 493e 6a15 af3d b4ba 8c3e 403c 27be
000000e0: 0407 ef3d eb01 39be 33c8 4abe f8d7 ebbd
000000f0: 11c8 713e 1087 443e 38dc dfbd 2dfb 353e
00000100: d888 913e a7a4 a93c 2178 833d 1588 1c3e
00000110: 4870 803e 860d a53e 8fd7 71be e655 d7bd

encoder.0.bias f4 [8]
0.19278273 0.36199975 0.31212357 0.37419075 0.10047673 -0.28375757 0.18210717 -0.19468416
00000000: d668 453e 0858 b93e a9ce 9f3e ee95 bf3e
00000010: bec6 cd3d ac48 91be 4d7a 3a3e 495b 47be

encoder.2.weight f4 [8, 8, 3, 3]
-0.07154769 0.078598045 0.18442251 -0.058308654 0.08430498 0.11482681 0.1226209 -0.014456829
0.14331636 -0.008427388 0.14657435 0.18218422 0.2070348 0.2064546 0.050081756 0.040976785
0.21692942 0.15508462 -0.077862985 -0.015830413 0.18831293 0.10000794 0.008356698 0.041583803
-0.06451144 0.07342917 0.008787129 0.035759214 0.114046566 0.10206148 0.08281133 0.20588724
0.050033662 0.18304819 0.20867558 0.018547399 0.17791931 0.14616673 0.0070948997 0.08638666
0.027939176 -0.013834599 -0.12633882 -0.055829026 -0.05143796 -0.0743989 -0.047001302 -0.03575014
-0.084147 -0.117916755 0.025489656 0.0036282479 -0.08317578 0.06282149 0.28733316 0.03842532
-0.053856246 0.21516007 0.1994917 0.09972229 0.26062667 0.23952876 0.09176105 0.0536646
-0.063085094 -0.06020294 0.087207735 -0.045602355 -0.07756036 -0.05722543 -0.15923835 -0.11398453
-0.01877211 0.108814664 0.06485425 -0.116493486 0.062979385 -0.15487538 -0.09083785 -0.07727124
-0.06336078 -0.02102734 -0.122763954 -0.14741857 -0.051912725 -0.07308415 -0.15099871 -0.0051445235
-0.19356564 -0.08786677 0.13575204 -0.020017587 0.1264461 0.07661773 -0.07722627 0.09813008
0.015171186 -0.02715739 0.11302605 -0.13399269 -0.029294575 -0.053506065 0.042277753 -0.0019435973
0.02089855 0.016134275 -0.07082613 -0.07212066 -0.19622199 -0.040284634 0.061971277 -0.0046849493
-0.14130051 0.0034636937 -0.076319166 -0.01894069 -0.063784584 0.07286571 -0.03321468 0.031130018
0.042421453 0.117825314 -0.05682237 -0.04547636 -0.028748563 0.1107778 -0.14016664 0.1084049
0.13391101 -0.12256502 -0.12276906 -0.06711233 -0.068337545 -0.17256087 -0.006445975 0.034966756
-0.06907326 -0.029968895 0.12209661 -0.057833917 0.031099165 0.14362982 0.08644151 0.04595742
-0.05614968 -0.017350135 -0.04551144 -0.044479232 0.047393296 0.13006055 0.1599592 0.124175504
0.13802825 0.11632988 0.12320647 0.006833696 0.1738809 0.06840022 0.14355512 0.17587279
0.23078513 0.24203439 -0.025352553 0.02577027 0.103387184 -0.10783578 0.1075541 -0.07456081
0.015863167 0.008693808 -0.019794375 0.18599048 0.25850165 0.099952795 0.12489622 0.11964778
0.03973801 0.22715889 0.13670748 0.10568285 0.13597865 0.23596774 0.057255775 0.25225106
0.16993193 -0.06476921 -0.06413627 -0.06511454 0.1745653 0.04766386 -0.049769945 -0.052103125
-0.11875776 0.027353903 -0.04914499 -0.11721893 0.072192304 -0.04975846 0.19184116 -0.051662542
-0.19192544 0.2247764 0.12095797 0.20490442 0.19624852 0.39595103 -0.04400832 0.07411137
0.018035604 -0.0014458667 -0.07019203 0.044260573 0.048993897 0.0045714574 -0.06391945 -0.08582122
0.096624516 -0.0153097175 0.045142163 -0.027947849 -0.08979391 -0.0494523 -0.14139399 0.02337285
-0.0018702573 -0.07536378 0.0015281398 0.009282199 -0.0051396512 -0.105117835 -0.20055726 -0.06933594
-0.048532438 -0.10841602 0.08071254 0.10778244 -0.042541772 0.038209938 0.078547776 0.034644805
0.04093405 0.040426616 -0.07591886 -0.035923406 0.043074172 0.082437046 0.027253717 -0.011279839
0.020398695 -0.07798804 -0.14301972 -0.1533665 -0.0038940555 -0.03342723 -0.09047299 -0.028864754
00000000: 9887 92bd 03f8 a03d 41d9 3c3e 0ed5 6ebd
00000010: 17a8 ac3d 522a eb3d ab20 fb3d 56dc 6cbc
00000020: 86c1 123e 0713 0abc 9617 163e 808e 3a3e
00000030: ee00 543e d668 533e 8722 4d3d 46d7 273d
00000040: bf22 5e3e 81ce 1e3e a176 9fbd c8ae 81bc
00000050: 1bd5 403e f6d0 cc3d 88ea 083c c753 2a3d
00000060: 931e 84bd 0862 963d e4f7 0f3c 4178 123d
00000070: 3f91 e93d 9c05 d13d fd98 a93d 1bd4 523e
00000080: 19f0 4c3d fc70 3b3e 0daf 553e b7f0 973c
00000090: 7b30 363e bbac 153e 557c e83b 7deb b03d
000000a0: b3e0 e43c 84aa 62bc f75e 01be faac 64bd
000000b0: 9cb0 52bd 735e 98bd 7084 40bd bd6e 12bd
000000c0: 4355 acbd 577e f1bd afcf d03c e6c7 6d3b
000000d0: 1058 aabd 8ea8 803d 551d 933e de63 1d3d
000000e0: 5e98 5cbd ec52 5c3e 8d47 4c3e 333b cc3d
000000f0: dc70 853e 0747 753e 38ed bb3d 69cf 5b3d
00000100: c232 81bd 5c97 76bd f899 b23d 89c9 3abd
00000110: f7d7 9ebd 3665 6abd 610f 23be b970 e9bd
00000120: f8c7 99bc 39da de3d 4ed2 843d 2394 eebd
00000130: 56fb 803d a797 1ebe 3209 babd 6240 9ebd
00000140: 4cc3 81bd 8741 acbc ab6b fbbd e5f4 16be
00000150: 70a2 54bd 25ad 95bd 689f 1abe 6493 a8bb
00000160: 1236 46be 7ef3 b3bd 9502 0b3e ecfb a3bc
00000170: 167b 013e c2e9 9c3d cf28 9ebd 6cf8 c83d
00000180: 9190 783c 2d79 debc 347a e73d 6135 09be
00000190: 2dfb efbc 2d29 5bbd 702b 2d3d 4ec0 feba
000001a0: 7033 ab3c 072c 843c 4a0d 91bd ffb3 93bd
000001b0: 6bee 48be 8001 25bd 98d5 7d3d 3484 99bb
000001c0: 15b1 10be 23ff 623b 394d 9cbd 8229 9bbc
000001d0: 7ea1 82bd 9e3a 953d 1e0c 08bd 6104 ff3c
000001e0: 1ec2 2d3d 664e f13d 93be 68bd 6b45 3abd
000001f0: 1b82 ebbc 79df e23d d887 0fbe 6303 de3d
00000200: f81f 093e 5f03 fbbd 586e fbbd 3072 89bd
00000210: 8ef4 8bbd ccb3 30be c238 d3bb 4d39 0f3d
00000220: 4876 8dbd 5481 f5bc ca0d fa3d 42e3 6cbd
00000230: adc3 fe3c b213 133e 3f08 b13d d93d 3c3d
00000240: 35fd 65bd df21 8ebc 346a 3abd db2f 36bd
00000250: 791f 423d 982e 053e 58cc 233e ba4f fe3d
00000260: 4757 0d3e 5c3e ee3d ac53 fc3d 32ed df3b
00000270: d60d 323e 6a15 8c3d 1d00 133e ff17 343e
00000280: f052 6c3e ddd7 773e 28b0 cfbc 2c1c d33c
00000290: a9bc d33d 01d9 dcbd 5345 dc3d 57b3 98bd
000002a0: 79f3 813c 7970 0e3c d027 a2bc 4a74 3e3e
000002b0: 545a 843e 0db4 cc3d 97c9 ff3d e509 f53d
000002c0: 53c4 223d 579c 683e 0cfd 0b3e 4070 d83d
000002d0: fd3d 0b3e 87a1 713e 0885 6a3d 0d27 813e
000002e0: a302 2e3e b8a5 84bd e059 83bd c65a 85bd
000002f0: 3fc1 323e 2e3b 433d 92db 4bbd 166a 55bd
00000300: 4537 f3bd 4b15 e03c 424c 49bd 7a10 f0bd
00000310: 8fd9 933d 87cf 4bbd 0272 443e 1a9c 53bd
00000320: 1a88 44be c92b 663e d0b8 f73d 77d2 513e
00000330: 5ff5 483e 18ba ca3e 1142 34bd b4c7 973d
00000340: 67bf 933c 3c83 bdba d7c0 8fbd 934a 353d
00000350: d3ad 483d 2acc 953b 33e8 82bd 09c3 afbd
00000360: 13e3 c53d 9cd5 7abc fde6 383d e3f2 e4bc
00000370: dfe5 b7bd 7f8e 4abd 96c9 10be 6b78 bf3c
00000380: 6c23 f5ba 5358 9abd dd4b c83a 5d14 183c
00000390: 856a a8bb 0548 d7bd e25e 4dbe 0000 8ebd
000003a0: f3c9 46bd 3809 debd 9e4c a53d 0abd dc3d
000003b0: 4840 2ebd 0682 1c3d a8dd a03d b6e7 0d3d
000003c0: 76aa 273d 6196 253d 597b 9bbd 6c24 13bd
000003d0: 8b6e 303d c1d4 a83d 3043 df3c 13cf 38bc
000003e0: 2a1b a73c 32b8 9fbd c373 12be 1c0c 1dbe
000003f0: 6933 7fbb feea 08bd e749 b9bd c775 ecbc

encoder.2.bias f4 [8]
0.10365761 0.12329866 -0.009306033 0.057955526 0.0039010672 -0.0036434825 0.14541958 -0.04925432
00000000: 714a d43d 0284 fc3d 5578 18bc c662 6d3d
00000010: 0ca9 7f3b 7ec7 6ebb dfe8 143e e6be 49bd

cell.conv.weight f4 [64, 24, 3, 3]
0.16190949 0.22362822 0.14387351 0.21165515 0.14586611 0.21420576 0.09048557 0.14919518
0.13890132 0.0461924 0.045097955 0.08052053 0.01230672 0.008525738 0.07334838 0.011245763
0.08001903 -0.016052824 0.13372807 0.14986415 0.17319249 0.19094987 0.15156043 0.06908962
0.15564302 0.13323921 0.14473063 -0.017278824 0.06342408 0.087397605 0.017543124 -0.05451186
0.06913017 -0.030886965 0.040377084 0.044419613 0.0668374 0.1239207 0.03668708 0.11212404
0.05671663 0.089220144 0.10395557 0.16167283 0.06560103 0.20530216 0.21263252 0.14183782
0.099853046 0.20856923 0.20306033 0.17009726 0.2608572 0.19756196 0.15347436 0.1713653
0.1535343 0.026533032 0.025188847 0.0062568635 0.033465642 0.049109288 0.113895185 0.03730054
0.13789654 0.057186507 0.08290545 0.16708055 0.08594468 0.09927636 0.054490507 0.15158328
-0.0055910586 -0.058741234 0.0146095725 -0.05931231 -0.10089183 -0.015513722 0.0526878 -0.03244247
0.018647088 0.055002857 0.045817245 -0.037464812 -0.004619522 -0.01499911 -0.05221788 -0.002669336
0.051584527 0.05472967 0.0040263943 0.017387183 -0.028198719 0.051350027 -0.021296535 -0.04308076
0.008129511 0.040722117 -0.0617043 0.064404584 0.03082833 -0.04549672 -0.0069200033 0.07399814
-0.042852502 -0.018898776 0.028877702 -0.05447327 0.028239837 0.023079766 0.027248487 -0.05462149
0.04886649 -0.05901519 0.060761064 -0.07667956 -0.074763335 0.017365323 -0.004931853 -0.01215046
-0.06429423 -0.022546867 -0.026737755 -0.10680483 -0.021263577 -0.01206132 0.0047268905 0.021908976
0.06755049 0.018661 -0.03641877 -0.03288724 -0.040159237 -0.049701657 -0.015333362 -0.01289714
0.026716067 -0.032891933 0.04758366 -0.062148828 -0.008861373 0.05856586 0.06182211 -0.045010783
0.013569408 0.007219669 -0.031931013 -0.027800761 0.011051618 -0.052668553 0.012492455 0.027182171
-0.027500667 0.07234218 0.0069329017 0.043673713 0.07467018 -0.021912977 0.043159403 -0.0057898923
-0.0036207894 -0.002872256 0.0119060995 -0.009150392 0.0403283 0.014206343 0.059004687 0.013267094
0.02023192 -0.012483842 -0.029448777 0.033623237 0.011293631 -0.021776015 -0.02166449 0.012793473
-0.011761638 0.05162392 0.00741653 0.030541502 0.033451755 -0.018045172 0.02814427 0.05083641
-0.0053265803 0.007675206 0.00640102 0.05022963 -0.029052377 -0.01982256 0.049964387 -0.037043102
0.016356977 -0.0010099167 0.070844844 -0.04630893 0.065202974 0.096050926 0.02202646 0.0062579974
0.077860124 -0.019926986 0.012845363 -0.014260769 -0.002419948 0.026935363 0.022950115 -0.007510422
-0.06592972 0.0049706865 -0.0005709897 0.0043234425 0.04884784 0.070796765 -0.03878756 -0.0020659748
-0.053919535 -0.07401996 -0.07275011 0.05969475 0.07536622 0.042617187 0.032945536 -0.02813963
0.005629956 0.10474957 0.0026563744 0.102647156 0.058052104 0.085126184 0.0116429515 0.07233599
-0.023197783 0.03541985 0.011867367 0.02197489 0.05215511 0.06403359 0.07855644 0.05454518
0.04350483 0.0033282156 -0.036919925 0.016784448 0.03320438 0.0036223077 0.073291026 0.06066793
0.04954266 0.055818386 0.09894719 0.065781385 -0.060180463 -0.050469305 0.025778422 0.008012402
00000000: 9acb 253e ccfe 643e 9453 133e 21bc 583e
00000010: ed5d 153e c158 5b3e 8050 b93d 9fc6 183e
00000020: 263c 0e3e 3e34 3d3d a2b8 383d f3e7 a43d
00000030: 20a2 493c 89af 0b3c ad37 963d 2640 383c
00000040: 04e1 a33d 3681 83bc 03f0 083e fd75 193e
00000050: 5f59 313e 5d88 433e a832 1b3e dc7e 8d3d
00000060: e260 1f3e dc6f 083e 4434 143e 528c 8dbc
00000070: 7ce4 813d 84fd b23d 99b6 8f3c d447 5fbd
00000080: 1e94 8d3d a906 fdbc 7162 253d 57f1 353d
00000090: 0ce2 883d 23ca fd3d 3145 163d 4aa1 e53d
000000a0: b24f 683d 0db9 b63d a8e6 d43d 908d 253e
000000b0: d559 863d bb3a 523e 57bc 593e ef3d 113e
000000c0: c17f cc3d 2c93 553e 0cef 4f3e fa2d 2e3e
000000d0: 138f 853e af4d 4a3e 6228 1d3e 637a 2f3e
000000e0: 1838 1d3e cd5b d93c d758 ce3c 6006 cd3b
000000f0: 4513 093d d226 493d e141 e93d 73c8 183d
00000100: c034 0d3e 663c 6a3d 55ca a93d 2a17 2b3e
00000110: c403 b03d 6751 cb3d 7031 5f3d a638 1b3e
00000120: 3335 b7bb a69a 70bd fd5c 6f3c 77f1 72bd
00000130: 60a0 cebd 442d 7ebc 2acf 573d 65e2 04bd
00000140: c7c1 983c ad4a 613d ddaa 3b3d b474 19bd
00000150: 5c5f 97bb d4be 75bc 6ae2 55bd 07f0 2ebb
00000160: 4c4a 533d 382c 603d d8ef 833b 916f 8e3c
00000170: 0001 e7bc 6854 523d 1276 aebc 7375 30bd
00000180: a431 053c 3ccc 263d a6bd 7cbd 8de6 833d
00000190: b28b fc3c c55a 3abd 32c1 e2bb 568c 973d
000001a0: 1b86 2fbd 9bd1 9abc ee90 ec3c 5d1f 5fbd
000001b0: 3b57 e73c c711 bd3c 3838 df3c c9ba 5fbd
000001c0: 3b28 483d e9b9 71bd 98e0 783d 2c0a 9dbd
000001d0: 851d 99bd b941 8e3c 629b a1bb b912 47bc
000001e0: b1ac 83bd 35b4 b8bc 2309 dbbc 7ebc dabd
000001f0: f430 aebc d89c 45bc 08e4 9a3b 747a b33c
00000200: e957 8a3d f4de 983c d92b 15bd c5b4 06bd
00000210: 037e 24bd f793 4bbd c838 7bbc 874e 53bc
00000220: a7db da3c b1b9 06bd 15e7 423d c58f 7ebd
00000230: 4b2f 11bc c1e2 6f3d 2e39 7d3d 3a5d 38bd
00000240: 3952 5e3c f992 ec3b 18ca 02bd 6cbe e3bc
00000250: d811 353c fbba 57bd 27ad 4c3c 25ad de3c
00000260: 1449 e1bc 2328 943d 652d e33b 35e3 323d
00000270: aeec 983d d882 b3bc eac7 303d 23b9 bdbb
00000280: c44a 6dbb 763c 3cbb cd11 433c 87eb 15bc
00000290: 4a2f 253d b9c1 683c e6ae 713d 3a5e 593c
000002a0: 69bd a53c 0789 4cbc 903e f1bc 85b8 093d
000002b0: ec08 393c 9d63 b2bc bb79 b1bc b79b 513c
000002c0: e3b3 40bc 9b73 533d 5d06 f33b 2c32 fa3c
000002d0: b504 093d 78d3 93bc d08e e63c d739 503d
000002e0: 988a aebb 4b80 fb3b a6bf d13b 96bd 4d3d
000002f0: 40ff edbc ec62 a2bc 75a7 4c3d 82ba 17bd
00000300: 11ff 853c 2e5f 84ba 1a17 913d 6fae 3dbd
00000310: 2389 853d 59b6 c43d d670 b43c e30f cd3b
00000320: 2175 9f3d eb3d a3bc 5b75 523c 00a6 69bc
00000330: fe97 1ebb 8da7 dc3c e101 bc3c fc19 f6bb
00000340: 2906 87bd 24e1 a23b 78ae 15ba aaab 8d3b
00000350: ac14 483d e5fd 903d b4df 1ebd 4e65 07bb
00000360: bbda 5cbd c797 97bd 02fe 94bd 7b82 743d
00000370: 9b59 9a3d 5c8f 2e3d e6f1 063d 1585 e6bc
00000380: 7e7b b83b f186 d63d 9116 2e3b ac38 d23d
00000390: 0bc8 6d3d a356 ae3d 14c2 3e3c e424 943d
000003a0: 4709 bebc 6814 113d 586f 423c af04 b43c
000003b0: 99a0 553d 0b24 833d 33e2 a03d c46a 5f3d
000003c0: 1f32 323d 311e 5a3b 5939 17bd 8a7f 893c
000003d0: 5101 083d 3d64 6d3b 9b19 963d ef7e 783d
000003e0: 3fed 4a3d d2a1 643d d3a4 ca3d 64b8 863d
000003f0: ca7f 76bd e7b8 4ebd 452d d33c 7346 033c

cell.conv.bias f4 [64]
0.102209814 -0.008615498 0.007636672 0.08071522 -0.01918993 0.007964305 0.06053999 0.005122524
0.08761206 0.09125523 0.025628902 0.06768338 -0.015693622 0.11527319 0.011551365 0.05674744
-0.0054557202 0.084948055 0.051531345 -0.0099268 -0.03678204 -0.003015417 0.036023267 0.014207517
0.021634592 0.0031028257 0.0037957388 0.091015786 0.02188388 -0.0065674987 0.035661142 0.09285909
0.09282279 0.00072991365 0.08479331 0.04093964 0.07663395 0.007193515 0.016561667 0.08940737
0.06601778 0.038259745 0.10295399 0.038276907 0.012875173 0.095739216 0.05517712 0.07306495
-0.006079358 0.07143662 0.0072131185 0.050082266 -0.08390379 -0.021050632 -0.065160364 -0.02049824
-0.07148593 -0.03398932 0.08247128 0.021185026 0.04369095 0.054959144 0.0583629 -0.046675727
00000000: 6153 d13d 0528 0dbc 0c3d fa3b 054e a53d
00000010: 3334 9dbc b77c 023c c8f8 773d d9da a73b
00000020: f46d b33d 06e4 ba3d b4f3 d13c 959d 8a3d
00000030: e98f 80bc 5a14 ec3d f041 3d3c 0170 683d
00000040: e6c5 b2bb 3ff9 ad3d 8812 533d 04a4 22bc
00000050: c4a8 16bd 4d9e 45bb 228d 133d a5c6 683c
00000060: 073b b13c c758 4b3b eec1 783b 7c66 ba3d
00000070: d345 b33c 2c34 d7bb 6b11 123d e82c be3d
00000080: e019 be3d ad57 3f3a 1da8 ad3d 53b0 273d
00000090: 43f2 9c3d 94b7 eb3b 55ac 873c 361b b73d
000000a0: 5434 873d 40b6 1c3d 8bd9 d23d 3fc8 1c3d
000000b0: 64f2 523c ec12 c43d 6701 623d 14a3 953d
000000c0: 5a35 c7bb 5d4d 923d 065c ec3b 1023 4d3d
000000d0: c0d5 abbd 6072 acbc cc72 85bd edeb a7bc
000000e0: 3767 92bd 6338 0bbd b4e6 a83d 388c ad3c
000000f0: 48f5 323d d71c 613d f00d 6f3d 0c2f 3fbd

aux_proj.weight f4 [16, 8, 1, 1]
0.2985704 -0.40778315 -0.08087378 -0.41255987 0.31464112 0.210655 -0.48066968 0.17027356
0.11911226 -0.056416724 -0.43785274 -0.113840975 -0.17178884 0.20587876 0.35880196 -0.19740781
-0.22193108 -0.026315711 -0.32512465 0.4088161 -0.24372658 -0.22169031 0.12956999 0.16966823
-0.39099875 0.44690844 -0.17810662 -0.03741344 0.105186984 0.18742244 0.15694986 0.051775053
-0.04276804 -0.21997474 0.4057391 0.24749367 -0.19293502 -0.13130619 -0.5109767 0.109581195
-0.23219886 0.33327293 -0.11320174 -0.14647025 -0.14383242 -0.31766486 0.3282545 -0.054176982
-0.14779161 0.2660442 0.3702141 -0.44838488 -0.04621789 0.41394562 -0.24652421 -0.12851383
-0.0064136796 -0.38699204 0.2776782 -0.25225905 0.43926182 0.19522479 -0.43283588 0.39317426
0.09810367 -0.3605133 -0.11624992 -0.30305734 0.23774588 0.21844257 -0.37750423 0.00917533
0.084888645 -0.3817266 0.5047471 -0.47275046 0.054854963 0.18832313 -0.2753911 0.12363235
-0.45030057 -0.08035315 -0.3745373 0.40351394 -0.21161602 -0.35469586 0.013964476 -0.40081695
0.12211268 -0.27711484 -0.06427144 -0.26340857 0.40328333 -0.1996215 -0.31001338 0.4907715
0.39579806 0.013798044 0.3262727 -0.20281997 -0.16672216 -0.12003993 -0.4648047 0.40205818
-0.16580163 -0.21888442 -0.4410059 0.051925283 0.09584133 -0.056207318 0.3231516 -0.22319168
-0.17662473 0.29206657 -0.06452158 -0.024975853 0.24508971 0.14475046 0.38475436 0.022273999
0.41334265 -0.13589996 0.24561426 -0.20301023 0.00015844687 0.11453945 -0.50631523 0.46420833
00000000: 38de 983e f4c8 d0be 27a1 a5bd 0c3b d3be
00000010: a418 a13e f2b5 573e 561a f6be 315c 2e3e
00000020: 21f1 f33d 3915 67bd 3c2e e0be 7525 e9bd
00000030: 6ae9 2fbe e2d1 523e e4b4 b73e 4625 4abe
00000040: e741 63be 0c94 d7bc bd76 a6be 5850 d13e
00000050: 7693 79be c902 63be ffad 043e 82bd 2d3e
00000060: fd30 c8be 2fd1 e43e 9561 36be d63e 19bd
00000070: 466c d73d abeb 3f3e 77b7 203e 1412 543d
00000080: 8a2d 2fbd 0f41 61be 09bd cf3e fb6e 7d3e
00000090: c290 45be 2175 06be 5ecf 02bf 1b6c e03d
000000a0: 8ac5 6dbe c0a2 aa3e 50d6 e7bd 4cfc 15be
000000b0: ce48 13be f8a4 a2be f910 a83e afe8 5dbd
000000c0: af56 17be f236 883e b48c bd3e b492 e5be
000000d0: f84e 3dbd aef0 d33e d870 7cbe 2199 03be
000000e0: d829 d2bb d223 c6be d62b 8e3e 1928 81be
000000f0: ede6 e03e 02e9 473e aa9c ddbe 234e c93e
00000100: 94ea c83d 3395 b8be 7014 eebd 552a 9bbe
00000110: a873 733e 69af 5f3e 3c48 c1be 2054 163c
00000120: 19da ad3d ab71 c3be 1b37 013f 590c f2be
00000130: 99af 603d c7d7 403e 1000 8dbe f532 fd3d
00000140: cc8d e6be 3190 a4bd 5ac3 bfbe 6199 ce3e
00000150: dfb1 58be b29a b5be 42cb 643c e137 cdbe
00000160: 3616 fa3d ffe1 8dbe bfa0 83bd 7ddd 86be
00000170: 277b ce3e 9469 4cbe 13ba 9ebe 6746 fb3e
00000180: 0ba6 ca3e 3111 623c 370d a73e 0ab0 4fbe
00000190: 37b9 2abe 7fd7 f5bd e2fa edbe 92da cd3e
000001a0: e7c7 29be 3d23 60be 86cb e1be 9baf 543d
000001b0: 7648 c43d a539 66bd 2074 a53e 5c8c 64be
000001c0: 1ddd 34be c089 953e e423 84bd 299a ccbc
000001d0: ccf8 7a3e 7739 143e 86fe c43e f677 b63c
000001e0: a6a1 d33e 5c29 0bbe 4e82 7b3e eae1 4fbe
000001f0: c224 2639 a993 ea3d e09d 01bf b7ac ed3e

aux_proj.bias f4 [16]
-0.25605094 -0.21431012 -0.029380621 0.24831173 -0.19455782 -0.0049532573 0.17940508 -0.32907277
0.36190218 0.22237271 0.13948467 -0.015586383 0.18796825 -0.07950232 0.049316168 0.24423075
00000000: 1c19 83be 1d74 5bbe a1af f0bc 6e45 7e3e
00000010: 2a3a 47be ef4e a2bb f7b5 373e 3a7c a8be
00000020: 3e4b b93e acb5 633e 12d5 0e3e 075e 7fbc
00000030: c07a 403e 1dd2 a2bd c0ff 493d a017 7a3e

head.weight f4 [1, 16, 1, 1]
-0.38730103 0.08318529 0.30982918 0.10096783 -0.3017085 0.24380712 -0.16746455 -0.34503356
-0.06410952 -0.08622034 0.4683411 -0.122454755 -0.34990105 0.516155 0.18730736 -0.18646753
00000000: 524c c6be 0d5d aa3d eea1 9e3e 39c8 ce3d
00000010: 8979 9abe 93a8 793e d47b 2bbe 3da8 b0be
00000020: da4b 83bd 4a94 b0bd 68ca ef3e 8fc9 fabd
00000030: 3b26 b3be bc22 043f 80cd 3f3e 58f1 3ebe
