experiments/phase2_season_aware_best.pt (torch, 63445 bytes, 9 tensors)

encoder.0.weight f4 [8, 1, 3, 3]
00000000: a682 863b bf42 383e 86ce 88be 86cc 81be
00000010: 4e30 14be cd55 bd3d e56c e3bb b042 803e
00000020: 235b b2bc 7b89 df3d 6b6a b5bd eefd 20bd
00000030: eafd 9abe b777 69be 339b 07be 47d4 cd3c
00000040: 9431 fe3d 5a01 4a3e 865b 5ebe 7930 0ebe
00000050: 0127 193e e6bc 8c3e c843 afbd e198 8d3e
00000060: 495f dcbd 1305 043d 3877 b13e 5727 b2be
00000070: 1f68 bcbe 5e5b 17be f942 62be 1438 c03d
00000080: 5a36 aabe 4f16 3bbe 0116 c0be 9831 b6be
00000090: a7c6 2cbe 4e05 a63e 3bd6 403e 6fd8 3f3e
000000a0: b75c 3a3d 06b3 18be 5b30 a73d 632b 94be
000000b0: e602 5cbe da1b 03be e688 7c3e 36b1 5f3e
000000c0: 2a94 cfbd a8fb 4f3d a3dd 803e 097d c03e
000000d0: ef14 493e 8792 af3d 27ab 8b3e f8aa 27be
000000e0: cef4 ef3d d09a 3bbe 7228 4bbe 2323 ebbd
000000f0: 6865 6f3e 3a28 433e eb4f debd f9a3 353e
00000100: 0916 913e 32ca ac3c c3c8 823d 2038 1b3e
00000110: 2a7f 803e 866f a53e 7e90 71be de0f d5bd
0.00410493 0.17994212 -0.26720065 -0.25351351 -0.14471552 0.09244881 -0.0069404715 0.2505088
-0.021771973 0.10914894 -0.08858188 -0.039304666 -0.30271846 -0.22799574 -0.13242798 0.025125636
0.124118 0.19727078 -0.21714601 -0.13885678 0.14956285 0.27487868 -0.0855785 0.276557
-0.10760362 0.0322314 0.3466127 -0.3479564 -0.36798188 -0.14780948 -0.2209586 0.09385696
-0.33244592 -0.18270229 -0.37516788 -0.35584712 -0.16872655 0.32425922 0.18831722 0.18734907
0.045498576 -0.14912042 0.0816352 -0.2893935 -0.2148548 -0.12803593 0.24661598 0.21844944
-0.10135682 0.050777107 0.25169095 0.37595394 0.19636892 0.0857287 0.27279016 -0.16373813
0.11716615 -0.18320775 -0.19839647 -0.11481311 0.23378527 0.19058314 -0.10855087 0.17738332
0.28337124 0.021092508 0.063859485 0.15158129 0.25097018 0.32311648 -0.23590276 -0.10403417

encoder.0.bias f4 [8]
00000000: 12c7 443e e273 b93e 7ef6 a03e 709b c03e
00000010: b0aa cb3d 07fb 90be 554a 3b3e aa01 47be
0.19216564 0.36221224 0.3143806 0.3761859 0.099446654 -0.2831652 0.18290074 -0.19434229

encoder.2.weight f4 [8, 8, 3, 3]
00000000: d9d7 8fbd 62c9 a83d 6538 413e c9bf 5abd
00000010: 22ba ad3d df16 f13d 57d2 f83d d0c7 49bc
00000020: 7960 173e 15dc 3ebb 193a 183e 7df2 3a3e
00000030: beca 573e 0246 543e 12eb 483d 6968 313d
00000040: c891 5e3e a27c 1f3e dcf9 9ebd 4360 7fbc
00000050: f616 3f3e bbbf cd3d 8c71 023c 290f 263d
00000060: 0543 81bd 0b78 953d 386a d13b 22a9 213d
00000070: 2019 f03d 0f3e d83d a5d0 b13d fe7f 563e
00000080: 377a 563d 2668 423e d020 593e 0f1c ad3c
00000090: ecd4 323e 11fb 133e c0c4 483c dfac ac3d
000000a0: fc26 e73c 72cf f6bb 6a33 febd ad0a 4cbd
000000b0: d740 41bd 1b04 9dbd d69c 42bd fde7 12bd
000000c0: e601 afbd aaf4 f1bd 38b4 c93c 54c7 463b
000000d0: e6c9 a9bd 375c 743d 4539 913e cbbd 1b3d
000000e0: 5c8d 49bd 0f4e 593e aa5b 493e cf3b cf3d
000000f0: 8485 853e a8fd 713e 3155 c33d 5eb6 4b3d
00000100: f7cb 87bd 078e 76bd 2132 ae3d 7b02 41bd
00000110: 3f18 9ebd c12b 74bd d8e4 22be 322f e9bd
00000120: cdc9 94bc c899 df3d 8973 893d b8ea eabd
00000130: 7c42 823d 4e32 1abe 63d1 b0bd 77da 96bd
00000140: d5bf 76bd b96e abbc 1e9a f9bd 3ca9 14be
00000150: e327 4fbd 2b87 8fbd c019 17be 950d 1abb
00000160: 5fb0 41be b4b9 adbd 0420 0b3e b2bc 9fbc
00000170: d612 023e 10d6 9c3d 8228 9dbd 1e3f ca3d
00000180: 96d6 7a3c 8d3e dabc fb35 e93d 24a4 09be
00000190: efac f2bc 9a57 5abd 7d1a 2d3d 7ed5 d0ba
000001a0: e8e6 ad3c e4c0 793c 4544 90bd 220e 93bd
000001b0: 2f51 44be 5f51 16bd 9b12 823d 0fb6 27ba
000001c0: a81e 10be 2850 833b 6336 99bd e64c b0bc
000001d0: ff1f 84bd 1d83 953d f3ed 06bd cf8a 003d
000001e0: 6405 2d3d 4716 f13d d8b6 66bd 335a 3bbd
000001f0: 156f ebbc 7450 e43d 1f5b 0ebe cf7f db3d
00000200: 9b94 063e c7a0 f8bd a71e f6bd 5a24 89bd
00000210: d170 8dbd fe2c 2ebe 458f 05bc 727e 113d
00000220: 7efe 8bbd 4416 f2bc adef fa3d c255 6dbd
00000230: c25b 003d 4412 133e 345d b03d 75a6 3c3d
00000240: c9d2 63bd ac77 34bc 9d2b 33bd 4785 17bd
00000250: 9903 493d ee91 023e 03a1 233e c08a 063e
00000260: 8389 0a3e 712a f83d 5264 fe3d 9edc ee3b
00000270: f589 333e 115f 8c3d c74c 0f3e ed63 363e
00000280: 7056 6a3e a648 763e 1c46 c8bc 228a d53c
00000290: b5f7 d23d 2d5b dabd a26e dc3d a84f 97bd
000002a0: 37fa 863c 128b 0c3c 70ca a3bc acf6 3d3e
000002b0: 6e95 843e 79c8 cf3d 392c fe3d b0e5 f73d
000002c0: 8ff9 263d 1b85 6a3e b450 0c3e 873c d93d
000002d0: 2a5d 083e 3f57 703e 6daf 7d3d d7d2 803e
000002e0: 542b 2d3e 5a4f 7abd 250c 72bd 731d 5ebd
000002f0: bc7a 2f3e 4506 453d de10 48bd 1fc3 4ebd
00000300: 24a4 f1bd c187 e33c b83f 46bd e3e3 eebd
00000310: 1f0a 973d e54c 4dbd b0c9 3d3e 9d56 36bd
00000320: b5a4 3cbe f100 5b3e 4860 ee3d e4a2 503e
00000330: 6e5d 483e 955a c53e e3a6 2bbd 75cd 973d
00000340: 7b41 933c f921 513a ab2c 8fbd 2ffc 363d
00000350: 747f 4b3d 4083 743b f704 7cbd c66c aebd
00000360: 009a ca3d 952c 7abc c7bc 433d d861 dfbc
00000370: 7535 b5bd 9227 3abd f356 0cbe 132e ce3c
00000380: 983b 9a3a f7b3 9cbd fbf9 283a fe6e 183c
00000390: daa6 a7bb 4419 d7bd 9800 4cbe 0966 8bbd
000003a0: ef36 40bd 4197 dcbd f368 a53d cd07 dd3d
000003b0: b393 2ebd 1ef8 1b3d 1705 a13d 5edd 0c3d
000003c0: 0cd7 263d 7ea3 253d ad67 9bbd 4969 17bd
000003d0: 9cd4 2f3d 2240 a73d 7086 db3c 3fb9 33bc
000003e0: 03e0 a63c 1f4e a2bd 7df5 11be d6d8 1cbe
000003f0: 8e81 c6ba d8d0 fcbc d7ff b6bd 4949 d6bc
-0.070235915 0.08241536 0.18869169 -0.053405557 0.08482768 0.117719404 0.12149494 -0.012315705
0.14782895 -0.0029122878 0.14865912 0.18256564 0.21073434 0.20729831 0.049052306 0.043312464
0.21735299 0.15574887 -0.07762501 -0.015586915 0.18661103 0.10046335 0.007961642 0.0405418
-0.06311611 0.07298287 0.006390836 0.03946794 0.11723542 0.10558712 0.08682374 0.20947263
0.052362647 0.18985042 0.21203923 0.021131543 0.17464036 0.14451243 0.01225394 0.0843141
0.028216831 -0.0075320536 -0.1241215 -0.04981487 -0.047180977 -0.07666799 -0.04751285 -0.035865773
-0.08545284 -0.11814244 0.024622068 0.0030331211 -0.08290462 0.059658255 0.28364006 0.038022798
-0.049207076 0.21221183 0.19663873 0.101188295 0.26078427 0.23631918 0.09537733 0.049734466
-0.066307 -0.06019404 0.08505655 -0.047121506 -0.07719468 -0.05961204 -0.1590761 -0.11385955
-0.018162632 0.10918003 0.0671149 -0.1147055 0.06360337 -0.15058252 -0.08633687 -0.073658876
-0.06024154 -0.02092682 -0.12187599 -0.14517683 -0.05057515 -0.07008203 -0.14755917 -0.002350663
-0.18914936 -0.08482686 0.13586432 -0.019499157 0.12702498 0.07658017 -0.07673742 0.0987532
0.01530995 -0.026641155 0.11387249 -0.13441521 -0.029623477 -0.0533062 0.04226159 -0.0015932766
0.021228269 0.015243743 -0.070442714 -0.0718043 -0.19171594 -0.036698695 0.06351205 -0.0006397673
-0.14074194 0.004007358 -0.074810766 -0.021521043 -0.06451415 0.073003985 -0.03294177 0.03138238
0.04224147 0.11771827 -0.056326717 -0.045740318 -0.028739491 0.11148158 -0.13901947 0.10717737
0.13142626 -0.12140041 -0.12017565 -0.06696387 -0.06906284 -0.1700935 -0.008151834 0.03552098
-0.0683565 -0.029551633 0.12252746 -0.057943113 0.031337507 0.14362437 0.08611527 0.046057183
-0.055620942 -0.01101486 -0.043742765 -0.036992338 0.049075697 0.1275098 0.1597939 0.13138866
0.13529019 0.1211747 0.12421478 0.007289483 0.17533095 0.0685407 0.13994132 0.17811556
0.22884536 0.2405115 -0.024447493 0.026066843 0.103011526 -0.10661922 0.10763289 -0.0738824
0.016476734 0.008578079 -0.01999399 0.18551129 0.25895256 0.10145659 0.124107786 0.12104356
0.04076534 0.22902338 0.13702661 0.10607248 0.1331679 0.23470782 0.061934877 0.25160858
0.1691106 -0.06111083 -0.059093613 -0.054227304 0.17136663 0.048101682 -0.04884421 -0.05047905
-0.117988855 0.027774693 -0.04840061 -0.1166456 0.07374977 -0.05012216 0.18533969 -0.044516195
-0.18422206 0.21387078 0.11639458 0.20374638 0.1956689 0.3854567 -0.041907202 0.07412235
0.01797556 0.00079777796 -0.069909416 0.044674095 0.049682096 0.0037309676 -0.061528172 -0.08516841
0.098926544 -0.015269418 0.047787454 -0.027268335 -0.08848087 -0.045447893 -0.13705043 0.025168454
0.0011767028 -0.07651513 0.00064459414 0.009303806 -0.005116326 -0.10502866 -0.19922101 -0.06806571
-0.04692739 -0.10771037 0.08076658 0.107925035 -0.042621326 0.03807842 0.07862299 0.0343908
0.04073243 0.04043912 -0.07588134 -0.036965642 0.04292737 0.08166529 0.026797503 -0.010969459
0.020370489 -0.07925057 -0.14253803 -0.15317091 -0.0015144811 -0.030861303 -0.08935516 -0.026157992

encoder.2.bias f4 [8]
00000000: b9d1 d43d b5ea fd3d 2b7c 11bc 369d 6d3d
00000010: 1d18 7f3b 3006 353c 5f80 153e 1982 49bd
0.10391564 0.123982824 -0.008879702 0.058011256 0.0038924285 0.0110488385 0.14599751 -0.049196336

cell.conv.weight f4 [64, 24, 3, 3]
00000000: fb75 183e 45a1 573e faeb 063e 1337 4b3e
00000010: c90f 083e 86c1 4e3e daab a13d cf5b 0c3e
00000020: 31c9 013e 32b3 353d 87e7 323d c68d a13d
00000030: 4c2a 293c 8d47 e43b d303 933d 68ac 0a3c
00000040: 4a3a 9f3d 30ab 94bc 5be8 f53d 4c49 0c3e
00000050: f859 253e b26a 363e 2db0 0e3e f7e2 6b3d
00000060: 72cf 133e 4b90 f73d 56e9 083e 8be4 a1bc
00000070: da71 7b3d 5617 af3d c8cd 743c 19cd 67bd
00000080: 5c98 893d fe67 0cbd a177 1a3d 2f30 2c3d
00000090: 8887 773d 7bad ef3d 7ea0 fb3c 1fae d83d
000000a0: bf7f 4c3d 5e0e aa3d 24a2 c83d de3b 1f3e
000000b0: 2de6 743d da3d 7f3e e4f2 7e3e 9895 4c3e
000000c0: 2888 153e 79c9 7e3e d998 893e 0bb1 5a3e
000000d0: ed94 983e 76a7 843e 7b48 133e 88a7 273e
000000e0: ca31 173e fc4f 923c 00c2 873c f604 adb8
000000f0: 8b3f bc3c c108 2a3d 9b4d dd3d 59eb fb3c
00000100: 7a4b 063e 9d78 513d bbf4 9c3d 4cc6 243e
00000110: 4c16 a43d b54b bf3d 6660 463d a63f 153e
00000120: a77b 6eba 1085 5abd 5e6e 9a3c 15b4 5dbd
00000130: 2e7a c8bd 14b6 3abc 4286 783d 32cd d6bc
00000140: afda c83c af5e 673d dc4f 433d a9e7 12bd
00000150: 3157 70bb 07d6 65bc 2c6c 51bd 8592 03bb
00000160: a842 563d 72a8 633d 105c ba3b 46c7 9e3c
00000170: 3094 d9bc cf7a 563d dd32 a5bc 5499 2bbd
00000180: 48b3 123c 315e 293d b17c 79bd 4081 873d
00000190: 94ea 043d 5d77 32bd 1963 b5bb 32c9 9a3d
000001a0: 7e4d 2abd e2f6 8ebc 953f f83c 6dc2 58bd
000001b0: d8ec ea3c 345d c03c 4ee1 df3c b40c 5cbd
000001c0: 89fb 493d a1a3 6fbd c71b 7d3d 079f 9bbd
000001d0: 48ff 96bd 1926 9d3c a181 63bb 7414 4fbc
000001e0: d2f1 84bd 0418 b9bc 9786 e0bc 621e dcbd
000001f0: 8bad b1bc 1580 63bc 448e 8b3b d2e4 a63c
00000200: 5fcc 893d e2ab 923c b1c6 1cbd b21e 0bbd
00000210: 5383 23bd a7f1 4bbd c3b8 7abc a825 3dbc
00000220: 1801 e33c 1b75 ffbc 1c9d 4a3d 4a20 79bd
00000230: 83a0 e5bb 9442 793d 76eb 823d 7a68 2ebd
00000240: 3ee3 433c 604c c03b cacf 06bd 278b eabc
00000250: 1a5f 303c b0fe 58bd 4108 3f3c 6a99 d93c
00000260: c746 e5bc cc12 8c3d 2913 263b b7d9 203d
00000270: f4d1 903d 8d3b dabc 9597 1e3d 5151 1fbc
00000280: a9c2 f9bb 0d82 d6bb fb0f 423c 1986 1bbc
00000290: 9a41 233d 65af 5c3c a467 723d 400d 4f3c
000002a0: cb71 973c c2f7 5dbc 09d2 f8bc a3db 013d
000002b0: f14a 1d3c af4e c1bc 15e1 c0bc db82 3e3c
000002c0: 6f3d 57bc 7b8a 4e3d 9fe3 cb3b a8a4 ee3c
000002d0: d813 023d a27b a7bc 999f d63c 36ff 4a3d
000002e0: e34b 09bc d62e c93b 82b0 c63b a3eb 4a3d
000002f0: a289 f5bc 55ee bebc 3e98 3d3d 56b1 27bd
00000300: c288 413c 4692 8fbb 85b2 893d d95f 55bd
00000310: 591e 773d e402 bb3d 3f72 b03c 5a5d d03b
00000320: 4699 9e3d 1984 a7bc 1f9d 573c 96df 70bc
00000330: 19bf 6cbb 6d78 d73c f3e1 b23c e8b5 33bc
00000340: d3ac 8ebd 1a46 a23a 8915 58bb 062a d63a
00000350: c755 3d3d 6248 8b3d 3ad2 28bd 4b07 8fbb
00000360: 4287 74bd 35a7 adbd 92e5 a3bd fbd3 3e3d
00000370: 6671 6f3d 1f64 ef3c e2e6 a73c bb62 2cbd
00000380: c735 aebb fcc8 c53d 29d4 aabb b766 c03d
00000390: 75fb 4e3d 7ea7 9f3d 3504 7f3b cc8b 823d
000003a0: bc9a 00bd fa26 dc3c 6ca2 6e3a eaf5 fd3b
000003b0: ff0c 1d3d 7cbf 483d 1a94 7e3d 14c5 1f3d
000003c0: 2835 0c3d 9dbf f0bb 2036 3ebd c995 eb3b
000003d0: d6a9 c63c 5f53 d8bb daa6 853d a3e5 583d
000003e0: cb9b 243d 1bb6 3f3d 7f48 b83d 658b 633d
000003f0: 6acd 82bd efb9 62bd 0c1c a93c a431 fb3a
0.14888756 0.21057613 0.13175955 0.19845228 0.13287272 0.20191011 0.07894106 0.13706897
0.12674405 0.044360347 0.043677833 0.07888369 0.010325026 0.0069665373 0.07178464 0.008463956
0.0777479 -0.018148035 0.12007209 0.13699836 0.16147602 0.17814139 0.13934393 0.057589497
0.14434603 0.120880686 0.1337026 -0.019762298 0.061387874 0.08549373 0.01494164 -0.05659208
0.06718513 -0.034278862 0.037711743 0.04203814 0.060431987 0.11703011 0.030716177 0.10580086
0.049926516 0.083035216 0.09796551 0.15550181 0.059789825 0.24925938 0.24897343 0.1997894
0.1460272 0.24881543 0.26874426 0.21356599 0.2980112 0.25909013 0.14383118 0.16372502
0.14765087 0.017860405 0.016571999 -8.250207e-05 0.022979518 0.041512255 0.10805818 0.030751871
0.1311473 0.051140416 0.07663866 0.16091269 0.08012065 0.09340612 0.048431776 0.14575061
-0.0009097405 -0.053349555 0.018851455 -0.054126818 -0.09788929 -0.01139595 0.060674913 -0.026220892
0.024518339 0.05648678 0.04768358 -0.03586546 -0.0036673064 -0.014028079 -0.05112855 -0.0020076346
0.052309662 0.055580564 0.0056872442 0.01938213 -0.02655992 0.052363213 -0.020165855 -0.041894272
0.008953877 0.041349594 -0.06090993 0.06616449 0.032450274 -0.043570865 -0.005535495 0.07557906
-0.04157781 -0.017451707 0.030303756 -0.052919794 0.028677389 0.023481943 0.027329113 -0.053723052
0.04931215 -0.058505658 0.06179407 -0.075986914 -0.0737291 0.019183205 -0.0034714716 -0.012639154
-0.06491436 -0.02259446 -0.027407927 -0.107479826 -0.021689197 -0.013885518 0.0042589027 0.020372782
0.06728434 0.017904226 -0.038275424 -0.03396482 -0.039920162 -0.049791005 -0.01530284 -0.0115446225
0.027710482 -0.03118377 0.049466237 -0.06082181 -0.00700766 0.06085451 0.06392567 -0.042580105
0.011956034 0.0058684796 -0.032913007 -0.028630806 0.0107648615 -0.052977264 0.011659683 0.026562411
-0.02798785 0.06839523 0.002534101 0.03927013 0.070712954 -0.026639724 0.03871878 -0.009723977
-0.0076220823 -0.006546265 0.01184463 -0.009492421 0.039857484 0.013469552 0.05918087 0.012637436
0.018486878 -0.01354784 -0.03037359 0.031703603 0.009600387 -0.02359709 -0.023544827 0.011627878
-0.0131372055 0.050425034 0.006222203 0.029131249 0.031757206 -0.020444695 0.026199149 0.049559794
-0.008379909 0.0061396165 0.006063522 0.049541127 -0.029972855 -0.023307005 0.046287768 -0.040940605
0.011812391 -0.004381451 0.06723503 -0.05209336 0.060331676 0.09131411 0.021538852 0.0063587846
0.07744078 -0.020448731 0.013160019 -0.014701745 -0.0036124645 0.02630254 0.021836257 -0.010968663
-0.06966557 0.0012380511 -0.003297182 0.0016339428 0.04622438 0.06800915 -0.041216113 -0.004364883
-0.059699304 -0.08479158 -0.080027714 0.04658888 0.058457755 0.029222546 0.020495836 -0.042086344
-0.0053164694 0.09657475 -0.0052132797 0.09394591 0.050532777 0.077956185 0.003891242 0.063743204
-0.031397566 0.026874054 0.0009103182 0.0077502625 0.038342472 0.04901074 0.06215296 0.039006308
0.03423038 -0.007347061 -0.046438336 0.0071894866 0.024250906 -0.0066017355 0.06525965 0.052953374
0.04018764 0.04680453 0.089982025 0.05555286 -0.06386836 -0.0553531 0.020643257 0.0019164574

cell.conv.bias f4 [64]
00000000: b255 c83d 81a1 5ebc bddc c73b 2c02 a93d
00000010: 6540 9ebc 678b ae3b c519 683d 05df b53b
00000020: 6071 b83d 7049 b93d 676f c93c c90a 883d
00000030: d180 80bc 77a7 e83d c7ea 153c 8054 7c3d
00000040: e8f7 96ba fee6 b13d c84a 553d a226 35bc
00000050: 9215 12bd 31db 68ba bb73 1a3d 6f0c 513c
00000060: ed78 973c 6a42 133b bfdf 023c 130b ba3d
00000070: f8ab ca3c 91e6 dbbb 156d 173d f505 bc3d
00000080: be90 ba3d 7f20 df3a acc1 ae3d b8fa 193d
00000090: 1797 9e3d 1113 b43b 5cdf 873c a01c b83d
000000a0: 4f96 833d 0673 263d d3ee d13d 94ac 2b3d
000000b0: 595f 4c3c 2354 c23d f346 6a3d 841d 923d
000000c0: 12f3 afbb d8e6 983d c273 f53b c45b 4a3d
000000d0: 575e adbd 559f a0bc 80d1 7abd 84a5 a7bc
000000e0: e2da 90bd 7592 0dbd 4459 a53d 1a1e a63c
000000f0: 1e89 333d f1dc 623d a08c 723d eac1 3dbd
0.0978197 -0.01358831 0.006099312 0.082523674 -0.019317815 0.0053266766 0.0566652 0.0055502676
0.090059996 0.0904721 0.024589254 0.06642682 -0.015686424 0.113600664 0.009150214 0.061604023
-0.0011517974 0.086866364 0.05207327 -0.011056574 -0.035665102 -0.000888276 0.037708025 0.012759312
0.01849028 0.0022470006 0.007987916 0.090841435 0.024740204 -0.0067108353 0.036969263 0.09180824
0.09109639 0.0017023234 0.08533034 0.03759262 0.07743662 0.005495437 0.016585998 0.08989835
0.064251535 0.04063704 0.1025063 0.04191263 0.0124739045 0.09488704 0.05719657 0.07134536
-0.0053695524 0.07465905 0.007490606 0.04940392 -0.084652595 -0.019607225 -0.06123495 -0.020464666
-0.070729986 -0.0345635 0.08073667 0.020278025 0.043831937 0.055386487 0.05921614 -0.04632751

aux_proj.weight f4 [16, 8, 1, 1]
00000000: d94d 953e 0915 d0be d071 b2bd ff4a d2be
00000010: d2d0 9f3e f2c2 613e 06f8 f3be 1c65 2a3e
00000020: a344 013e dde1 6fbd 65d7 dcbe 6a4e eebd
00000030: 83ff 2bbe 6c8e 483e 8737 b63e 9b94 45be
00000040: 38f0 5cbe 6693 dfbc 5ca3 a3be dea3 d03e
00000050: 4623 77be f7aa 6dbe 613a 013e 2830 313e
00000060: 46d1 c4be 8909 e43e 2b4b 30be b115 21bd
00000070: 5d66 dd3d f5b5 353e 3391 1d3e c3bd 633d
00000080: 3492 49bd 3c24 60be 42c9 cc3e 5fed 7e3e
00000090: a017 48be d5d6 f7bd 79e7 01bf aa33 d93d
000000a0: 7453 65be 0382 a93e adc6 d8bd a3b5 18be
000000b0: ac18 0fbe 928e a7be f127 a63e 0d32 49bd
000000c0: 88df 1ebe 4e1a 893e 2e35 ba3e 2c73 e4be
000000d0: 406c 4bbd 683a d93e 31bf 78be 13e7 07be
000000e0: 588d 4bbc 32ac c5be 2e69 8b3e 9d85 80be
000000f0: a3c6 df3e e673 523e e7dc dbbe 07a5 c73e
00000100: b5c1 b93d 8f85 b7be 5617 fbbd 7eeb 99be
00000110: 901d 703e cae3 683e c5b9 bfbe 1243 9f3b
00000120: eefd 9e3d b160 c2be 2232 ff3e 91c7 f0be
00000130: cf48 553d 319a 493e 2d43 8bbe 825c f43d
00000140: 45e2 e2be eb75 a7bd bd75 bcbe 57a2 cd3e
00000150: 0b04 56be 6fa7 babe 1395 203c 6b27 cbbe
00000160: cd64 eb3d 01e3 8cbe 0ee0 90bd 51ac 85be
00000170: cbb1 cc3e f121 43be 861f 9dbe af0d f93e
00000180: 5937 c73e edda 743c 75ff a33e 451e 4ebe
00000190: 6887 2dbe 63a2 e0bd 362b ecbe 71f2 cb3e
000001a0: d575 22be c482 61be 7082 debe a64d 4d3d
000001b0: 30ae c93d dc1f 87bd 7a44 a33e bb79 60be
000001c0: d58d 2dbe 2cc4 943e 362b 6ebd 497d dcbc
000001d0: 7519 7e3e 36ce 093e b72d c33e ac9c d73c
000001e0: 7a27 d03e 50a9 09be 3237 753e 6feb 4dbe
000001f0: 4c4c 23bb e442 ff3d afa5 00bf 33ac eb3e
0.29160956 -0.4064105 -0.08713114 -0.41072842 0.31214005 0.22047022 -0.47650164 0.16640133
0.12623839 -0.05856501 -0.43133083 -0.1163605 -0.16796689 0.1958558 0.3558924 -0.1929497
-0.21576011 -0.027291965 -0.3196057 0.4075002 -0.2413455 -0.23209749 0.12619926 0.17303526
-0.38440913 0.44538525 -0.17216174 -0.039327327 0.1081054 0.17745192 0.1538742 0.055600893
-0.049211696 -0.21888822 0.39997298 0.24895237 -0.19540262 -0.12101523 -0.50743824 0.10605557
-0.22395116 0.33107004 -0.105847694 -0.14913039 -0.13974255 -0.3272596 0.32452348 -0.049119998
-0.15514958 0.2677788 0.36368698 -0.4461912 -0.049663782 0.42427373 -0.24291684 -0.13271742
-0.012423836 -0.38607937 0.27228683 -0.2510194 0.43706235 0.20552024 -0.42941973 0.38993093
0.0907015 -0.35844085 -0.1226031 -0.3006248 0.23448777 0.22743145 -0.37446418 0.0048602903
0.07763277 -0.37964395 0.49842936 -0.47027257 0.05207139 0.19687726 -0.2719969 0.11931707
-0.44313255 -0.08176788 -0.36808577 0.40162918 -0.2089998 -0.36455867 0.009801167 -0.3967851
0.114938356 -0.2751694 -0.07073985 -0.2610803 0.39979395 -0.19055916 -0.30688113 0.48643252
0.38909414 0.014944774 0.32030836 -0.20128734 -0.16946185 -0.10968473 -0.46126717 0.39833406
-0.15865262 -0.2202254 -0.4345889 0.05012288 0.09847677 -0.065978736 0.3188818 -0.21921436
-0.16948636 0.29055917 -0.058146678 -0.02691521 0.24814399 0.1345757 0.38120815 0.026319824
0.40655118 -0.13443494 0.23946837 -0.20109342 -0.0024917303 0.1246393 -0.50252813 0.46029815

aux_proj.bias f4 [16]
00000000: 4efc 82be a585 5bbe d476 f1bc 5e2a 7e3e
00000010: 7e1a 47be 342a a8bb 66e0 373e 4d6f a8be
00000020: a54f b93e 1fe4 633e 4099 0e3e 86ad 7dbc
00000030: 6499 403e e340 a3bd 8356 493d dd45 7a3e
-0.25583118 -0.214377 -0.029475607 0.2482085 -0.194437 -0.005131984 0.17956695 -0.32897416
0.36193576 0.2225499 0.13925648 -0.015483266 0.18808514 -0.079713605 0.04915477 0.24440713

head.weight f4 [1, 16, 1, 1]
00000000: 48b0 c1be b893 b73d 1bab a03e 8507 d43d
00000010: 3b30 9bbe 04c4 7e3e a5ae 2ebe b7a4 b1be
00000020: 8c84 7dbd 9fce a9bd 73d2 eb3e c739 01be
00000030: 9e67 b6be e8ca 013f e46f 433e 95c1 3abe
-0.37829804 0.08963722 0.31380543 0.10352997 -0.30310234 0.24879462 -0.17058809 -0.3469598
-0.061893985 -0.08291363 0.46058998 -0.12619697 -0.3562593 0.50700235 0.19085652 -0.18237908
