experiments/phase2_season_aware_best.pt (torch, 63445 bytes, 9 tensors)

encoder.0.weight f4 [8, 1, 3, 3]
00000000: 2143 73be 2ef8 e23c 619d 80be 83d1 ba3e
00000010: 3e32 8e3e 5c52 b73e 8e39 95be 6d35 893e
00000020: 0170 23bd 1b99 d53d 8e15 8abe ac32 9a3e
00000030: cf69 05be bfde 69be a07f 1fbe 607f 883e
00000040: 179f 5abe 389b a43d 4de0 8fbe 2595 893e
00000050: 92a9 91bd 5e3e a13e f928 b5bd ab7e 77be
00000060: 15b8 533e 9b3b ccbc 2d3b 843e e44a 4cbe
00000070: d978 343e 81cf d43d 59ea 09be 1d9f f83c
00000080: 73ac 99bd 3bce 9b3e 3516 95be 5af5 9c3e
00000090: 4b08 883d c048 413e 63c9 873e b2fb 393e
000000a0: 5e0d 8a3c b15c 58be 7f1b 703c d3e7 903c
000000b0: 9be3 293e 2634 493e 86ea 57bd f1af ba3d
000000c0: 5a52 c93e 8dff 99be 8f27 4cbe dbf4 3bbd
000000d0: 237e 993d 3059 9c3d 5c18 cf3d dc0d 11bd
000000e0: 4e49 30be 7df6 49be 17f9 573e 79be 5e3e
000000f0: 9b8c 0abe 6c7d 903e 18a8 89bd a9af 20be
00000100: 7ee0 4b3e bf91 5dbe eb38 b23e b6c1 a33e
00000110: 5886 243e a969 0c3e 1f82 be3e fa5f 39be
-0.23756076 0.027706232 -0.2512007 0.3648797 0.27772707 0.35805023 -0.29145473 0.26798573
-0.039901737 0.10429593 -0.2696957 0.30116785 -0.13028644 -0.22838877 -0.15576029 0.2665968
-0.2134975 0.08037418 -0.28100815 0.268716 -0.07112421 0.31492895 -0.088457055 -0.24169414
0.2067569 -0.024930766 0.25826398 -0.19950444 0.17624225 0.10391141 -0.13468303 0.030349309
-0.07503595 0.3043078 -0.29118505 0.30655938 0.06642207 0.18875408 0.26520833 0.1816242
0.016852077 -0.21129109 0.014654993 0.017688667 0.16590731 0.196488 -0.052713893 0.091155894
0.39320642 -0.30077782 -0.19936965 -0.04588781 0.07494762 0.07634199 0.10112068 -0.035413608
-0.17215464 -0.19722934 0.21091114 0.21752347 -0.13530199 0.2822069 -0.067215145 -0.15692009
0.19909856 -0.21637629 0.3480905 0.31983727 0.16066873 0.13712181 0.3720865 -0.18103018

encoder.0.bias f4 [8]
00000000: fd53 4cbd 3b3c 8e3e 676f 9e3c 5ea9 22be
00000010: 5571 47be 2464 38be cd0a 21be eb99 63be
-0.049884785 0.27780327 0.01934023 -0.15884921 -0.19476826 -0.1800695 -0.15726776 -0.22226684

encoder.2.weight f4 [8, 8, 3, 3]
00000000: 21ad 503e 9d96 b03d e019 963c 389c fc3d
00000010: d33d 983e 3326 b13d 8722 4a3d d045 cebc
00000020: 6e22 163d 37ff 1d3e 58bd 09bd 328c 6f3e
00000030: c17f 8bbb e2e4 75be 806e dd3d 8a21 623e
00000040: 0824 f7bc 5c7f 663e c62f 7c3e 869c 1bbe
00000050: d3ab b83e 1d9a adbe d0ba ff3d a01f e33e
00000060: cf2f be3d b060 8a3e e015 9ebe 9386 033e
00000070: 1816 28be 9fa7 9d3e bbae 4f3d eff2 8bbd
00000080: 20c1 68be db4e 0f3e 8658 853e b2fe febd
00000090: af3c dd3d a88a 883d a34c 393e 7ed4 ae3c
000000a0: 7aa7 983c 4617 383e 3239 823e b98a a43d
000000b0: 2384 323d 1139 09bd a3ea 13be 28b0 1f3e
000000c0: b9db 1fbe 722e 74be 2d5a c33e a4db 5b3e
000000d0: 72a9 b8bd 05a4 593e 2e3b 083e a2f8 ae3e
000000e0: d280 fbbd ff3a 8b3e 9b54 de3d ea8e 46be
000000f0: 637b 8bbe 218f 9ebd 132e 6f3d ea8f 963d
00000100: 83b2 813e bba7 783e bf31 4b3d 5ba0 d73d
00000110: 3e8b ce3d 38aa 113a 63c6 9c3d c977 96bd
00000120: a55c ab3d 56b9 de3d 0bbd fe3d b295 1ebc
00000130: f66a 473e 2d8e 47bd abe7 6dbd 0b79 983d
00000140: 76b3 af3d 5e05 163c d0dd c9bc 2a1c 183e
00000150: 2cfd 79bd 00b8 34be 52e0 103d c045 553d
00000160: 0e22 fcbc 6c64 fa3c 379d 593e 7e9f 363e
00000170: 0e5b a23e 35a6 45bd 30a7 cabc 781b f83d
00000180: d5dd 95bd 0f5b c13d 66c0 8d3c 11d2 623e
00000190: df18 09be 9862 803d 823a 2f3e 3ccc 8a3d
000001a0: 7eea dbbd 8257 193d f97a c73d ffc5 38be
000001b0: 804d 90bd 7a14 013e 808b 033e 0e24 a93d
000001c0: 7457 b83d 8b35 b73d bdcf cc3d c7a4 e93d
000001d0: d4f8 1d3e 7a61 63bb 0ad9 1a3e 0181 09bd
000001e0: dd2d 6fbe 71f4 39be 37bb 8a3e 31ef 41bd
000001f0: 3443 02bd 74f5 703e 816a 403e fb3b 163e
00000200: e7e6 3d3d 0d61 273e 5292 de3d e41b 8f3c
00000210: 8420 423d c7dd 073d 9052 a4bc c6db 0c3e
00000220: ecc2 e53d 001b d33d 37b8 89bd 1721 eb3d
00000230: 5dc8 2fbd 2dca 1dbc 11e1 bdbc e07b a5bd
00000240: 17c8 97bd 0290 283e 7a41 bbbd cca9 1a3e
00000250: 1cdc dabb 78ae 113e 0556 bcbd a006 a53d
00000260: 13a6 98bd 9150 e93d 16b8 4b3d 787f 9ebb
00000270: 85ea a5bd ce13 bbbd 0e05 18be d6c3 423e
00000280: bbf1 f4bc d704 f1bc cf0a b03d c6a3 703d
00000290: d93f 773d d7a4 363c 9e09 cbbc 6b27 663e
000002a0: df50 d3bb d179 043e c357 593b 8bb8 2d3e
000002b0: 6c53 a53d d45f 173e 23de b23d 7343 b83d
000002c0: 9625 a1bd 4de0 d23d 4ad0 8fbd ea15 19be
000002d0: 6f0c 75bd 9496 073d b865 d53d 158b 293d
000002e0: 2b22 efbc 20e9 803d 395b 493d 27bb d23d
000002f0: 7b34 ef3d 58cc d33d 1dfb 253e 7a70 393c
00000300: 135e b4bd a508 05bc 97f8 f93d 2027 45bd
00000310: 0579 76bd 2709 ca3c 71f6 c6bb e7be 613c
00000320: fde8 f6bc 2200 f33d 2f2c 183e f4fd d7bd
00000330: 0fc7 10bd fcc8 4cbc 83fa 24b8 4887 4abd
00000340: 7067 b03d 3c78 303d 836e 1e3d 69a5 f33c
00000350: a543 703d 1a4d 8f3b 6983 f93d 5bee 8fbd
00000360: cd43 343e 431b d43d 010a 76bd b5fd cd3d
00000370: b80a 0bbd 6d78 9ebc e747 433d 97cd 1b3e
00000380: 897f 983d 7d91 a7bd 10ef 1c3c 2fa4 bb3d
00000390: a777 9fbc 7252 893c 5d86 3a3d cc0d c53d
000003a0: d450 03be 9261 b7bd abfe 313d bab6 533e
000003b0: 3905 773e 8e98 05be 70c4 573c 22e0 4d39
000003c0: d15f 75bd d1ef 14be c94e b03c c9b9 2ebd
000003d0: ec7d 4e3d bd3a 4abb 9b57 083e ba81 bdbd
000003e0: c82f 52bd 6087 7d3d f336 28bd 2523 d23b
000003f0: 2227 83bd 611d 063e a509 8c3d 3291 f63d
0.20378543 0.08622477 0.018322885 0.12334484 0.29734668 0.08649864 0.049349334 -0.025179774
0.03665393 0.15429388 -0.033627838 0.23393324 -0.004257173 -0.24013093 0.10812092 0.22083107
-0.030168548 0.22509521 0.24627599 -0.15196428 0.3606859 -0.33906642 0.124868035 0.44360065
0.092864625 0.27026892 -0.30876064 0.12844305 -0.16414678 0.30791947 0.050703745 -0.06833445
-0.22729921 0.13994925 0.260441 -0.12450923 0.1080259 0.066670716 0.18095641 0.021341559
0.018634547 0.17977628 0.25434262 0.08034272 0.043583047 -0.03350169 -0.14444976 0.15594542
-0.15611161 -0.23845842 0.38154736 0.21470505 -0.09016694 0.21253975 0.13303825 0.34174067
-0.1228043 0.27193448 0.10855981 -0.19390455 -0.27242574 -0.077421434 0.05839355 0.07351668
0.25331506 0.24282734 0.04960799 0.10528632 0.10085152 0.00055566756 0.07655027 -0.07347066
0.0836728 0.10875194 0.12438401 -0.009679245 0.19474396 -0.048719574 -0.058082264 0.07444962
0.08579151 0.009156553 -0.024641901 0.14854494 -0.06103246 -0.17648315 0.03537018 0.052068472
-0.030777957 0.030565463 0.21251379 0.17834279 0.31710094 -0.04825421 -0.024737924 0.12114614
-0.07317702 0.09441196 0.017303657 0.22150446 -0.13388394 0.06268805 0.17112163 0.06777236
-0.10738085 0.03743697 0.09740252 -0.1804428 -0.07046032 0.12605467 0.12846184 0.0825883
0.09001055 0.089457594 0.100005604 0.11408382 0.15426952 -0.0034695552 0.15121856 -0.033570293
-0.23357339 -0.18159653 0.2709596 -0.04734725 -0.03180237 0.23531133 0.18790628 0.14671318
0.046362784 0.16345616 0.10867752 0.017469354 0.04739429 0.033170488 -0.0200589 0.13755712
0.11218819 0.10307884 -0.06724589 0.11480921 -0.04291569 -0.009630722 -0.02317861 -0.08080268
-0.07411211 0.16461185 -0.09143348 0.15103835 -0.006679071 0.14226711 -0.091960944 0.08057904
-0.07453551 0.1139232 0.049736105 -0.004836973 -0.08101372 -0.09134637 -0.14845678 0.19020018
-0.029900422 -0.029421253 0.085958116 0.058749937 0.060363624 0.011147699 -0.02478486 0.22475974
-0.0064488496 0.12937094 0.0033163882 0.16964929 0.08072552 0.1478265 0.087337755 0.0899724
-0.07868497 0.10296688 -0.0702215 -0.14949766 -0.05982631 0.033102587 0.10419792 0.041392405
-0.029191097 0.06294465 0.049159262 0.10289603 0.11679932 0.1034171 0.16209073 0.01131832
-0.08807006 -0.008119737 0.12205618 -0.048133016 -0.060174007 0.024662567 -0.0060718586 0.013778425
-0.030140394 0.1186526 0.14860605 -0.105464846 -0.035346087 -0.01249909 -3.9333954e-05 -0.04944542
0.08613479 0.043083414 0.03867961 0.02974196 0.05865826 0.004373205 0.121832676 -0.070278846
0.17603989 0.10356762 -0.060068134 0.100581564 -0.03394577 -0.019344533 0.047675993 0.15215145
0.074462004 -0.081820466 0.009578481 0.09162175 -0.019466234 0.016762946 0.045538295 0.09621772
-0.12823802 -0.08954157 0.04345576 0.20675173 0.24123086 -0.13046476 0.013169393 0.0001963382
-0.05990583 -0.14544608 0.021521943 -0.042657647 0.050413057 -0.0030857765 0.13314669 -0.09253259
-0.0513151 0.06189668 -0.04106803 0.006412881 -0.06403948 0.13097145 0.06837777 0.120394126

encoder.2.bias f4 [8]
00000000: a1cd 803d 5443 2d3b 8ce9 cebc 1fb4 133d
00000010: b0cd f83d ff7b 84bd 1006 a7bd 266c a6bb
0.062892206 0.0026437836 -0.025257848 0.03606045 0.12148607 -0.06468963 -0.08155453 -0.0050788103

cell.conv.weight f4 [64, 24, 3, 3]
00000000: 24b9 823d fe13 323d 4166 d23c 9305 d13d
00000010: 94ca c43d be4a ab3d dbec 663d d4c6 313d
00000020: 262a b63c 82cd 183d c9d1 393d 894f a83d
00000030: 6eb1 2e3c e4ff d63d 9f01 a13d 8cdf cd3c
00000040: 656a ab3c bd7d 933d f6ad 073d d78f 52bc
00000050: e923 553d fb48 b83d eefa f93b 352a b33c
00000060: 1dba 8b3d 0e1e b83c df9d a33d 299b b33c
00000070: 3284 123d a183 6f3d d038 0d3c 311a 7fbc
00000080: 1ec4 b23c e14c 0dbc 13a0 07bd 5579 353d
00000090: cdf5 23bd 1d6e ba3d 01e6 8e3d 3734 7f3d
000000a0: 47bf 5d3c 124c 1a3d 12af 8d3d 0c95 37bd
000000b0: 02ba ad3d 41d7 473d 370d 153b 283b 47bc
000000c0: 607a 323d 91bd 1e3c b585 aa3d f636 7d3d
000000d0: db4a 153b 9c97 433c 2076 52bc 58e2 923c
000000e0: ef5a 6a3b 1c07 473d c765 ab3d 9a4c 173d
000000f0: 94fb bfbc 3060 1e3d a8af 533d b6ab 8b3d
00000100: 19ba 613d 0a1e a93c 32ac 893d 3ce3 77bc
00000110: e0c5 e2bb 85d7 7a3d acd8 b33d cba4 d33b
00000120: a8e2 183d bd79 00bd 64de 4ebd 5aed 79bc
00000130: 7916 5fbd 05d9 3cbd a767 53bd a9c8 5aba
00000140: 14e2 b43c b59a 6fbc a536 52bc 8352 303d
00000150: 39a7 1dbd e3eb 8d3d b287 ee3a 7182 803d
00000160: 877e 5a3d eff3 b43c 9397 f03c ba9f 3abd
00000170: e96d 4e3d fb40 933c 1f9f 993d 8457 703d
00000180: 62ae 22bc 75eb a53c 2b20 00bd f078 5a3c
00000190: 9a0b 26bd e883 35bd e28a dfbc 5248 aebc
000001a0: ce22 183d 33b9 8ebd bc79 12bc aa07 843c
000001b0: 0040 453d 7c20 c4bc a9c1 0d3d ba59 88bc
000001c0: 04bb 233d 19a8 0e3c df5e edbc c5bf 52bd
000001d0: ab8c 56bd 279e 353d 6e8a 4e3d 3091 6a3c
000001e0: d4f5 3a3d 1921 ff3b c3b8 443d 4859 56bd
000001f0: 2bb5 813d e7c8 abbc feee 923c f553 eabc
00000200: 4d34 033b 7ee0 a33d cec3 583c 6194 fc3b
00000210: 62e5 91bc 50e2 843a 78f2 7a3c 1b11 77bd
00000220: a24d 2abd 1716 623d 30c6 04bd 79c9 57bc
00000230: e0c6 05bd bdc2 313d 0d80 b3bc 1998 2b3d
00000240: d7ef 2f3d fe1b 0ebc 40aa 493c c31d 5c3d
00000250: 35e6 ab3d dc70 af3d f5d9 a83d 30f3 723d
00000260: 7a2d 643d 27fd 85bd 2bb4 ffbc b655 6dbd
00000270: 35cd 5dbd 235e 023d bfdc 96bd 8529 573d
00000280: 2a6f 60bd 0aa9 43bd c867 bf3a 48fc 183c
00000290: e880 8bbc d625 603d b861 79bd bad0 27bd
000002a0: 51cc 983c 4b7a 993c 5f8e 223d 1586 923d
000002b0: 2e8f 5e3d 579b ac3d 4220 79bc 397b 8ebc
000002c0: 1287 2d3a 2089 b1bc f2f3 6d3d 49bc 8dba
000002d0: fd7e d5bd 3fcd c3bd ffb2 98bd de68 e0bd
000002e0: 7fc4 a9bd dbae 09bd c952 babd 244c a5bd
000002f0: 937b fbbc 536e 91bc dbb9 76bd af9f f6bc
00000300: 1f72 a0bd 05ea 75bd f356 a8bc 28f9 84bd
00000310: c8d7 ddbc f6fd a2bd 3621 343c c6b4 71bd
00000320: 2ae9 20bc e329 8fbc b47d 553c 1dec 95bd
00000330: eb20 a7bd f7eb a33c 95ab 843c 38ba 0dbe
00000340: 40a3 ddbd b090 bdbd acda e4bd 5095 fabd
00000350: 81c9 48bd b610 10be 845f bcbd d1aa 25be
00000360: b51d 83bc db69 8d3b 2fdf c43c 6787 1d3d
00000370: 8a7a d53d 04de 1dbd a690 5f3d c1da 3a3d
00000380: 3403 853d 06a1 d8ba 9266 0b3d 2f59 713d
00000390: 3f9a 7b3d f70c db3c 6a1d 973d e5c3 963d
000003a0: 10d6 6e3d 7e68 2b3d c969 db3d 33ce 70bc
000003b0: c3e8 7e3d 7fa2 943d c9f4 bd3c 21d2 483d
000003c0: 1638 f73c 57c7 283d f11e ce3d 502e 713b
000003d0: 3a9a 6cbb d882 d53c 2108 093c 4cf3 d83d
000003e0: b9d4 1d3d 9822 363d c2b6 a53d 50c7 993d
000003f0: 65ad 443d bfa7 c93c 630d 5b3c 90bf 3f3d
0.06382969 0.043476097 0.025683524 0.10206141 0.09608951 0.08363865 0.056378227 0.043402508
0.022236895 0.037305363 0.045366082 0.08218295 0.01066242 0.10498026 0.07861637 0.02513101
0.020924756 0.07201717 0.033124886 -0.012851677 0.0520362 0.08998295 0.00762879 0.021870712
0.06822608 0.022475269 0.07989096 0.021924572 0.035770603 0.05847514 0.008619502 -0.015570209
0.021822032 -0.008624286 -0.033111643 0.044305164 -0.040029336 0.09103034 0.069774635 0.062305655
0.013534374 0.037670203 0.06918158 -0.044819877 0.08482744 0.048789266 0.0022743472 -0.0121601
0.043573737 0.009688751 0.08326284 0.061819993 0.0022780213 0.011938002 -0.012845546 0.017930195
0.0035759767 0.048590764 0.08369022 0.036938287 -0.023435391 0.03866595 0.05168119 0.06819861
0.055109117 0.020644207 0.06722297 -0.0151298605 -0.006920561 0.06124069 0.08781561 0.006458854
0.03732553 -0.0313661 -0.050505057 -0.015254343 -0.05446479 -0.046105403 -0.051612522 -0.0008345941
0.022080459 -0.014624287 -0.012830411 0.04304744 -0.038489554 0.069297574 0.0018198399 0.0627488
0.053343322 0.022088973 0.029369151 -0.045562483 0.050397787 0.017975321 0.07501053 0.05867721
-0.009929271 0.020253876 -0.031280678 0.013334498 -0.040538408 -0.04431525 -0.027287904 -0.02127472
0.037142567 -0.06968918 -0.008940157 0.016116936 0.04815674 -0.023941271 0.034608517 -0.016644347
0.039973274 0.00870707 -0.028975902 -0.051452417 -0.052380245 0.04434028 0.050424986 0.014316842
0.045644596 0.007785928 0.048027765 -0.05233124 0.06333383 -0.020969821 0.017936226 -0.028604487
0.0020020187 0.08001803 0.013230277 0.007708118 -0.017809574 0.0010138247 0.015316598 -0.060319047
-0.041577943 0.055196848 -0.03241557 -0.013170593 -0.032660365 0.043398608 -0.021911645 0.0418931
0.04295334 -0.008673666 0.012308657 0.05373932 0.08393518 0.08566448 0.08244697 0.059313953
0.055707432 -0.065424256 -0.03121384 -0.05794307 -0.05415078 0.031828057 -0.07366323 0.05252983
-0.054793514 -0.04776863 0.0014603073 0.009337492 -0.01702924 0.054723583 -0.060884207 -0.04097054
0.018652113 0.018735072 0.039686557 0.0715448 0.054335766 0.08428066 -0.015205445 -0.017392742
0.00066195533 -0.021671832 0.058093973 -0.001081356 -0.10424612 -0.09560632 -0.07456016 -0.10957502
-0.08289432 -0.03361402 -0.09097821 -0.08071163 -0.030698573 -0.017752802 -0.06023584 -0.03010544
-0.07834267 -0.06003763 -0.020549273 -0.06492835 -0.027080432 -0.079585955 0.010994246 -0.05901029
-0.009821216 -0.017476028 0.013030458 -0.07320426 -0.081605755 0.020009978 0.016195098 -0.13840568
-0.10822153 -0.092561126 -0.11174521 -0.1223551 -0.049020294 -0.14068875 -0.09197906 -0.16178443
-0.016005376 0.0043155975 0.024032203 0.038459208 0.10423763 -0.03854181 0.054581307 0.045618776
0.064947516 -0.0016527481 0.034033366 0.058922943 0.061426397 0.02673958 0.07378657 0.07361583
0.058309615 0.0418477 0.10713536 -0.014697599 0.062233698 0.07257556 0.023188012 0.04902852
0.030178111 0.04120573 0.10064495 0.0036801286 -0.0036102668 0.026063368 0.0083637545 0.1059328
0.038532946 0.044466585 0.08091499 0.07508719 0.048016924 0.02461612 0.013369891 0.046813548

cell.conv.bias f4 [64]
00000000: cfbe 07bc ce58 0c3c bca6 fabc 8e61 153e
00000010: 8890 d33a 700b bb3d cc41 80bd f8f6 a83d
00000020: e38a 8c3c abc3 2d3d c42c 553c c918 9a3d
00000030: 1067 503e a140 0fbd a8ca b03d 3daa eebb
00000040: 6119 dd3b 0332 d23c 91dc 3fbd a7d2 ef3c
00000050: a363 7d3d bd2a ce3c 4012 1f3b a8d7 0d3d
00000060: 957f 25bd aced 1c3c d30d 6c3b 903d 0bbd
00000070: 29af 4b3e 74a2 b53b e143 e83d 5803 4b3c
00000080: d736 803c 2f69 953d 552a 893d 8f6d 323d
00000090: 7620 8c3c 3e17 a33d c82b a3b9 65f1 953d
000000a0: 62f8 953d 2385 8d3c af17 863d 4ea9 0b3d
000000b0: 8af9 7c3e 6333 803d 3522 863d 51f3 553d
000000c0: 35d8 b1bd 8a41 593d 61c6 adbc c093 993d
000000d0: 6d8e 883d c42b 3f3d 2a6b 2a3d 2265 37bd
000000e0: 5930 133d 8ad5 00bc 8c46 c13a 1fbb ee3a
000000f0: 2f85 0dbe e7f9 d83c 342c 73bd 41b5 adbd
-0.008285238 0.008566095 -0.030597083 0.14587995 0.0016141096 0.09133041 -0.0626255 0.082502306
0.01715607 0.04242293 0.013011161 0.07524259 0.20351815 -0.034973744 0.086324036 -0.0072834776
0.00674741 0.025658613 -0.046841208 0.029275252 0.0618626 0.025166864 0.0024272352 0.034629494
-0.040404875 0.00957815 0.0036018982 -0.033994257 0.19891037 0.0055430476 0.11341072 0.012390934
0.01565115 0.07295453 0.06697527 0.043561514 0.017105322 0.079634175 -0.00031122402 0.07321433
0.07322766 0.017275399 0.06547486 0.03409701 0.24704567 0.06259801 0.06549493 0.052233998
-0.08683816 0.05304102 -0.021212758 0.07498884 0.066677906 0.046672598 0.041606106 -0.044774182
0.03593478 -0.007863412 0.0014745756 0.0018213725 -0.13820337 0.02648635 -0.059368327 -0.08481837

aux_proj.weight f4 [16, 8, 1, 1]
00000000: 7b58 cabb 8de3 1abe 3bcc a33e 7018 123e
00000010: cab7 0bbd 4385 ce3e b2a5 2c3e e949 9d3e
00000020: 1aa2 dd3e 8f23 a13e 6ebb bd3e 8df6 063e
00000030: b261 43bb e12a a33e beac dd3d 328b 5c3e
00000040: be8d 6e3e c54e 873e d7d2 bebd 41da c03d
00000050: 45b5 56be 7e3e e63d a112 b9bd d643 9abe
00000060: e20d d8be 6e81 b6bd 9bcb 593e f979 6ebe
00000070: 676e 5dbe 8e3d ed3d 3d80 8a3e a769 a7be
00000080: 77f5 ddbe 3e12 6d3c 2cb3 363e 1fc1 903e
00000090: f29f 85bd c126 84bd 58d1 27be fc58 5fbd
000000a0: cfac 673e 658a 7f3d ba72 2b3d 5617 983e
000000b0: 9a7e ef3c 75bc 213e 53a1 5bbe 4acf 70be
000000c0: 05ef 053e c70c 433e e829 af3e c7db b43d
000000d0: bb67 afbe 292e 7d3e e51b 1e3e 343b aa3d
000000e0: a3c4 a13e 7c36 02be c817 0abe bb89 a43e
000000f0: 502f eebd 1fb5 a5bd 042e 1e3e 3c85 8f3d
00000100: 70b5 433e 427d c13d dc2b d5bd ff19 083e
00000110: 22e6 763e 20ea 673e 4758 6b3d f6a5 c9bd
00000120: 17a0 853d 3900 4d3e 51cc 5ebe 50c0 87bd
00000130: c124 013e 7b13 453d 42fc 6b3e 97de 7abd
00000140: 3e40 443e 377a a1be a09e dcbe 0936 933e
00000150: 2c75 12be 4c43 8abe d168 0f3e fac7 82be
00000160: a277 523e 8e59 23bc 6195 25ba 65ae a33b
00000170: 6642 9abc 71b3 2dbd 8dee a13e 0db0 fd3d
00000180: 09ab a43e 30a1 c93e a8c9 a43d 2612 963e
00000190: 9fe3 c43b f4e9 df3d 22ce 16be 022f 9d3e
000001a0: b089 59bd d956 b9be 0426 193d dea6 893e
000001b0: da88 313e 6589 e4bc 3c6f 593c 42e9 87be
000001c0: 5ddb a13e 4460 ca3d e804 393e c162 3abe
000001d0: e67d 843e 06c4 83bb b83b bf3e 07c5 413e
000001e0: 4018 e4be c063 3e3e 1582 6abe 8cef 8f3d
000001f0: 0b29 8ebe ba70 8cbd c947 d6be 011b 41be
-0.0061750985 -0.15125866 0.31991753 0.14267135 -0.03411082 0.40336046 0.16860083 0.3072045
0.43287736 0.31472442 0.3705706 0.13179989 -0.002981287 0.31868652 0.108239636 0.21537474
0.23296258 0.26427284 -0.09317558 0.09416629 -0.20967586 0.11242388 -0.09036756 -0.3012988
-0.42198092 -0.089114055 0.21269076 -0.23288716 -0.21624146 0.11584006 0.27050963 -0.32697794
-0.43351337 0.014469681 0.17841786 0.2827234 -0.06524648 -0.06452704 -0.16388452 -0.05452822
0.22624515 0.062387843 0.04185746 0.29705304 0.029235173 0.15794547 -0.21448259 -0.23516575
0.1307946 0.19047843 0.3421166 0.08830982 -0.34258828 0.2472464 0.15440328 0.08312073
0.31595334 -0.12716097 -0.13485634 0.3213633 -0.11630118 -0.08091187 0.15447241 0.07007834
0.19112182 0.09447719 -0.10408756 0.13291167 0.24111226 0.22647905 0.057457235 -0.09846108
0.06524675 0.20019616 -0.21757628 -0.066284776 0.12611677 0.04811428 0.23045447 -0.061247434
0.19165131 -0.31538555 -0.4308977 0.28752163 -0.1430251 -0.27004468 0.14004828 -0.25543195
0.20553449 -0.009970082 -0.00063165097 0.0049951547 -0.01883049 -0.042407457 0.31627312 0.12387095
0.3216174 0.3938079 0.080462754 0.2931072 0.00600858 0.10933295 -0.14727071 0.30699927
-0.053109825 -0.36199072 0.03738977 0.26885122 0.17337361 -0.027897546 0.013271149 -0.2654515
0.31612673 0.098816425 0.18068278 -0.18201734 0.25877303 -0.0040211705 0.3735025 0.18922816
-0.4454975 0.18592739 -0.22901185 0.07028112 -0.27765688 -0.068574384 -0.41851643 -0.18857957

aux_proj.bias f4 [16]
00000000: b29e 393e 51e7 40be 72e8 273e 66c2 d23e
00000010: 5bfc 22be ec5a d4be 2214 1cbf 7066 0d3e
00000020: 1d8c 3dbc 8b27 193e 91b1 9b3e ffa1 0fbe
00000030: 9de1 cdbe 678b 803d 725d e2bd 0c08 ccbd
0.18126944 -0.1883824 0.16397265 0.4116394 -0.15916578 -0.41475618 -0.6096822 0.13808608
-0.01156905 0.1495649 0.3040891 -0.1402664 -0.40211192 0.06276589 -0.110529795 -0.09962472

head.weight f4 [1, 16, 1, 1]
00000000: c798 b53e 8ebf da3e aec9 dfbe 1fe7 8fbe
00000010: 3ead b5bb fc28 903e b60b 173e d006 aa3e
00000020: f2c8 443e c608 d83e 9eb8 e9be d98b c63e
00000030: e3de 9f3e 1541 8a3d bac2 8a3e cd9e 1a3d
0.35468122 0.4272427 -0.43708557 -0.2810602 -0.0055443337 0.2815627 0.14750561 0.33208323
0.1921728 0.42194194 -0.45648664 0.3877857 0.31224737 0.06750695 0.2710169 0.0377491
